tmp/models/epoch1_batch2286.pth (torch, 987253 bytes, 85 tensors)

conv1.weight f4 [32, 3, 9, 9]
-0.033053577 0.029749123 -0.022838926 -0.03116664 0.009200221 0.021674955 0.04177596 -0.05509584
-0.021169377 0.027282951 0.033303287 -0.056829855 -0.07848492 0.005269214 -0.053486113 0.005617364
0.028385319 -0.017806761 -0.029773692 0.06868042 -0.0556497 -0.07153811 -0.016511653 -0.039524566
-0.11047983 -0.027297175 0.038062178 0.09256427 -0.02283784 0.012955134 -0.043512043 -0.0075301314
-0.055352017 0.00063095026 0.00010373423 -0.05451698 0.062890224 0.040808015 -0.015257478 0.06416556
0.017363913 0.072094955 -0.016285194 0.012202132 -0.00044899876 0.046055622 -0.0042711725 0.050668094
0.018615393 0.01546144 0.020766737 0.008331089 0.056651622 -0.075519755 -0.031961285 -0.03812933
0.08826587 0.015671762 0.06702367 0.0020846995 0.029841857 0.00034195892 -0.037438996 -0.026984842
0.066802844 -0.017806126 0.034648467 0.08388194 0.040879965 -0.023541458 0.018817343 -0.017664395
0.027529554 0.025815 -0.045812834 0.003030131 -0.0024103897 0.09306816 0.072203524 0.010109957
0.0060625076 -0.061414976 0.007290321 -0.07217759 -0.027438669 -0.025149731 -0.021338098 0.05798424
-0.04108335 0.08833975 -0.042488024 0.029911073 0.012004337 0.009104522 0.022141146 0.038561385
-0.0707205 0.049991094 -0.04318924 -0.044030234 0.024340859 0.03279989 -0.052872334 -0.06963667
-0.06637566 -0.08463575 -0.040967666 -0.067633115 0.024879102 0.010496423 0.045347735 0.058108006
0.042275682 -0.048183568 0.031042561 -0.053908717 -0.072280675 -0.025238877 -0.00049585855 0.02237355
0.0713616 0.03967212 0.08516227 -0.020275759 -0.0132365525 -0.03206175 0.08196257 0.014126799
0.04023169 0.010107537 -0.0024083871 0.0626627 0.089657776 0.033309627 -0.011384651 0.0045088087
0.031573586 0.06747173 0.07498696 0.10019545 0.010454872 0.0587736 0.062925674 0.02701055
-0.025891427 0.0071702846 0.042129375 0.09810572 0.078912504 0.0021051257 0.04857069 0.043566894
0.009205783 -0.05846799 -0.043625012 -0.03347041 -0.01650436 -0.025805917 -0.0026509413 0.06145843
-0.030114813 0.022401059 -0.045654647 -0.06851687 -0.053804826 0.013228976 0.045894958 0.03939374
-0.0066814553 0.06065379 0.0831834 -0.021091484 0.001667669 -0.02676586 -0.013609827 0.0017449881
0.044654105 0.06520339 -0.035536192 -0.013641444 0.06730578 0.044303663 -0.03785824 0.023285357
-0.008921645 0.0012674788 -0.032033436 -0.08528983 0.055342223 0.04475661 0.05894522 0.06262333
0.03291251 -0.024530021 0.001437374 0.0084331 0.016227895 -0.0776097 0.09326343 0.030476563
-0.020082587 0.05755749 -0.02466522 -0.0101192 0.02150303 0.0070992555 0.007879883 0.028302435
-0.044726904 0.0065409974 0.09937911 0.06628894 -0.0020300807 0.0064326553 -0.013696245 -0.03642865
0.031225013 0.0074011753 0.047416087 -0.013352176 0.03531758 -0.009314805 0.03155856 0.024598477
-0.02857156 0.014089821 0.0076817595 -0.016912969 0.043086056 0.084438816 -0.012465773 -0.018203834
-0.01706572 0.003768162 0.036460426 -0.05431417 -0.0395866 -0.009568226 -0.023567708 -0.029200321
0.027188048 0.01548557 -0.036967102 -0.005179237 0.01410791 -0.085125625 0.010532808 -0.032376185
-0.07591898 -0.07283389 -0.037360214 -0.055479605 0.013260733 0.04212365 -0.023180969 -0.016786426
00000000: 3063 07bd 6fb4 f33c b318 bbbc 2e51 ffbc
00000010: 86bc 163c ad8f b13c 451d 2b3d 2dac 61bd
00000020: 676b adbc 7f80 df3c 0769 083d 6cc6 68bd
00000030: b4bc a0bd 5fa9 ac3b 4114 5bbd dd11 b83b
00000040: 5488 e83c 7cdf 91bc f5e7 f3bc 52a8 8c3d
00000050: f1f0 63bd 9382 92bd 7243 87bc 83e4 21bd
00000060: 4043 e2bd 539e dfbc 16e7 1b3d 5692 bd3d
00000070: 6c16 bbbc c541 543c af39 32bd 52bf f6bb
00000080: ccb8 62bd 5b66 253a e48b d938 324d 5fbd
00000090: 97cc 803d 4e26 273d 80fa 79bc 3c69 833d
000000a0: c43e 8e3c 85a6 933d 8768 85bc 73eb 473c
000000b0: 9867 ebb9 d2a4 3c3d 31f5 8bbb 5989 4f3d
000000c0: 4f7f 983c fb51 7d3c 011f aa3c 1f7f 083c
000000d0: 880b 683d 1aaa 9abd d6e9 02bd 802d 1cbd
000000e0: bdc4 b43d 1162 803c b543 893d 749f 083b
000000f0: e976 f43c f348 b339 a259 19bd 510f ddbc
00000100: eecf 883d 27de 91bc 8deb 0d3d 4bca ab3d
00000110: c071 273d 04da c0bc d426 9a3c ecb4 90bc
00000120: a985 e13c fb79 d33c 3da6 3bbd 2a95 463b
00000130: a1f7 1dbb 859a be3d 71df 933d 3ca4 253c
00000140: 00a8 c63b 458e 7bbd a5e3 ee3b d8d1 93bd
00000150: 0fc7 e0bc cf06 cebc 3ccd aebc e280 6d3d
00000160: 0447 28bd 79eb b43d ec07 2ebd 1108 f53c
00000170: d7ad 443c 222b 153c 5961 b53c 8bf2 1d3d
00000180: e9d5 90bd 76c3 4c3d 33e7 30bd 0c59 34bd
00000190: 7b66 c73c 2d59 063d a990 58bd ac9d 8ebd
000001a0: f6ef 87bd 8255 adbd b6cd 27bd 3b83 8abd
000001b0: 42cf cb3c 30f9 2b3c 8cbe 393d a902 6e3d
000001c0: 4429 2d3d 225c 45bd f84c fe3c 63cf 5cbd
000001d0: e407 94bd c3c1 cebc 81fc 01ba bc48 b73c
000001e0: 0826 923d 3c7f 223d 8e69 ae3d 5919 a6bc
000001f0: 20de 58bc 2e53 03bd fedb a73d 1774 673c
00000200: fcc9 243d 159a 253c 08d6 1dbb 4d55 803d
00000210: 7f9e b73d ad6f 083d b086 3abc a1be 933b
00000220: 4e53 013d 9e2e 8a3d c392 993d 4633 cd3d
00000230: e94a 2b3c 96bc 703d 2ddf 803d 3b45 dd3c
00000240: 421a d4bc b5f4 ea3b da8f 2c3d a7eb c83d
00000250: e19c a13d 26f6 093b 0ff2 463d 3373 323d
00000260: dad3 163c 227c 6fbd 24b0 32bd 4518 09bd
00000270: 2734 87bc ee66 d3bc 6abb 2dbb d6bb 7b3d
00000280: 57b3 f6bc 6d82 b73c 5e00 3bbd 9352 8cbd
00000290: 7362 5cbd 59be 583c 5afc 3b3d 555b 213d
000002a0: 1cf0 dabb 1c70 783d 0f5c aa3d 0cc8 acbc
000002b0: b095 da3a 1444 dbbc c0fb 5ebc 16b8 e43a
000002c0: 39e7 363d 5b89 853d 668e 11bd 5d80 5fbc
000002d0: 9dd7 893d c277 353d 3e11 1bbd efc0 be3c
000002e0: 172c 12bc 8821 a63a 7e35 03bd 6fac aebd
000002f0: 87ae 623d b552 373d 8b70 713d a940 803d
00000300: 45cf 063d 2ff3 c8bc 4566 bc3a fc2a 0a3c
00000310: 5df0 843c d6f1 9ebd e600 bf3d fca9 f93c
00000320: 3d84 a4bc 67c1 6b3d b70e cabc 00cb 25bc
00000330: 1f27 b03c dfa0 e83b a01a 013c 82da e73c
00000340: 8f33 37bd dd55 d63b 4687 cb3d 7fc2 873d
00000350: 1a0b 05bb 06c9 d23b 3766 60bc 3536 15bd
00000360: 99cb ff3c 8f85 f23b 5f37 423d 16c3 5abc
00000370: 2ba9 103d 209d 18bc 8c43 013d bf82 c93c
00000380: e70e eabc fed8 663c 45b7 fb3b 118d 8abc
00000390: 017b 303d 42ee ac3d 3e3d 4cbc 3520 95bc
000003a0: 69cd 8bbc 45f3 763b 8757 153d 8978 5ebd
000003b0: 8f25 22bd 0cc4 1cbc 1111 c1bc 8335 efbc
000003c0: 78b9 de3c 30b7 7d3c d16a 17bd 97b6 a9bb
000003d0: dd24 673c 5856 aebd cc91 2c3c e49c 04bd
000003e0: 697b 9bbd ef29 95bd 0607 19bd 953e 63bd
000003f0: 8c43 593c d989 2c3d 04e6 bdbc b083 89bc

in1.weight f4 [32]
1.0038804 0.9822404 1.0192113 1.0450594 1.0465695 0.9941929 0.97055924 0.99377483
1.0124159 0.9557451 1.0801419 1.0263621 1.0218216 0.99536043 1.0046657 0.9846493
0.9946688 0.98709095 0.9826123 0.9267225 0.9903121 1.0438657 0.9942096 1.0263658
0.98416096 0.96275264 0.9753793 1.0145774 0.9720986 0.9887054 0.99358463 0.9662012
00000000: 277f 803f 1b74 7b3f 8475 823f 82c4 853f
00000010: fdf5 853f 6d83 7e3f 9276 783f 0768 7e3f
00000020: d896 813f b6ab 743f 1742 8a3f d55f 833f
00000030: 0dcb 823f f1cf 7e3f e398 803f fa11 7c3f
00000040: 9da2 7e3f feb1 7c3f 7b8c 7b3f b03d 6d3f
00000050: 1885 7d3f 649d 853f 8584 7e3f f45f 833f
00000060: f9f1 7b3f f576 763f 75b2 793f acdd 813f
00000070: 74db 783f cc1b 7d3f 905b 7e3f f658 773f

in1.bias f4 [32]
0.017926635 0.011848173 -0.011362115 0.07117057 0.03932707 0.052698117 0.012050276 0.06335049
0.046449214 0.0033148322 0.1224814 0.074007966 0.03725363 0.03688854 0.034066547 0.053348746
0.010655623 0.057686046 -0.0011865757 -0.044324104 -0.004506746 0.10389817 0.0011179819 0.044853695
-0.01948638 0.048472848 0.01955775 0.09686045 0.018419877 0.0054814713 0.014045454 -0.022092802
00000000: e1da 923c d71e 423c 2a28 3abc e0c1 913d
00000010: 6c15 213d fbd9 573d 856e 453c e7bd 813d
00000020: 8841 3e3d a83d 593b 87d7 fa3d 7d91 973d
00000030: 4397 183d 7018 173d 5d89 0b3d 3784 5a3d
00000040: ec94 2e3c 3448 6c3d e086 9bba 318d 35bd
00000050: 53ad 93bb 90c8 d43d 3f89 923a 82b8 373d
00000060: e7a1 9fbc 778b 463d 9337 a03c c65e c63d
00000070: 48e5 963c ea9d b33b e71e 663c f7fb b4bc

conv2.conv1.weight f4 [32, 32, 1, 1]
-0.19519065 -0.03192696 0.18678875 -0.17296207 0.08283144 -0.03142768 0.026342243 0.04749105
0.06449716 -0.04265181 -0.15010592 0.013742932 -0.04892227 0.01772717 0.09789125 0.0073299594
-0.042428877 0.12193199 0.043712676 -0.029956523 0.11592769 0.19515078 -0.07261607 0.05128251
-0.19474582 -0.03027511 -0.08007328 -0.11401718 0.09003941 -0.08546321 0.11385839 -0.010140336
-0.13102683 -0.058343425 -0.14683609 -0.18729608 -0.120265916 0.11030934 -0.1368788 -0.060434088
0.022362595 -0.043169852 -0.1341713 0.098744534 0.0025082082 0.04235486 -0.077117786 0.13287227
0.21344441 0.070125625 -0.14714098 -0.14648099 0.09920782 0.048863277 0.051508784 -0.07395515
0.09938502 0.028047984 -0.09964716 0.1350497 0.12652716 -0.023129988 -0.0070001055 0.08606189
0.12802392 0.17527458 0.021647466 0.046511974 -0.053574633 -0.16736966 -0.1017372 0.10492653
-0.061878987 -0.042353567 -0.18202554 -0.17283288 -0.06822313 -0.14870621 0.082563505 -0.0212594
-0.11006117 0.10813217 0.13740778 -0.018754214 0.100793414 0.1822527 0.03830606 -0.076944195
-0.09299807 0.073148556 -0.10523533 0.17380565 0.12379781 0.014364897 -0.06782858 0.04231642
0.04975115 0.06413742 -0.12649871 -0.10973676 -0.010610507 -0.07692336 0.105107866 0.0021587
0.14575955 -0.06409434 -0.017084228 0.096174 0.17530636 -0.12754251 0.12900917 0.002075804
0.099732704 -0.033487212 0.12931804 0.12404875 -0.106395096 -0.0021201118 0.08288339 0.12246641
-0.10986723 -0.1625584 0.020598272 0.11734872 0.029361404 0.17169853 0.06590657 0.107189365
0.19185537 -0.15705127 -0.0065576616 0.047481634 -0.00020935669 0.044154536 -0.101289004 -0.014445638
0.16353458 0.17906485 0.008742991 0.037295297 0.06972322 0.15784025 0.19439086 0.11425684
-0.05859489 -0.024781391 0.13510333 0.018844312 0.14844902 -0.078483135 -0.050898094 0.1086057
-0.062679596 0.0016778657 -0.05354634 0.02994255 0.008136013 0.04994524 -0.06552661 -0.10782969
-0.13502441 0.12658739 0.18254636 0.16659114 -0.16280535 0.17039059 0.014007052 -0.084515505
0.027880143 -0.02375821 -0.13104379 -0.20769364 0.13939734 0.061932053 -0.0011067183 0.07409829
0.1400309 -0.13759558 0.013805478 -0.019757278 0.079751454 -0.10504908 0.028361468 -0.061875403
-0.13630638 0.052948177 0.1309122 -0.10266354 -0.058824908 0.100869715 0.041780706 0.18472913
0.014312499 0.09502967 -0.11187706 -0.17784518 -0.12687121 0.15511622 0.033585295 -0.13455212
0.15201466 0.10968515 0.1317735 0.094009265 -0.03381409 0.05000836 0.089412436 0.0051326742
-0.17428254 0.116957694 0.05652396 0.12662591 -0.13363817 -0.17909823 0.033034164 -0.11447492
-0.16491997 0.0404028 0.02172337 0.094548196 0.034158845 -0.13840753 -0.0012151661 0.055945024
0.03383378 -0.0098836 0.124979645 -0.04254469 0.17571595 -0.10892234 0.021431249 0.0047197216
-0.0013478538 -0.08282058 -0.14491509 -0.026103372 0.18396683 0.098988935 -0.06488445 -0.1094244
0.014024407 0.0014946721 0.044874113 0.014179204 0.118011996 0.18065868 -0.060749773 -0.07936903
-0.16717094 0.03071449 0.072402135 -0.17378514 -0.12459062 -0.060902875 -0.086708106 0.0561709
00000000: 0fe0 47be d8c5 02bd 8d45 3f3e f81c 31be
00000010: 88a3 a93d 50ba 00bd b0cb d73c fa85 423d
00000020: 1617 843d aab3 2ebd 5eb5 19be 092a 613c
00000030: b862 48bd 9238 913c 357b c83d 2830 f03b
00000040: e7c9 2dbd 7bb7 f93d 100c 333d 6267 f5bc
00000050: 7f6b ed3d 9bd5 473e bcb7 94bd 9c0d 523d
00000060: 736b 47be 8203 f8bc 76fd a3bd d781 e9bd
00000070: 9566 b83d 5607 afbd 962e e93d a723 26bc
00000080: e62b 06be 84f9 6ebd 335c 16be 8bca 3fbe
00000090: fa4d f6bd dde9 e13d f529 0cbe bc89 77bd
000000a0: c331 b73c dfd2 30bd 3464 09be 933a ca3d
000000b0: c060 243b 4a7c 2d3d eeef 9dbd ab0f 083e
000000c0: 2c91 5a3e 069e 8f3d 20ac 16be 1dff 15be
000000d0: 782d cb3d dc24 483d e0fa 523d cc75 97bd
000000e0: 608a cb3d e3c4 e53c cf13 ccbd 784a 0a3e
000000f0: 5690 013e 1a7b bdbc 2461 e5bb 3741 b03d
00000100: b418 033e 2e7b 333e 0756 b13c 5783 3e3d
00000110: 1371 5bbd f462 2bbe 985b d0bd b8e3 d63d
00000120: d274 7dbd ef7a 2dbd e764 3abe 1afb 30be
00000130: 92b8 8bbd 7146 18be 0e17 a93d 3128 aebc
00000140: c067 e1bd 6674 dd3d a0b4 0c3e 70a2 99bc
00000150: c76c ce3d 74a0 3a3e d1e6 1c3d eb94 9dbd
00000160: c675 bebd e9ce 953d 9f85 d7bd 1cfa 313e
00000170: b589 fd3d bf5a 6b3c b6e9 8abd fb53 2d3d
00000180: ddc7 4b3d 7b5a 833d e188 01be abbd e0bd
00000190: b1d7 2dbc ff89 9dbd cb42 d73d fa78 0d3b
000001a0: fe41 153e e543 83bd 39f4 8bbc e0f6 c43d
000001b0: 8383 333e 819a 02be fb1a 043e 360a 083b
000001c0: a940 cc3d e329 09bd f36b 043e 450d fe3d
000001d0: ace5 d9bd 93f1 0abb c4be a93d abcf fa3d
000001e0: 1202 e1bd b675 26be b5bd a83c 8754 f03d
000001f0: 5487 f03c bdd1 2f3e 06fa 863d 1986 db3d
00000200: bc75 443e 0cd2 20be a7e1 d6bb 1a7c 423d
00000210: c286 5bb9 63db 343d 9c70 cfbd 66ad 6cbc
00000220: 9c75 273e c75c 373e c33e 0f3c f4c2 183d
00000230: 0ccb 8e3d e0a0 213e 660e 473e 7dff e93d
00000240: 3201 70bd 5802 cbbc 8758 0a3e 635f 9a3c
00000250: 0503 183e c4bb a0bd 857a 50bd aa6c de3d
00000260: 295e 80bd d5eb db3a 6853 5bbd 144a f53c
00000270: e94c 053c 6193 4c3d d132 86bd d0d5 dcbd
00000280: d743 0abe 20a0 013e 6fed 3a3e de96 2a3e
00000290: 72b6 26be df7a 2e3e d67d 653c 7716 adbd
000002a0: e664 e43c 94a0 c2bc 5830 06be a4ad 54be
000002b0: 2dbe 0e3e 77ac 7d3d 4e0f 91ba d8c0 973d
000002c0: 4364 0f3e dbe5 0cbe 5f30 623c 04da a1bc
000002d0: bb54 a33d f923 d7bd 4f56 e83c 1071 7dbd
000002e0: e693 0bbe 30e0 583d d90d 063e 4341 d2bd
000002f0: 63f2 70bd c894 ce3d 3f22 2b3d a229 3d3e
00000300: f97e 6a3c ea9e c23d cd1f e5bd 0c1d 36be
00000310: 87ea 01be c9d6 1e3e bc90 093d 08c8 09be
00000320: bba9 1b3e 9ca2 e03d a2ef 063e ee87 c03d
00000330: a580 0abd 91d5 4c3d de1d b73d fe2f a83b
00000340: 1f77 32be 8487 ef3d ab85 673d 39aa 013e
00000350: 72d8 08be 8765 37be d54e 073d d471 eabd
00000360: c8e0 28be 687d 253d 35f5 b13c 7ca2 c13d
00000370: 25ea 0b3d b4ba 0dbe 3546 9fba 9c26 653d
00000380: 4a95 0a3d d3ee 21bc 54f5 ff3d 5743 2ebd
00000390: e2ee 333e ad12 dfbd 9690 af3c e5a7 9a3b
000003a0: 78aa b0ba d69d a9bd 9f64 14be bdd6 d5bc
000003b0: cd61 3c3e b6ba ca3d 23e2 84bd e619 e0bd
000003c0: a0c6 653c e0e8 c33a ebcd 373d e44f 683c
000003d0: 46b0 f13d 97fe 383e c1d4 78bd 3b8c a2bd
000003e0: dc2e 2bbe f49c fb3c 9247 943d bbf4 31be
000003f0: 5e29 ffbd 4b75 79bd 0594 b1bd 7513 663d

conv2.in1.weight f4 [32]
1.0744345 0.94664276 0.7630754 0.98116624 1.0491189 1.0000381 0.91517633 0.9883585
1.0449522 0.97126645 0.9863282 0.99883085 0.91974175 0.9901772 1.0205827 0.84589815
0.98257935 0.94683313 1.0405815 0.92202574 0.9977938 0.9837834 0.9997144 1.0098163
0.98038757 0.9652367 0.98967654 0.90642226 1.05776 0.9296837 1.0249355 1.0212408
00000000: 1287 893f 2e57 723f e958 433f b62d 7b3f
00000010: 8749 863f 4001 803f ff48 6a3f 1005 7d3f
00000020: fec0 853f eba4 783f 0180 7c3f 61b3 7f3f
00000030: 3274 6b3f 417c 7d3f 74a2 823f c88c 583f
00000040: 528a 7b3f a863 723f c631 853f e109 6c3f
00000050: 6a6f 7f3f 3bd9 7b3f 48ed 7f3f a941 813f
00000060: aefa 7a3f c119 773f 715b 7d3f 4a0b 683f
00000070: ae64 873f c0ff 6d3f 1631 833f 05b8 823f

conv2.in1.bias f4 [32]
0.018569246 0.109807424 0.18326855 -0.047630973 -0.019200793 -0.028363233 0.09618401 0.036989834
-0.017655768 0.047006942 0.036175977 0.062299196 0.05109057 0.03738437 0.00018931396 0.097248614
0.04305051 0.07737396 -0.020876585 0.090660304 0.036613468 0.10383989 0.0017913601 0.029361574
0.061695937 0.03822361 0.0508441 0.099971145 0.0122142015 0.042721946 0.02136836 -0.017245313
00000000: 881e 983c b7e2 e03d c0aa 3b3e b218 43bd
00000010: fb4a 9dbc 035a e8bc 1ffc c43d a782 173d
00000020: d4a2 90bc 5a8a 403d 432d 143d 712d 7f3d
00000030: 5844 513d 5a20 193d 9482 4639 482a c73d
00000040: bb55 303d 3d76 9e3d 5f05 abbc 1cac b93d
00000050: 01f8 153d 02aa d43d 12cc ea3a af87 f03c
00000060: e1b4 7c3d 5c90 1c3d e741 503d acbd cc3d
00000070: 131e 483c 35fd 2e3d b30c af3c 0b46 8dbc

conv2.conv2.weight f4 [32, 1, 3, 3]
0.08433474 0.22890331 -0.19217575 0.11468504 -0.3023327 -0.18743409 -0.091079906 -0.20957872
-0.07540233 -0.26403835 0.12504593 0.23023668 -0.22047968 0.27147433 -0.08845601 -0.31175202
0.08760258 0.29684538 -0.27662408 0.091634944 0.31910643 0.13902175 -0.08871526 0.18551983
-0.06763934 0.2436914 -0.21193989 -0.32096153 -0.020678876 0.07004393 0.08538467 -0.17854072
-0.20601133 -0.309788 -0.1894396 -0.006554819 0.28034365 0.043811534 -0.1553729 -0.30574825
-0.17957196 0.0393696 0.05181032 0.23751831 -0.016974172 -0.18642503 0.003264883 -0.1599053
-0.29172334 0.06549379 -0.237914 -0.041924167 0.16462603 -0.015348512 0.015598499 0.136113
0.06872671 -0.3357226 -0.15047626 0.29404464 -0.22824398 0.30937314 0.024015483 0.19090806
-0.27489105 0.20942092 0.31340948 -0.17423643 0.01206885 0.23055777 0.0414253 -0.37775755
-0.16762441 -0.27552307 0.22719018 -0.26409835 0.010508847 0.19530897 -0.35044345 0.1346494
-0.03755736 0.25217193 -0.27020633 0.22605214 0.13952938 0.45647636 -0.22807486 0.27839115
0.23062734 0.16866903 0.27566525 -0.34969687 -0.34226567 0.162099 -0.2863977 -0.27741942
0.28940025 -0.20865278 0.12980494 -0.09930171 0.09701048 0.030750725 0.0924542 0.28827673
-0.12180615 -0.028802441 -0.12976013 0.16282728 -0.07161909 -0.17165224 0.2746188 -0.22145139
0.12438307 0.32252118 0.11781613 0.15461409 0.4061552 -0.07985489 0.18170375 0.31590497
-0.2350646 0.25430816 0.1511534 -0.22490256 -0.17111196 0.020472242 0.06476702 -0.27294764
0.0839001 -0.14841917 0.010408297 0.2997318 0.18930204 0.24560155 -0.057327308 0.2168062
0.36816245 0.046430036 0.06750294 -0.14199692 -0.07706608 -0.084042415 -0.026021998 0.034584906
-0.22436137 -0.2657227 0.26591638 -0.06946324 0.3187687 0.18089712 -0.1301472 0.054377895
0.034116004 0.15104099 -0.10546617 -0.2533404 0.13389114 -0.00076993287 -0.22411805 0.29532528
0.27584866 0.07451669 -0.2672793 0.1380688 -0.2574384 0.21829587 0.27405623 -0.19960311
0.026569743 0.06483814 -0.19874296 -0.17489955 -0.19129324 0.11649592 0.2131233 0.2939596
-0.12878652 0.28424716 0.3073583 0.10055869 0.022376401 -0.35294867 0.12367955 -0.13116613
-0.2518721 -0.08932178 0.19442356 0.20321336 -0.014130211 0.09148105 -0.26304638 -0.21178947
0.33725336 0.1133232 0.098975845 0.14997278 -0.09848692 0.008090841 -0.14203861 -0.19056843
0.2376093 -0.21659932 0.069065265 -0.09205962 0.08032587 -0.35100573 0.29561213 0.27697298
-0.15050411 -0.08957476 -0.12011105 0.1333809 0.09329449 -0.12415182 -0.029010193 0.08474661
0.19146323 -0.097493544 -0.32812566 -0.12880042 0.13407306 0.2236843 0.19995134 0.20946822
0.35286495 0.08653956 0.1484315 0.29506516 -0.07909005 -0.026441263 -0.059366953 -0.033371013
0.1269427 -0.1806537 -0.2754389 0.24975067 -0.26700735 0.23386888 0.32443273 -0.20147295
0.10494944 0.110745504 0.13273805 -0.16652861 0.3556965 0.057800386 0.24927929 0.2945571
0.17921256 0.10094372 -0.18334936 0.020904563 0.32526347 -0.12378792 -0.27406433 0.23257694
00000000: b1b7 ac3d a165 6a3e b8c9 44be fedf ea3d
00000010: 5acb 9abe b9ee 3fbe 1a88 babd ce9b 56be
00000020: 896c 9abd 0930 87be 0a0c 003e 2ac3 6b3e
00000030: 6dc5 61be affe 8a3e 6d28 b5bd f69d 9fbe
00000040: fb68 b33d 1efc 973e aca1 8dbe 1aab bb3d
00000050: eb61 a33e b85b 0e3e 59b0 b5bd e9f8 3d3e
00000060: 7f86 8abd 3d8a 793e c506 59be 1255 a4be
00000070: bf66 a9bc 3173 8f3d 28de ae3d 61d3 36be
00000080: a2f4 52be 889c 9ebe 74fc 41be cfc9 d6bb
00000090: 3489 8f3e b973 333d 131a 1fbe 098b 9cbe
000000a0: b6e1 37be 0542 213d 0f37 543d 0038 733e
000000b0: 6b0d 8bbc 34e6 3ebe a6f7 553b 37be 23be
000000c0: c35c 95be 9c21 863d ba9f 73be adb8 2bbd
000000d0: ba93 283e 5378 7bbc d990 7f3c 3561 0b3e
000000e0: 97c0 8c3d d5e3 abbe 7316 1abe 058d 963e
000000f0: cab8 69be 2866 9e3e 1ebc c43c 677d 433e
00000100: 85be 8cbe 7072 563e 3577 a03e 096b 32be
00000110: 6dbc 453c 5617 6c3e 93ad 293d 7069 c1be
00000120: bca5 2bbe 5c11 8dbe 8ba4 683e e637 87be
00000130: 4d2d 2c3c 13ff 473e 536d b3be 88e1 093e
00000140: bfd5 19bd ae1c 813e 7c58 8abe 367a 673e
00000150: cae0 0e3e 45b7 e93e 758c 69be 4989 8e3e
00000160: 9329 6c3e 93b7 2c3e ff23 8d3e 780b b3be
00000170: 723d afbe 48fd 253e b8a2 92be eb09 8ebe
00000180: 452c 943e 13a9 55be 96eb 043e b25e cbbd
00000190: 6ead c63d f2e8 fb3c a158 bd3d 0299 933e
000001a0: 8175 f9bd 19f3 ebbc d7df 04be 32bc 263e
000001b0: 08ad 92bd 9bc5 2fbe d69a 8c3e 27c4 62be
000001c0: 8dbc fe3d 7f21 a53e 9549 f13d 2853 1e3e
000001d0: 93f3 cf3e f68a a3bd 8c10 3a3e 4cbe a13e
000001e0: c6b4 70be ae34 823e f5c7 1a3e db4c 66be
000001f0: f937 2fbe 67b5 a73c 92a4 843d cbbf 8bbe
00000200: d1d3 ab3d 32fb 17be 9087 2a3c 7276 993e
00000210: 65d8 413e f97e 7b3e 0ad0 6abd 7202 5e3e
00000220: ca7f bc3e 6c2d 3e3d fb3e 8a3d a467 11be
00000230: d2d4 9dbd 6e1e acbd 162c d5bc e7a8 0d3d
00000240: fdbe 65be ce0c 88be 3126 883e be42 8ebd
00000250: a735 a33e 183d 393e 4f45 05be 5bbb 5e3d
00000260: 39bd 0b3d 7daa 1a3e a6fe d7bd d5b5 81be
00000270: c21a 093e 52d5 49ba 347f 65be e034 973e
00000280: 093c 8d3e 359c 983d d5d8 88be e861 0d3e
00000290: f7ce 83be f488 5f3e 1951 8c3e c264 4cbe
000002a0: caa8 d93c dcc9 843d 4683 4bbe de18 33be
000002b0: 60e2 43be 6a95 ee3d ff3c 5a3e df81 963e
000002c0: 9de0 03be d888 913e 115e 9d3e b7f1 cd3d
000002d0: b74e b73c b0b5 b4be b44b fd3d 6a50 06be
000002e0: 61f5 80be 56ee b6bd f816 473e 2a17 503e
000002f0: 6782 67bc 6b5a bb3d 04ae 86be 57df 58be
00000300: 79ac ac3e fe15 e83d d9b3 ca3d 7792 193e
00000310: 83b3 c9bd 728f 043c 9272 11be 5f24 43be
00000320: da4f 733e 36cc 5dbe 1772 8d3d c189 bcbd
00000330: e481 a43d 06b7 b3be 795a 973e 67cf 8d3e
00000340: c01d 1abe f972 b7bd c8fc f5bd 0195 083e
00000350: 2e11 bf3d 4f43 febd c9a6 edbc a18f ad3d
00000360: f00e 443e b2aa c7bd 1600 a8be 42e4 03be
00000370: 734a 093e 7f0d 653e 0bc0 4c3e d67e 563e
00000380: b7aa b43e a73b b13d 6dfe 173e c812 973e
00000390: f7f9 a1bd 599b d8bc c32a 73bd 0bb0 08bd
000003a0: 44fd 013e 49fd 38be 5406 8dbe a4be 7f3e
000003b0: 30b5 88be 537b 6f3e 0c1c a63e ed4e 4ebe
000003c0: bbef d63d 8ace e23d 7cec 073e 7a86 2abe
000003d0: da1d b63e 19c0 6c3d 1243 7f3e 30d0 963e
000003e0: 7f83 373e 95bb ce3d efbf 3bbe 0c40 ab3c
000003f0: ef88 a63e 8584 fdbd 2952 8cbe a628 6e3e

conv2.in2.weight f4 [32]
1.0015776 1.0390493 1.0586127 1.018008 0.8966757 0.9946297 1.0361094 0.9801255
0.9761578 1.0042554 0.97172964 0.9741091 1.0104054 0.99588305 0.99563414 0.99746674
0.9866226 0.87925243 0.9260218 1.0049052 0.9650948 1.0451704 1.0172024 0.9873519
0.99489194 0.993077 0.9895227 0.98837435 1.0400648 1.0531255 1.0459281 1.004162
00000000: b233 803f 91ff 843f 9f80 873f 164e 823f
00000010: 8a8c 653f 0da0 7e3f 3c9f 843f 81e9 7a3f
00000020: 7ae5 793f 718b 803f 46c3 783f 375f 793f
00000030: f754 813f 31f2 7e3f e1e1 7e3f fb59 7f3f
00000040: 4c93 7c3f b016 613f c40f 6d3f bca0 803f
00000050: 7410 773f 25c8 853f b033 823f 18c3 7c3f
00000060: 3db1 7e3f 4b3a 7e3f 5c51 7d3f 1a06 7d3f
00000070: d820 853f d1cc 863f f9e0 853f 6188 803f

conv2.in2.bias f4 [32]
0.0329366 0.14435427 0.2090342 0.05383067 -0.05707354 0.04098525 0.15777032 0.030527508
0.029022712 0.10411263 0.005056695 0.044250213 0.07862603 0.07119933 0.0031967722 0.13822725
0.03822284 -0.009270549 -0.05948412 0.10698576 -0.021794436 0.17307638 0.05345398 0.06889606
0.07085189 0.059811074 0.08350388 0.09172763 0.049456026 0.14688912 0.10364361 0.02687138
00000000: 87e8 063d 9bd1 133e 100d 563e 8c7d 5c3d
00000010: f2c5 69bd 26e0 273d 8b8e 213e d314 fa3c
00000020: 0ac1 ed3c 0139 d53d a2b2 a53b b63f 353d
00000030: af06 a13d f4d0 913d f080 513b 728b 0d3e
00000040: 8d8f 1c3d 80e3 17bc 9fa5 73bd 5a1b db3d
00000050: 3f8a b2bc ef3a 313e 8ff2 5a3d 6119 8d3d
00000060: cc1a 913d 75fc 743d 1504 ab3d b2db bb3d
00000070: 6792 4a3d 1a6a 163e 1a43 d43d 5e21 dc3c

conv2.conv3.weight f4 [64, 32, 1, 1]
-0.15068534 -0.15192126 0.1376489 -0.16543464 0.12642992 0.14007168 -0.04941866 -0.014052878
0.033090267 -0.09641486 0.006658628 0.15723851 0.13404574 0.19072637 -0.1620445 0.03570904
0.056444455 -0.040532105 0.11387911 0.04089486 0.11447862 -0.0749641 0.0014804618 0.031086996
0.06124138 -0.12823118 -0.24012013 -0.11137505 0.14829609 0.02929492 0.012374749 -0.004093317
0.037707686 -0.15333445 0.15251857 -0.15254538 -0.04107465 -0.16352591 -0.14362185 -0.1316868
0.10788195 -0.108907156 -0.13718693 -0.114882946 0.067243166 -0.026202783 -0.12841941 -0.08791529
0.020245226 -0.14311005 0.12136822 -0.0962742 0.018854424 0.24721287 -0.041771557 -0.07932472
-0.068105005 0.09102146 -0.20699152 -0.076546274 -0.018315164 -0.084551625 0.14868218 -0.12030944
0.11220088 0.08770291 0.199081 0.11371949 0.16588782 -0.052272573 -0.09645909 -0.099727824
0.094976075 0.14834699 -0.0389915 -0.13530351 0.087257944 -0.0514849 0.119203515 0.017029574
0.023512986 -0.047323443 -0.029049655 0.038027346 -0.017458014 0.16358344 -0.12144266 -0.030256093
0.06867735 0.12340161 -0.012471696 -0.0996853 -0.061077006 -0.033090964 0.013994625 0.047486056
-0.0884125 0.1599549 0.13964404 -0.063879594 -0.0144673735 0.014712412 -0.08575098 -0.17858893
0.19578218 -0.07788342 0.118636705 -0.14816834 0.06832224 -0.03279361 0.111362875 0.1886476
-0.124717556 -0.10919068 -0.08322821 0.116024144 0.04779574 0.018103851 -0.016781654 0.020017905
0.14673474 0.13744839 -0.03552462 -0.20543335 -0.20206636 -0.19256568 0.00957576 -0.114913724
0.20817472 0.06682681 0.03440373 -0.16093762 0.05166201 0.179889 0.013341754 -0.067480735
-0.059836604 -0.079378985 -0.12337449 -0.06541201 0.16030122 0.040938195 -0.0442894 -0.20706213
-0.100296125 0.14508219 0.1065739 -0.22690792 -0.20140088 -0.1132947 -0.09178863 0.06992062
-0.06613736 -0.023906557 -0.11468618 -0.13010241 -0.16000167 0.11957478 0.011583258 0.1706881
0.07720512 -0.056530114 -0.008860165 0.11749585 -0.08143629 0.19904804 0.04876855 0.0713219
-0.17376521 -0.051142354 0.066634975 -0.059685115 -0.13668467 -0.12528709 0.1524487 -0.19186224
-0.075793356 -0.07849546 -0.087941766 0.16651808 0.093405604 -0.043685336 0.0772107 0.16342303
0.04099478 -0.11894034 0.03823099 -0.16972107 -0.11904967 -0.10248088 -0.09256242 0.16760707
0.065326266 -0.07281011 0.18451454 -0.13205752 -0.09185635 -0.089987956 -0.035803135 0.10186358
-0.14466546 0.15762548 -0.021624748 0.1116501 -0.15343846 0.01937519 0.17012137 -0.16201146
-0.09481763 -0.072689764 -0.101567276 -0.1152975 -0.14755766 -0.115018174 -0.09535699 -0.09443664
0.12148798 -0.044889376 0.10529901 0.010416138 -0.09412997 0.087544926 -0.124012634 -0.12490424
0.1288091 0.07638822 0.018733157 -0.022564141 -0.041613534 0.13714875 -0.21786687 -0.022579545
0.02311473 -0.07371499 -0.1675164 0.043572165 0.20033014 -0.11282197 -0.14819592 -0.01607184
-0.03780716 0.1211784 -0.016595244 0.05179666 0.06548006 -0.0490326 0.24593388 -0.09973741
0.13778387 -0.017081402 0.07588067 -0.13111429 0.022991525 0.06688702 0.007998745 -0.1482633
00000000: 424d 1abe 3f91 1bbe d5f3 0c3e b367 29be
00000010: d876 013e f36e 0f3e 396b 4abd 0b3e 66bc
00000020: a989 073d 2775 c5bd 9f30 da3b 2203 213e
00000030: 4943 093e c64d 433e feee 25be a443 123d
00000040: 4d32 673d fe04 26bd 7339 e93d 5e81 273d
00000050: c473 ea3d c786 99bd 0e0c c23a 28aa fe3c
00000060: 3ed8 7a3d 094f 03be 0de2 75be 9a18 e4bd
00000070: eeda 173e e6fb ef3c 76bf 4a3c 3b21 86bb
00000080: 6073 1a3d b503 1dbe d42d 1c3e db34 1cbe
00000090: e43d 28bd 5673 27be 9b11 13be e8d8 06be
000000a0: 36f1 dc3d b70a dfbd bb7a 0cbe c047 ebbd
000000b0: c9b6 893d 38a7 d6bc 6180 03be ee0c b4bd
000000c0: 51d9 a53c 718b 12be e78f f83d 682b c5bd
000000d0: 9874 9a3c 5f25 7d3e a718 2bbd 0075 a2bd
000000e0: a37a 8bbd 7669 ba3d 96f5 53be 4bc4 9cbd
000000f0: af09 96bc 6729 adbd 2440 183e cc64 f6bd
00000100: 93c9 e53d 959d b33d e4db 4b3e c4e5 e83d
00000110: 7fde 293e c41b 56bd 588c c5bd 1a3e ccbd
00000120: d182 c23d 46e8 173e 8db5 1fbd 018d 0abe
00000130: 4bb4 b23d d5e1 52bd f920 f43d 9b81 8b3c
00000140: 4e9e c03c 3ad6 41bd 8bf9 edbc 90c2 1b3d
00000150: 1c04 8fbc 6b82 273e eeb6 f8bd a0db f7bc
00000160: b6a6 8c3d fcb9 fc3d 1656 4cbc ce27 ccbd
00000170: e22b 7abd 648a 07bd b649 653c bd80 423d
00000180: 9d11 b5bd 38cb 233e d9fe 0e3e 4ed3 82bd
00000190: 9008 6dbc 540c 713c 369e afbd 04e0 36be
000001a0: 207b 483e 5881 9fbd cdf7 f23d 71b9 17be
000001b0: 88ec 8b3d 9852 06bd 3812 e43d d62c 413e
000001c0: eb6b ffbd 5d9f dfbd 8d73 aabd 119e ed3d
000001d0: 77c5 433d 874e 943c ae79 89bc 97fc a33c
000001e0: a241 163e 45bf 0c3e 4482 11bd 1f5d 52be
000001f0: 7cea 4ebe f02f 45be a6e3 1c3c e357 ebbd
00000200: c12b 553e 7fdc 883d edea 0c3d d5cc 24be
00000210: 8b9b 533d d234 383e 5f97 5a3c 5733 8abd
00000220: 3a17 75bd 7391 a2bd c4ab fcbd bbf6 85bd
00000230: 0126 243e cfae 273d cd68 35bd 1808 54be
00000240: 0e68 cdbd 6d90 143e 6b43 da3d 8d5a 68be
00000250: 083c 4ebe 0d07 e8bd adfb bbbd 8b32 8f3d
00000260: 0673 87bd afd7 c3bc 97e0 eabd 9139 05be
00000270: 7ad7 23be 9fe3 f43d b5c7 3d3c dcc8 2e3e
00000280: b81d 9e3d 1f8c 67bd 3a2a 11bc aaa1 f03d
00000290: 12c8 a6bd 40d3 4b3e 88c1 473d 3711 923d
000002a0: 82ef 31be a57a 51bd eb77 883d 6178 74bd
000002b0: 11f7 0bbe 424b 00be 831b 1c3e 8977 44be
000002c0: 8c39 9bbd 3ac2 a0bd d01a b4bd b783 2a3e
000002d0: 704b bf3d 65ef 32bd a520 9e3d 5e58 273e
000002e0: 24ea 273d fe96 f3bd 1998 1c3d 5ccb 2dbe
000002f0: 50d0 f3bd 7fe1 d1bd 5e91 bdbd 30a1 2b3e
00000300: c7c9 853d 781d 95bd 61f1 3c3e 163a 07be
00000310: 2f1f bcbd 9b4b b8bd 4fa6 12bd da9d d03d
00000320: 2f23 14be 9368 213e 6226 b1bc cfa8 e43d
00000330: f91e 1dbe b8b8 9e3c 4c34 2e3e 55e6 25be
00000340: bf2f c2bd 5fde 94bd 8102 d0bd 1821 ecbd
00000350: 5b19 17be a68e ebbd 874a c3bd ff67 c1bd
00000360: b1ce f83d ecdd 37bd 02a7 d73d 73a8 2a3c
00000370: 37c7 c0bd c14a b33d 56fa fdbd cbcd ffbd
00000380: 88e6 033e 6d71 9c3d 4776 993c 6fd8 b8bc
00000390: f472 2abd b970 0c3e 7e18 5fbe bdf8 b8bc
000003a0: 1a5b bd3c e2f7 96bd 6b89 2bbe ba78 323d
000003b0: 5823 4d3e 340f e7bd acc0 17be 17a9 83bc
000003c0: aedb 1abd 622c f83d c0f2 87bc bc28 543d
000003d0: 691a 863d 68d6 48bd 17d6 7b3e 2143 ccbd
000003e0: 3717 0d3e 4cee 8bbc 5367 9b3d d342 06be
000003f0: b958 bc3c 10fc 883d 2b0d 033c 56d2 17be

conv2.in3.weight f4 [64]
0.9821477 0.99346364 1.0007788 1.0803413 0.988068 0.9800163 0.95491487 1.000333
0.99527705 0.94171834 1.0119742 0.9694958 1.0640346 0.9470411 1.0101953 1.061544
0.9765429 1.0304544 1.008946 0.9947563 0.99362254 1.0340828 1.0392709 1.0139782
1.0508808 0.9551017 0.97480345 0.9864824 1.0030377 1.0258818 0.9904032 1.0223839
0.9943429 0.93525344 0.95788157 1.0041292 1.0175495 0.98017263 1.0036054 0.9843152
0.9888804 1.0521948 0.91958433 1.0182881 1.0218809 0.96597105 1.0407381 1.0288963
1.0002663 1.0183852 1.0294178 0.9722136 0.9685767 1.0119604 0.9751591 0.9885977
0.99214655 1.0256021 1.0182991 1.0411811 0.983798 0.9973709 1.021626 0.9872012
00000000: 086e 7b3f a253 7e3f 8519 803f a048 8a3f
00000010: 06f2 7c3f 59e2 7a3f 4d75 743f e90a 803f
00000020: 7aca 7e3f 7414 713f 5f88 813f e030 783f
00000030: 4932 883f 4971 723f 144e 813f ace0 873f
00000040: b7fe 793f eee5 833f 2425 813f 59a8 7e3f
00000050: 0c5e 7e3f d35c 843f d406 853f 0aca 813f
00000060: 4383 863f 8c81 743f b88c 793f 1c8a 7c3f
00000070: 8a63 803f 1850 833f 108b 7d3f 7add 823f
00000080: 428d 7e3f c56c 6f3f ba37 753f 4e87 803f
00000090: 103f 823f 98ec 7a3f 2476 803f 15fc 7b3f
000000a0: 4427 7d3f 52ae 863f e169 6b3f 4457 823f
000000b0: fecc 823f e149 773f e836 853f e0b2 833f
000000c0: ba08 803f 725a 823f f6c3 833f fee2 783f
000000d0: a5f4 773f eb87 813f 07a4 793f bd14 7d3f
000000e0: 51fd 7d3f ee46 833f a057 823f 6c45 853f
000000f0: 30da 7b3f b353 7f3f a4c4 823f 38b9 7c3f

conv2.in3.bias f4 [64]
-0.008133573 0.024639353 0.064121194 0.0014849964 0.03699443 -0.011706938 0.014069931 0.03992229
-0.0039019948 0.0037810404 0.07197637 0.0049775643 0.03225121 -0.017684273 0.00055900053 -0.024524253
-0.01155479 -0.028671842 -0.004278378 -0.069190025 -0.034640025 -0.016338054 0.0459842 0.037442468
0.064843334 -0.03353546 0.04439852 -0.02405471 -0.030292936 0.013423965 -0.10184828 -0.0048683444
-0.013524947 -0.00202141 -0.06149131 0.068523124 0.007590683 0.001085932 -0.03646857 -0.010983724
-0.027818436 0.066755794 0.0038552696 -0.059202846 0.009134493 -0.047957156 -0.0515091 -0.002383988
-0.027077425 -0.021158164 0.011445277 -0.032966744 -0.029245608 -0.06861631 -0.011694787 0.03691473
-0.06781811 0.11175183 -0.03868901 -0.031203328 -0.08819543 0.09886548 0.01746135 0.029427577
00000000: ae42 05bc 78d8 c93c f951 833d 36a4 c23a
00000010: 7987 173d 75ce 3fbc 9185 663c 8e85 233d
00000020: 9cb8 7fbb 55cb 773b 5968 933d d61a a33b
00000030: d819 043d 9cde 90bc e489 123a 16e7 c8bc
00000040: 4d50 3dbc 36e1 eabc a331 8cbb 80b3 8dbd
00000050: b3e2 0dbd 62d7 85bc ee59 3c3d 465d 193d
00000060: 95cc 843d 7a5c 09bd 39db 353d 620e c5bc
00000070: e428 f8bc 31f0 5b3c d595 d0bd a286 9fbb
00000080: bd97 5dbc a279 04bb 50de 7bbd da55 8c3d
00000090: 44bb f83b d555 8e3a 1160 15bd 14f5 33bc
000000a0: 7de3 e3bc 43b7 883d b1a8 7c3b af7e 72bd
000000b0: d7a8 153c b96e 44bd 35fb 52bd ae3c 1cbb
000000c0: 7ad1 ddbc e353 adbc f984 3b3c 2308 07bd
000000d0: 7c94 efbc b586 8cbd 7e9b 3fbc e633 173d
000000e0: 39e4 8abd 25de e43d 5e78 1ebd 1f9e ffbc
000000f0: ce9f b4bd fc79 ca3d 1b0b 8f3c 1a12 f13c

conv3.conv1.weight f4 [64, 64, 1, 1]
-0.078759655 -0.06572507 -0.04558187 0.056017518 -0.0853982 0.10817242 0.1608454 -0.08200771
0.073263235 -0.05063539 0.090862185 -0.06159769 0.1605999 0.052689362 0.1434253 0.1118294
-0.018836463 0.007599713 -0.0777195 0.06537402 -0.08435473 -0.059385967 0.09381299 -0.08208266
-0.077676274 0.086120784 0.08156592 0.02783473 0.03454815 0.094565 -0.060093038 -0.06116276
0.024115376 0.06289969 -0.030312559 0.05178632 0.007934185 -0.06022834 0.030740758 -0.01655645
-0.12272792 -0.14355144 0.00082418835 0.051540773 -0.016647883 -0.053442027 -0.13654213 0.019868288
-0.041030165 -0.045280997 -0.0076767174 0.0031625144 0.117070004 0.16397484 -0.037730474 0.073413745
0.063441284 -0.0675064 -0.086118735 0.08280357 0.04194973 0.062422298 -0.119317405 -0.04897167
-0.036450546 -0.01101662 -0.055217654 -0.09681426 0.058025956 -0.115974955 0.12542291 0.024542052
-0.12475727 0.0820869 -0.05008527 -0.08082599 -0.09076156 -0.027359435 0.04550358 0.039101914
0.0651271 -0.10398539 -0.009291124 -0.08096115 0.105231635 -0.09431693 -0.13365556 0.089591
-0.04765708 -0.08566748 0.04847818 0.002635012 0.014769714 0.021915738 -0.07005375 -0.04078733
0.097515635 -0.02604251 0.029304406 -0.10487261 -0.119903915 -0.06014162 -0.04789358 0.12503023
-0.06061674 0.15221687 -0.016499788 -0.11244822 -0.062342208 0.008934587 -0.022745794 -0.06693497
0.105114006 0.036614556 -0.034770384 -0.01844615 -0.09747064 -0.09536848 -0.015857045 -0.10182414
0.07010834 -0.047884602 -0.07518948 0.1192998 0.03712829 0.07546061 0.13720287 -0.063449845
-0.071575 -0.03922406 -0.10268265 0.013977563 0.06488616 -0.116665855 -0.015118844 0.046316132
0.16072667 0.094922654 -0.017526511 0.043304175 -0.06078385 -0.0029504108 -0.13190638 0.09873669
-0.09942371 -0.031095395 -0.023275798 0.08127176 0.006444037 0.0582443 -0.09079658 -0.018951057
-0.05361187 -0.09270167 0.013820908 -0.06231895 0.097079925 -0.08935017 -0.06399339 0.1466221
0.04628033 -0.06619126 0.020748623 -0.091907226 -0.08324068 0.014469913 0.0007257211 -0.016577
-0.07453295 -0.12951182 0.03793968 0.059988305 0.050789148 0.09140217 0.029641239 0.14910613
0.043567747 0.12561901 -0.13840178 0.0034354185 -0.020028757 -0.029492969 0.1381051 0.035823345
0.109748885 0.13845848 -0.0065409075 -0.05420249 -0.0019516272 -0.13383149 0.024818327 0.029419715
0.02958533 0.037789814 0.014497625 -0.10838601 -0.13964534 -0.0034821476 0.05071373 0.0051977034
0.09385787 0.023824755 0.091634884 -0.111107655 -0.11541453 0.010099216 -0.032831453 0.0982381
-0.012824651 0.071621984 0.07248912 -0.030461604 0.012432852 0.0055544088 -0.051402465 0.06997577
-0.09892306 0.065067664 0.017330552 0.053477645 -0.013315408 -0.015618064 -0.07203349 0.008776043
0.16584787 0.033866934 -0.047418352 0.012302093 -0.00067146786 0.029157532 -0.10025942 0.05597598
-0.14165437 0.059061114 -0.04073742 -0.14105795 -0.087933086 -0.12712812 -0.09558244 0.05714079
-0.026208393 -0.12860554 0.10020467 0.00040967306 0.03825403 -0.05875172 0.0010059719 0.029669445
-0.0953866 0.009103243 -0.004088484 -0.04508205 0.034759454 0.11604794 -0.010023514 0.033518076
00000000: be4c a1bd de9a 86bd 0eb4 3abd a072 653d
00000010: 40e5 aebd 8089 dd3d a8b4 243e a9f3 a7bd
00000020: 090b 963d 0e67 4fbd f415 ba3d dc4d 7cbd
00000030: 4d74 243e cdd0 573d 15de 123e d006 e53d
00000040: ed4e 9abc 0307 f93b 672b 9fbd d0e2 853d
00000050: 2cc2 acbd b33e 73bd 0621 c03d f41a a8bd
00000060: bd14 9fbd 1860 b03d 080c a73d a905 e43c
00000070: 5c82 0d3d 4bab c13d 1e24 76bd cd85 7abd
00000080: 9c8d c53c 8dd1 803d 0b52 f8bc e41d 543d
00000090: 62fe 013c feb1 76bd 0bd4 fb3c 64a1 87bc
000000a0: c758 fbbd 26ff 12be 580e 583a 6b1c 533d
000000b0: 2461 88bc 07e6 5abd b3d1 0bbe d2c2 a23c
000000c0: 3f0f 28bd 9178 39bd f98c fbbb 3042 4f3b
000000d0: 66c2 ef3d 05e9 273e 458b 1abd f259 963d
000000e0: 81ed 813d cc40 8abd 055f b0bd eb94 a93d
000000f0: 7bd3 2b3d 86ae 7f3d af5c f4bd 8596 48bd
00000100: 2b4d 15bd 0e7f 34bc e82b 62bd 8e46 c6bd
00000110: a0ac 6d3d 4784 edbd dd6e 003e 6a0c c93c
00000120: bd80 ffbd 2d1d a83d 3626 4dbd 1988 a5bd
00000130: 32e1 b9bd e520 e0bc f661 3a3d 5429 203d
00000140: 5b61 853d 4bf6 d4bd cc39 18bc f6ce a5bd
00000150: af83 d73d 3c29 c1bd 01dd 08be 7c7b b73d
00000160: 1234 43bd 6f72 afbd 0e91 463d 2ab0 2c3b
00000170: acfc 713c a288 b33c 5778 8fbd 9e10 27bd
00000180: 47b6 c73d 1a57 d5bc cb0f f03c 73c7 d6bd
00000190: 2f90 f5bd 0f57 76bd 0f2c 44bd ed07 003e
000001a0: 4249 78bd bdde 1b3e 902a 87bc 414b e6bd
000001b0: 8b5a 7fbd 6062 123c 6355 babc 3415 89bd
000001c0: 0346 d73d 25f9 153d 646b 0ebd 611c 97bc
000001d0: b09e c7bd 8d50 c3bd a2e6 81bc 2d89 d0bd
000001e0: f694 8f3d a522 44bd f1fc 99bd 7453 f43d
000001f0: d513 183d 188b 9a3d e97e 0c3e fef1 81bd
00000200: ea95 92bd 68a9 20bd 484b d2bd 2602 653c
00000210: 09e3 843d 82ee eebd 07b5 77bc fcb5 3d3d
00000220: 8895 243e cf66 c23d c293 8fbc b85f 313d
00000230: 7cf8 78bd ae5b 41bb 7712 07be 7636 ca3d
00000240: a89e cbbd c5bb febc e3ac bebc cf71 a63d
00000250: 8028 d33b 9391 6e3d 8ff3 b9bd 3f3f 9bbc
00000260: 1f98 5bbd 60da bdbd 1771 623c 2842 7fbd
00000270: d7d1 c63d 39fd b6bd f70e 83bd 1b24 163e
00000280: 7190 3d3d 498f 87bd 04f9 a93c db39 bcbd
00000290: 177a aabd 3713 6d3c 523e 3e3a 7dcc 87bc
000002a0: bba4 98bd bf9e 04be a366 1b3d 4cb6 753d
000002b0: 4808 503d 1031 bb3d 2fd2 f23c 47af 183e
000002c0: 1874 323d 45a2 003e 32b9 0dbe c224 613b
000002d0: 5913 a4bc 3d9b f1bc 6c6b 0d3e 80bb 123d
000002e0: 06c4 e03d 0fc8 0d3e 1c55 d6bb 6e03 5ebd
000002f0: becd ffba 1f0b 09be ce4f cb3c 9d01 f13c
00000300: ef5c f23c 7ec9 1a3d 7287 6d3c 7cf9 ddbd
00000310: 30ff 0ebe be34 64bb 33b9 4f3d 7f51 aa3b
00000320: 8e38 c03d 222c c33c 12ab bb3d 698c e3bd
00000330: 745e ecbd 2f77 253c 467a 06bd 0f31 c93d
00000340: 7c1e 52bc 8cae 923d 2d75 943d 9d8a f9bc
00000350: 29b3 4b3c c201 b63b 648b 52bd 754f 8f3d
00000360: 2c98 cabd 3242 853d cdf8 8d3c 600b 5b3d
00000370: de28 5abc e9e2 7fbc 4b86 93bd 64c9 0f3c
00000380: 06d4 293e 0eb8 0a3d bf39 42bd b88e 493c
00000390: 7205 30ba c7db ee3c d054 cdbd 1247 653d
000003a0: d80d 11be 11ea 713d 48dc 26bd 7f71 10be
000003b0: 4316 b4bd e02d 02be bac0 c3bd 760c 6a3d
000003c0: fcb2 d6bc 2cb1 03be 1b38 cd3d 63c9 d639
000003d0: 42b0 1c3d a5a5 70bd d1da 833a 560d f33c
000003e0: 0d5a c3bd c525 153c b1f8 85bb f5a7 38bd
000003f0: ee5f 0e3d 8baa ed3d aa39 24bc 404a 093d

conv3.in1.weight f4 [64]
1.0264409 0.8916255 1.0000418 0.96510106 0.99812096 0.98091257 1.0106694 1.0155917
1.0252615 0.9792606 0.98034066 0.9389173 0.9947654 1.0564761 0.95120007 1.0181696
0.9216749 0.9774444 1.0311772 0.9088389 0.97155017 0.9899196 0.9448476 0.96844435
0.97326845 1.0250577 1.0271252 1.0618113 0.9595508 0.82954264 1.0261431 1.050609
0.981171 0.9973493 0.92689025 0.9969145 0.93129736 0.9992531 0.89684016 0.95391333
1.0263295 0.9937363 1.0974176 1.0031046 0.9618816 0.9627934 0.9570986 0.9823895
0.9846218 0.88215244 0.89247155 0.95243496 1.0572704 1.0510507 0.960777 0.9702634
1.0086588 0.9737575 0.9496697 1.0837158 0.91027516 0.90700096 0.9855808 1.0243737
00000000: 6a62 833f 9241 643f 5f01 803f dd10 773f
00000010: db84 7f3f 161d 7b3f 9d5d 813f e9fe 813f
00000020: c53b 833f d3b0 7a3f 9bf7 7a3f e25c 703f
00000030: f2a8 7e3f 9c3a 873f d981 733f 6253 823f
00000040: e3f2 6b3f cc39 7a3f 9dfd 833f aba9 683f
00000050: 83b7 783f 5f6b 7d3f 88e1 713f f8eb 773f
00000060: 1f28 793f 1735 833f d778 833f 6fe9 873f
00000070: 1fa5 753f e85c 543f a858 833f 5b7a 863f
00000080: 062e 7b3f 4952 7f3f ae48 6d3f ca35 7f3f
00000090: 8169 6e3f 0dcf 7f3f 5197 653f aa33 743f
000000a0: c45e 833f 8165 7e3f 2e78 8c3f bb65 803f
000000b0: df3d 763f a179 763f 6a04 753f e17d 7b3f
000000c0: 2d10 7c3f bed4 613f 0479 643f c7d2 733f
000000d0: a354 873f d488 863f 7bf5 753f 2f63 783f
000000e0: bb1b 813f 2c48 793f 8e1d 733f 33b7 8a3f
000000f0: cb07 693f 3731 683f 064f 7c3f ad1e 833f

conv3.in1.bias f4 [64]
0.027210275 0.07910671 -0.005576295 0.024654422 -0.017596578 0.08433631 0.040418822 0.017732218
-0.007860489 0.023411794 0.08310828 0.06683394 0.054831922 0.017564451 0.04997351 0.1411893
0.16657045 0.06269778 0.07529811 0.088836245 -0.025509762 0.034822974 0.051319964 0.061784327
0.067054145 0.042210028 0.09938575 0.08194513 0.042605873 0.12632178 0.018937642 -0.0137338145
0.0547672 0.050101757 0.060901705 0.0442342 0.10013852 0.0010249341 0.094863944 0.07143926
0.077402 0.022596758 0.019290403 0.06117684 0.07693025 -0.04518702 0.08689443 0.09902762
-0.030773453 0.09351331 0.089295946 0.06304224 0.00045854648 -0.0022865748 0.06404486 0.044578914
0.009039706 0.09410961 0.047220424 0.054044478 0.081852436 0.09566895 0.027119037 0.0031247132
00000000: 15e8 de3c b302 a23d 5ab9 b6bb 12f8 c93c
00000010: b326 90bc 84b8 ac3d 358e 253d 2843 913c
00000020: 48c9 00bc 17ca bf3c ad34 aa3d 3ce0 883d
00000030: 7097 603d 53e3 8f3c 06b1 4c3d ee93 103e
00000040: 7291 2a3e b267 803d e535 9a3d c7ef b53d
00000050: d9f9 d0bc 89a2 0e3d e234 523d 9011 7d3d
00000060: af53 893d 6ce4 2c3d c28a cb3d d9d2 a73d
00000070: 7f83 2e3d 7f5a 013e 1d23 9b3c cb03 61bc
00000080: 9253 603d 8037 4d3d 1174 793d ec2e 353d
00000090: 6d15 cd3d 1557 863a 0748 c23d bf4e 923d
000000a0: f184 9e3d d61c b93c e806 9e3c 9194 7a3d
000000b0: 9b8d 9d3d 0616 39bd b5f5 b13d fece ca3d
000000c0: 9c18 fcbc e883 bf3d cbe0 b63d 4a1c 813d
000000d0: 1169 f039 5cda 15bb f429 833d 6198 363d
000000e0: 461b 143c 8abc c03d 346a 413d be5d 5d3d
000000f0: 40a2 a73d 15ee c33d be28 de3c fdc7 4c3b

conv3.conv2.weight f4 [64, 1, 3, 3]
0.081447564 -0.25784236 -0.140516 -0.15488648 -0.11783852 -0.30285978 0.11759282 0.1528985
-0.1034028 -0.14467789 0.2883008 0.18318042 0.08986201 0.22703229 -0.031738512 0.25774443
-0.10306329 -0.23327671 0.1362336 0.08047512 -0.30906588 -0.0907349 0.14753422 -0.31547987
0.12733649 -0.05475682 -0.0858815 -0.18947715 -0.03336214 -0.05827061 -0.28678232 0.06535301
0.052250672 -0.28146428 -0.28133103 0.045653507 -0.1551789 -0.136759 0.13885722 -0.2128103
-0.014286733 -0.100008726 -0.28577995 0.1287626 0.056334756 0.061225545 0.14735574 0.20694639
-0.0012929584 -0.24822786 -0.038340613 -0.30372846 0.0016392322 0.056530617 0.15238692 0.04568909
0.37339893 0.12177788 0.4196362 -0.08134627 0.037044365 -0.26618528 0.20987828 -0.17074627
0.0020704814 -0.035226375 -0.05708869 -0.20335536 -0.114875145 -0.0060054143 -0.22266366 -0.18523382
-0.34292004 -0.13540122 0.27605236 -0.18672833 -0.23916805 0.25028455 -0.014316889 -0.29001114
-0.20451233 -0.16292745 0.13879919 0.1500571 -0.101709194 0.06654965 0.10572821 -0.2840492
0.27810365 0.3627493 -0.10736225 0.0698409 -0.07094781 0.20929658 0.3322049 -0.22520177
-0.13907382 -0.03222224 0.099775046 -0.1507447 0.03653761 -0.084010705 0.14200282 -0.29862803
-0.24442393 0.06815476 0.09209115 -0.13798031 -0.21904805 -0.22987686 0.17620976 -0.206563
-0.16884096 0.04982567 0.16622081 0.34012046 -0.28974232 -0.18461213 -0.24975811 -0.064413495
-0.029578002 -0.121996135 0.0349161 -0.2761548 -0.39421746 -0.0066450285 0.23779131 -0.20216005
-0.18794324 -0.15942782 -0.109653965 0.22865233 -0.3265983 -0.06358429 0.3554715 0.06367461
-0.10569431 -0.19147989 0.19786958 0.31912908 0.33024818 0.022954 -0.20603633 0.2162887
-0.023298945 0.15619986 0.30127814 0.027098948 -0.24551761 0.18697411 -0.07882211 -0.18783753
0.033230763 -0.17668569 -0.20816597 0.26595855 -0.027943153 0.3407617 0.0051745456 0.22823508
-0.14854756 0.2542065 -0.161578 -0.07065744 0.015226185 -0.25179708 -0.13953038 0.32878447
-0.16909437 0.30811 0.122780055 0.029313132 -0.016491488 0.14709578 -0.00080483255 -0.057829186
0.12968835 0.22618663 0.22048697 -0.29923964 0.011286715 -0.021071894 -0.05724934 -0.19340068
-0.28815392 0.15568413 0.09637406 -0.18002313 0.32148466 -0.026477933 0.09728563 0.09942345
-0.30842006 0.123787895 0.21793461 0.18098167 0.047486078 0.27771387 -0.17417817 0.19797753
0.02162809 0.1908033 0.065621264 -0.28860873 -0.276585 0.02586745 0.3493948 0.13112509
0.061593983 -0.07294862 -0.02296069 -0.08388246 -0.3079077 -0.08623282 0.1323149 0.33944875
-0.19500235 -0.020541154 0.02882495 -0.15569413 0.2985224 -0.22472851 0.22000515 0.021001142
-0.16611329 -0.13042434 0.20749918 -0.11076949 0.060475543 -0.23448071 -0.06177396 -0.16330843
0.075767554 0.32552135 0.16367751 0.012720349 -0.30496767 0.16625677 0.34700942 -0.06498315
-0.0895396 0.24878734 -0.14444298 0.018269634 0.19241819 0.28914198 -0.2503783 0.32303604
0.2712716 -0.18852332 0.27641478 0.27442688 0.26414606 0.32283908 0.22804928 0.22733372
00000000: fbcd a63d ea03 84be 6de3 0fbe 909a 1ebe
00000010: 5255 f1bd 7010 9bbe 81d4 f03d 6d91 1c3e
00000020: d9c4 d3bd 7126 14be 2a9c 933e a693 3b3e
00000030: 9309 b83d 277b 683e 3e00 02bd 14f7 833e
00000040: d912 d3bd 17e0 6ebe d280 0b3e 24d0 a43d
00000050: e23d 9ebe 38d3 b9bd 3613 173e 9486 a1be
00000060: 7f64 023e b048 60bd a4e2 afbd 4c06 42be
00000070: bda6 08bd 2aad 6ebd 22d5 92be cdd7 853d
00000080: cd04 563d 161c 90be 9f0a 90be 2cff 3a3d
00000090: 38e7 1ebe 8d0a 0cbe 9630 0e3e f1ea 59be
000000a0: e712 6abc 60d1 ccbd c051 92be 58da 033e
000000b0: 46bf 663d a3c7 7a3d 6ce4 163e c1e9 533e
000000c0: 7c78 a9ba 722f 7ebe 0c0b 1dbd 4c82 9bbe
000000d0: 81db d63a a68c 673d 510b 1c3e 7c24 3b3d
000000e0: 252e bf3e ae66 f93d 8eda d63e e098 a6bd
000000f0: d5bb 173d 7049 88be 55ea 563e 1cd8 2ebe
00000100: eab0 073b 8849 10bd d5d5 69bd 633c 50be
00000110: a943 ebbd 11c9 c4bb f101 64be efad 3dbe
00000120: 3793 afbe 9ea6 0abe bc56 8d3e b635 3fbe
00000130: 78e8 74be 4c25 803e 6391 6abc 577c 94be
00000140: ae6b 51be 74d6 26be 6021 0e3e 92a8 193e
00000150: e94c d0bd 2f4b 883d 0888 d83d e66e 91be
00000160: 9a63 8e3e 47ba b93e bde0 dbbd bf08 8f3d
00000170: 164d 91bd d851 563e c316 aa3e 4b9b 66be
00000180: 5e69 0ebe 78fb 03bd dc56 cc3d d25c 1abe
00000190: 76a8 153d ce0d acbd 3069 113e c6e5 98be
000001a0: 444a 7abe b994 8b3d 499a bc3d b64a 0dbe
000001b0: 224e 60be d764 6bbe 5570 343e 4085 53be
000001c0: a5e4 2cbe 0016 4c3d ca35 2a3e 4524 ae3e
000001d0: 1b59 94be f60a 3dbe 97c0 7fbe 39eb 83bd
000001e0: 914d f2bc 1cd9 f9bd 2f04 0f3d 2964 8dbe
000001f0: dfd6 c9be 8abe d9bb 917f 733e 0b03 4fbe
00000200: 3174 40be 0c41 23be 4292 e0bd d623 6a3e
00000210: e437 a7be 7b38 82bd 5c00 b63e d567 823d
00000220: 4276 d8bd 4e13 44be 539e 4a3e e364 a33e
00000230: 4a16 a93e 070a bc3c 30fb 52be c97a 5d3e
00000240: 6edd bebc dbf2 1f3e 2141 9a3e 9dfe dd3c
00000250: f868 7bbe 2476 3f3e 7d6d a1bd 7b58 40be
00000260: fb1c 083d 18ed 34be 7629 55be b82b 883e
00000270: 0ae9 e4bc 5178 ae3e 3c8f a93b 75b6 693e
00000280: da1c 18be 5b27 823e b474 25be d9b4 90bd
00000290: 4077 793c 8ceb 80be 0de1 0ebe 7056 a83e
000002a0: 1327 2dbe 98c0 9d3e 1c74 fb3d 1822 f03c
000002b0: 2819 87bc 47a0 163e 66fb 52ba 4cde 6cbd
000002c0: 06cd 043e 789d 673e 56c7 613e f035 99be
000002d0: eaeb 383c f79e acbc 497e 6abd d40a 46be
000002e0: e988 93be a96b 1f3e c35f c53d fc57 38be
000002f0: a399 a43e 40e8 d8bc b03d c73d 869e cb3d
00000300: 3ce9 9dbe 8284 fd3d 402a 5f3e 4253 393e
00000310: c380 423d 8330 8e3e c35b 32be 9fba 4a3e
00000320: 642d b13c f161 433e 7164 863d 86c4 93be
00000330: 8d9c 8dbe f9e7 d33c e0e3 b23e a845 063e
00000340: f949 7c3d 1666 95bd 0f18 bcbc 91ca abbd
00000350: 14a6 9dbe d59a b0bd 8f7d 073e 3acc ad3e
00000360: b2ae 47be ec45 a8bc 4d22 ec3c 486e 1fbe
00000370: eed7 983e 3b1f 66be 0849 613e 960a ac3c
00000380: 9a19 2abe f58d 05be aa7a 543e 1ddb e2bd
00000390: 34b5 773d b61b 70be b106 7dbd 533a 27be
000003a0: 052c 9b3d bcaa a63e 149b 273e 0369 503c
000003b0: b924 9cbe 373f 2a3e 38ab b13e e315 85bd
000003c0: 8a60 b7bd 1cc2 7e3e dce8 13be 33aa 953c
000003d0: 4609 453e 6b0a 943e 9631 80be fb64 a53e
000003e0: 1ce4 8a3e 420c 41be 3d86 8d3e ae81 8c3e
000003f0: 273e 873e 2a4b a53e c085 693e 2cca 683e

conv3.in2.weight f4 [64]
0.96834505 0.9967069 0.9784971 1.0034506 1.0208873 0.94205546 1.0385237 1.0516013
0.94038796 1.0341635 0.96967936 1.0192398 1.0273881 0.9863575 1.0323482 1.0558264
1.0659 0.9813393 1.0794744 0.94781387 0.9755337 0.97993076 0.9920235 0.95443386
1.0780547 1.025195 1.098599 0.98853344 0.9502322 1.0319936 0.9512615 1.0146053
0.9972249 0.9850133 0.9311878 0.9891793 1.0042503 0.9739363 0.9946185 0.99077713
0.9685033 0.98000765 1.0007648 0.9473304 0.99719566 0.9311958 1.0380824 1.0247298
0.96005845 1.0062141 1.0736257 0.9341849 0.96648395 0.96728605 1.0218941 1.0399297
0.96141803 0.9508428 0.9656691 1.1149634 0.9939682 1.0298496 1.0601238 0.9805633
00000000: 76e5 773f 2f28 7f3f c97e 7a3f 1271 803f
00000010: 6fac 823f 8c2a 713f 58ee 843f df9a 863f
00000020: 44bd 703f 785f 843f e83c 783f 7376 823f
00000030: 7481 833f ed81 7c3f fc23 843f 5225 873f
00000040: 696f 883f 0d39 7b3f 382c 8a3f eea3 723f
00000050: 94bc 793f bedc 7a3f 41f5 7d3f c755 743f
00000060: b2fd 893f 9739 833f e49e 8c3f 8710 7d3f
00000070: 6b42 733f 5e18 843f e085 733f 96de 813f
00000080: 224a 7f3f d529 7c3f 5362 6e3f db3a 7d3f
00000090: 468b 803f e453 793f 519f 7e3f 92a3 7d3f
000000a0: d5ef 773f c8e1 7a3f 1019 803f 3f84 723f
000000b0: 3748 7f3f d962 6e3f e2df 843f 592a 833f
000000c0: 64c6 753f a0cb 803f 916c 893f be26 6f3f
000000d0: 7e6b 773f 0fa0 773f 6dcd 823f 6b1c 853f
000000e0: 7e1f 763f 6f6a 733f 1736 773f 1fb7 8e3f
000000f0: b374 7e3f 1dd2 833f 23b2 873f 3206 7b3f
