tmp/models/epoch2_batch2286.pth (torch, 987253 bytes, 85 tensors)

conv1.weight f4 [32, 3, 9, 9]
000000 f3 58 b4 3b eb 0d d5 bc d5 cd ab 3b 0d 96 6b 3d
       0.0055037676 -0.026007613 0.005243043 0.057516146
000010 78 92 12 3c 27 0b 9f 3c 0c a4 b2 3c fd 14 4c 3c
       0.008946054 0.019414498 0.02180674 0.012456176
000020 d7 36 f8 bb 82 ea ad 3c 6d 03 ba 3b 49 39 7d bd
       -0.007574897 0.021229986 0.005676678 -0.06182221
000030 6a 46 2f 3d be 24 94 3d fc c4 dc bc e6 7d 4a 3d
       0.04279176 0.072335705 -0.026949398 0.049436472
000040 fe 8f 98 3c 08 83 9c bc c1 fc 4f 3c 04 b3 3f 3d
       0.018623348 -0.01910545 0.012694539 0.046801582
000050 4c 17 70 3d b0 19 ab 3d eb 28 a1 3c 2a 0d 74 bd
       0.058615968 0.08354509 0.019672832 -0.059582867
000060 8b 3a 5a bd dd 3f bd 3c 62 53 5d 3d 20 e5 d8 bc
       -0.053278487 0.023101741 0.0540346 -0.026476443
000070 86 75 da 3c 1f f6 77 bd 79 72 05 bd 9d c5 8c 3d
       0.026667368 -0.060537454 -0.032579873 0.06873629
000080 8b bf a3 3d fc c8 69 bd ee 29 1f bc 8e 24 bd 3b
       0.07995518 -0.05707644 -0.009714587 0.00577218
000090 9b 09 ef 3b 5e 9e 44 3d ba 85 a1 bd 09 a8 9e bd
       0.0072948462 0.048002593 -0.078868344 -0.07746894
0000a0 7c ae f5 3d d3 08 91 3e 74 ab d3 3c fb 19 a4 bc
       0.11996171 0.28327045 0.025838591 -0.02003192
0000b0 0a ba 39 bc 92 03 1f 3d 0e df 95 3d 21 27 04 3d
       -0.011335859 0.038821764 0.07317935 0.03226388
0000c0 60 74 3f be dd 7a 17 be 73 70 41 3b 24 c4 b1 bd
       -0.18696737 -0.14792962 0.0029516488 -0.08679989
0000d0 7b 78 a3 3c b1 89 23 3d 10 11 b2 3c 48 85 9d bc
       0.01995491 0.039926235 0.021736652 -0.019228593
0000e0 86 fa da bb ac 8a c8 bd 3c bf 04 be 8b 82 dc bd
       -0.0066826968 -0.097920746 -0.12963575 -0.107670866
0000f0 77 a8 fd bd c5 ae 2b 3d ce e0 bd bb dc fd 90 3d
       -0.12385648 0.04191472 -0.005794621 0.0707967
000100 a3 2c f2 bc e0 fe 12 3c 55 95 35 bd 41 d0 95 bd
       -0.0295623 0.0089719 -0.044331867 -0.07315112
000110 28 3f 15 3d e6 a3 2e bd 73 6c 8a 3c 49 4c a8 3d
       0.036437184 -0.042636774 0.016897416 0.08217675
000120 e5 d2 ab 3c 9d f9 3f bd 6d 08 5f bd a5 4f b1 bd
       0.020974586 -0.04686891 -0.054451395 -0.08657769
000130 5e 49 60 bd 78 b0 68 bd a2 f1 d4 bc 60 a4 3f 3d
       -0.05475747 -0.05680892 -0.025994126 0.04678762
000140 20 b1 73 3d ff 6a 01 bc 37 67 4e bd 3d 8b b5 3c
       0.05949509 -0.007899045 -0.050391402 0.02216112
000150 fb 06 23 bd f9 8c dd 3c 85 fd 32 3d ec 6e 8a bc
       -0.03980158 0.02704476 0.043698806 -0.016898595
000160 8c 53 5a 3d a2 d8 74 3d fc 05 b2 3d d8 36 84 bb
       0.053302333 0.05977691 0.08692548 -0.004034858
000170 3a 2d 13 3c 2f 67 dc 3c 6f b9 4c bd 98 a6 3c 3d
       0.008982951 0.02690467 -0.04998153 0.046057314
000180 1f 18 38 3d 1d 47 c5 3c e0 f8 37 3d ba ac a7 bc
       0.04494488 0.024081761 0.04491508 -0.020468105
000190 5b 48 d4 3c a2 f5 09 3c 61 95 7d 3c bb b8 8f 3d
       0.025913408 0.00842038 0.015477509 0.070176564
0001a0 eb 38 83 bd 37 39 18 bd 32 d8 37 bd 77 86 51 3d
       -0.064073406 -0.03716394 -0.044883914 0.051153626
0001b0 64 82 31 3d 93 87 24 3c 71 57 4c bd 6a fc 77 bd
       0.04333724 0.010042089 -0.049888078 -0.060543455
0001c0 28 60 06 3e 3f 87 4a 3e db 1c d5 bd 3b 04 06 bc
       0.13122618 0.19778155 -0.10405894 -0.00817972
0001d0 cb c6 b2 3d 3a 7a b5 bc ce 38 f4 bc aa ba d3 bd
       0.08729323 -0.022153009 -0.029812243 -0.10338338
0001e0 43 0d e9 bd ec c5 07 3e f0 7c 87 3e ec 61 a8 3c
       -0.113794826 0.13259095 0.26462507 0.020554505
0001f0 65 7d de bd 4f 21 00 3d 28 9f 5f 3d ef 0c a2 3d
       -0.10863761 0.031281766 0.054595143 0.07912623
000200 25 48 4c bd bd f6 3e be f3 c5 27 be c4 37 80 3d
       -0.04987349 -0.1864881 -0.16384105 0.062606364
000210 42 20 10 bd 47 56 92 bc 6d dc cd 3a f5 d4 d2 3c
       -0.035187013 -0.017863406 0.0015705951 0.025736311
000220 95 7d d0 bc de 11 34 bd 84 ec 02 be 0b 5a 3b be
       -0.025450507 -0.043962352 -0.12785536 -0.18296067
000230 b4 9e 72 be 04 c7 40 be 6a 34 5c bd 2a 87 70 3d
       -0.23693353 -0.18825918 -0.053760923 0.058722652
000240 78 38 87 3d 17 3e a3 bd 49 7b ef bc 15 29 39 3d
       0.066025674 -0.07970827 -0.029233592 0.045205195
000250 16 e4 81 bd ff 5b b9 3c b5 12 75 bc fd a4 3f bc
       -0.06342332 0.022626875 -0.014958073 -0.011697051
000260 4d ca 34 3c 46 90 07 bc 1d 1f f3 3c 19 ad 3a bc
       0.01103456 -0.008274144 0.029677922 -0.011393809
000270 8e d1 a3 bd 61 27 4f bd 3f 15 3c bd ca 6a 21 3b
       -0.07998954 -0.050574664 -0.0459187 0.0024630302
000280 44 1a 28 bc 8d 4f af bc 91 23 10 3d 48 dc ba 3c
       -0.010260168 -0.021400237 0.03519017 0.022810116
000290 0c 8a 8e bd 91 03 bc 3c 20 37 18 3d bb 7f 4b 3c
       -0.06959924 0.02295092 0.037161946 0.01242059
0002a0 36 07 bd 3d 5c 02 a3 3c 5f 98 9d bc db ea 04 bd
       0.09229891 0.019898586 -0.019237695 -0.032450538
0002b0 7b ce 9e bc df 34 f3 3c 48 e1 a1 3d 5a f2 4a 3d
       -0.019385567 0.029688297 0.07904297 0.04954753
0002c0 82 24 05 bd d9 ff a0 bb 6a 1b 32 3c 8f cd dd 3c
       -0.03250552 -0.004913312 0.010870794 0.027075557
0002d0 b8 f8 ef bc 23 9a c0 3b b7 bf 0e bc 9e d7 e8 bb
       -0.029293403 0.0058777495 -0.008712701 -0.0071057817
0002e0 d0 31 7f 3c ad bd 30 bb 6d 76 e9 bd 31 bf 1c 3c
       0.015575841 -0.0026968524 -0.11399541 0.009567068
0002f0 51 b2 41 3d 18 a3 a1 3d 4e 92 6b 3c 3b ce 1e bd
       0.047289196 0.07892436 0.0143781435 -0.038770895
000300 19 94 b4 3c c7 97 95 ba 1c 0f 1d 3c f4 70 d2 bc
       0.022043275 -0.0011413031 0.009586122 -0.025688626
000310 d4 8e 9c bd bf 8c 79 bb 71 e1 09 bd 4e a3 7e 3c
       -0.0764443 -0.0038078276 -0.033662263 0.015541865
000320 2b 97 c1 bc 0b 1c ce bd 0d 98 c7 3d 83 f0 1d 3e
       -0.023631653 -0.100639425 0.09745798 0.15423779
000330 18 da 5d 3d a7 8d 98 bc 4d 25 3c bd d3 56 86 3c
       0.05416307 -0.018622233 -0.04593401 0.016398823
000340 3c 72 1b 3c 52 0b 0c b9 3e eb d0 bd d4 4e 0d be
       0.009487685 -0.00013355658 -0.10201119 -0.13799602
000350 31 d2 9b 3c e6 5a a5 bd 71 d7 64 3c 8f 28 90 3d
       0.019021126 -0.08073978 0.013967381 0.07038986
000360 d0 04 ba 3b b6 8c 16 3d ff 91 ab 3d eb e4 90 bd
       0.005676843 0.036755286 0.08377456 -0.07074913
000370 73 3f d0 bd ce d9 f2 bd 40 d6 17 bd f4 01 28 3c
       -0.10168352 -0.11857949 -0.03706956 0.010254372
000380 10 dd 98 3d 53 9a de 3c 5e 06 e8 bc e7 3c 01 3d
       0.07464039 0.027173197 -0.028323349 0.03155222
000390 d0 9b 84 3d 02 0c b2 3d b0 cf 13 bd 0e f8 c6 3d
       0.064750314 0.086936966 -0.036086738 0.097152814
0003a0 58 f0 ed 3c 0b 3f 1a bd a0 ff b7 3a 37 0d 0d bc
       0.029045269 -0.03765778 0.0014037974 -0.008609108
0003b0 56 2c 31 bd db 2a b8 ba ea c2 87 bc c9 05 1e 3c
       -0.043255173 -0.0014050858 -0.016572434 0.009644934
0003c0 c6 98 62 bc 47 c5 e4 3c 23 2a 39 3c 57 34 e1 3c
       -0.013830369 0.0279261 0.01130155 0.027490778
0003d0 97 30 a6 3d f9 bd bf 3d 64 45 e2 3d 64 f3 11 3d
       0.081147365 0.09362406 0.110483915 0.035632506
0003e0 41 f7 20 3d e1 d3 38 bd e1 b6 8c 3c 90 00 08 bd
       0.0392983 -0.04512394 0.017177047 -0.03320366
0003f0 49 47 93 3c dd ab d7 3d 7b c2 10 3d cf a2 59 3d
       0.017978327 0.10530827 0.03534172 0.053133782

in1.weight f4 [32]
000000 41 f7 7a 3f b6 b0 84 3f 6c bc 5d 3f 49 70 95 3f
       0.9803353 1.0366428 0.86615634 1.1674892
000010 aa e7 6e 3f 8a bb 90 3f be 42 7f 3f 8e 7e 7b 3f
       0.9332224 1.1307232 0.99711215 0.9823998
000020 a2 a1 7a 3f d6 1c 70 3f d8 c5 81 3f 2c 52 59 3f
       0.9790288 0.93794 1.0138502 0.8489101
000030 b3 7e 5f 3f f7 55 88 3f 9d 79 6f 3f a1 e0 7c 3f
       0.873027 1.0651234 0.9354494 0.98780257
000040 1e c3 7c 3f ac d1 6a 3f 17 1d 7b 3f a2 71 83 3f
       0.98735225 0.91726184 0.9809126 1.0269053
000050 67 fd 77 3f 9e 90 65 3f db 53 81 3f 77 74 7b 3f
       0.96871036 0.89673793 1.0103716 0.98224586
000060 86 40 86 3f 5d e3 79 3f 3d 35 73 3f 12 45 84 3f
       1.0488441 0.97612554 0.9500311 1.0333579
000070 f9 5e 6d 3f ba 68 93 3f e0 e3 5f 3f fc cb 74 3f
       0.9272304 1.1516335 0.87457085 0.95623755

in1.bias f4 [32]
000000 24 0b 96 3d bf 0f 43 3d b5 ea ae 3d 5c 1b 76 bc
       0.07326344 0.04762244 0.085408606 -0.015021171
000010 b1 9d b1 3d 07 00 a3 3e fe 12 a4 3d 0e 5c 2f bc
       0.086726554 0.31835958 0.08011435 -0.0107031
000020 62 0f 52 3c 1d 04 10 bd 05 68 b2 3c ca 6f 51 3d
       0.01282105 -0.035160173 0.021778116 0.051132
000030 6c 3c 12 3f a4 64 62 3a f1 a9 ec 3c 3c fa 0a bc
       0.57123446 0.00086362124 0.028889628 -0.008482512
000040 d5 6c 30 3d 49 53 de 3d 5f e7 03 3e d0 25 0b bd
       0.04307254 0.10855729 0.1288123 -0.033971608
000050 5a a6 a6 bc 62 3c bb bd 9f 01 09 bd 0a a4 01 3f
       -0.020342994 -0.091423765 -0.03344881 0.5064093
000060 19 89 39 bc d4 8c 62 bd 14 0b 04 3d 78 fb 51 3e
       -0.011324191 -0.055310085 0.032237127 0.20506084
000070 be 10 c2 bd 22 1d f2 3d c9 b6 1d bd be a6 8f 3c
       -0.094758496 0.11821963 -0.038504396 0.017535564

conv2.conv1.weight f4 [32, 32, 1, 1]
000000 d4 37 ae 3d 4f ff 97 bd 5a c7 d3 bd dc 59 9b 3d
       0.08506742 -0.07421743 -0.10340758 0.07585499
000010 b1 68 be 3d 44 ca 11 be 1e 33 60 be 63 f5 8d bd
       0.09297312 -0.14237314 -0.218945 -0.069315694
000020 7c c5 eb bd 83 5c 32 be 12 0e bb bb 59 6e c8 3b
       -0.115122765 -0.17418103 -0.0057084644 0.00611667
000030 db 8c 3b 3e ad 9d 26 be 6d 94 ab bd 3c 83 b9 bd
       0.18315451 -0.16271086 -0.08377919 -0.09058234
000040 ff 3a 0e bd 3c a6 43 3c 34 c9 e6 3c 8d 6f 16 be
       -0.03472423 0.011941489 0.028172113 -0.14690991
000050 8f 83 c1 3d 87 77 fd 3d da b5 97 bd c5 eb 58 be
       0.09448921 0.12376314 -0.07407732 -0.21183689
000060 a3 46 b8 bc 50 58 02 be c4 b6 44 bc ce 14 d3 bc
       -0.02249462 -0.12729001 -0.012006465 -0.025766756
000070 8c 47 0c bc 56 1b 9e 39 aa 1a db 3d 96 83 22 3d
       -0.00856198 0.00030156475 0.10698445 0.03967627
000080 09 4f 1a be 38 71 c4 bc 72 28 f2 bd e0 ef 08 3e
       -0.15069212 -0.023979768 -0.118241206 0.13372755
000090 d6 4b e4 bd 16 dc 14 bd d9 07 3d bc 4c 21 13 bd
       -0.11147277 -0.036342703 -0.011537516 -0.035920426
0000a0 50 19 21 3e 27 4e a8 bc 2c e0 c2 bd 03 d8 97 3d
       0.15732312 -0.020545078 -0.09515414 0.07414248
0000b0 68 d3 0f be 55 bb 57 3e e6 40 69 3e 6c eb 1a 3e
       -0.14045489 0.21067555 0.22778663 0.15128869
0000c0 71 af 99 bd da e1 b1 bc ea 63 2b 3c 68 d5 3a 3d
       -0.07504166 -0.02171414 0.010460833 0.045613676
0000d0 ab f0 b0 3d f4 81 43 3d e7 59 f4 bc ee ee de 3b
       0.08639654 0.047731355 -0.029828025 0.006803385
0000e0 2b cf 5a be bd 8a 04 3e fa eb 0b be e3 1d 0a bd
       -0.21368091 0.1294355 -0.13664237 -0.03371991
0000f0 f0 1e c0 3d 98 87 89 bc 92 6e e2 3b 50 2d c6 bd
       0.09380901 -0.016788289 0.0069101537 -0.096766114
000100 45 71 75 bd 62 b2 f7 bc 33 58 bc 3d fe ff 02 be
       -0.059922475 -0.030236427 0.0919651 -0.12792966
000110 e5 af 6b 3e bc 2e 45 3e 17 7c f6 3d 56 c8 56 bd
       0.23016317 0.19256109 0.12035387 -0.05243715
000120 4b fb 61 bd af a5 5b 3a f6 6b 95 3d 03 cb ae 3d
       -0.055171292 0.0008378876 0.072959825 0.08534815
000130 8a 2d 8b bd c2 1a 14 be f4 3c 04 be cd 50 75 bd
       -0.06795795 -0.14463332 -0.12913877 -0.05989151
000140 b4 4f a9 3d 06 fc 0b be 3a a8 72 bd 27 fa 22 3e
       0.08267155 -0.13670358 -0.059242465 0.15915738
000150 cb 9d 8e bb d2 82 07 3e 5e 3a 95 3d 11 ba 1a be
       -0.0043523065 0.13233498 0.07286523 -0.15110041
000160 77 30 dd bc 6c 59 8f 3d 1f 1a 2e 3d 7f e4 cf 3d
       -0.027000649 0.06999478 0.04250538 0.10151004
000170 54 f5 07 be 15 18 eb 3d 30 b3 39 be 5b 14 18 3d
       -0.13277179 0.11479203 -0.18134761 0.037128787
000180 64 2e 07 3d c6 e5 c4 3c e5 7f 04 be 33 f9 e0 bd
       0.033003226 0.024035346 -0.12939413 -0.10985031
000190 a6 49 e6 3d 38 e9 df 3d aa 38 89 3d d8 4d ab 3d
       0.11244516 0.10933155 0.06700261 0.08364457
0001a0 f6 1d 28 be 37 0d 13 be 3a b6 b1 bd 15 a2 aa 3d
       -0.16417679 -0.1436051 -0.08677335 0.08331696
0001b0 11 ad 47 bd 05 94 6b 3e 6a 97 34 3e fa bf 68 3c
       -0.048749033 0.23005684 0.17635885 0.014205927
0001c0 79 66 37 bd 9f 08 0d bd 32 28 c6 bd 29 c8 c2 bc
       -0.04477546 -0.03443205 -0.096756354 -0.023777084
0001d0 f9 3e d9 3d 08 6a b5 bd eb 2f 57 bd 5d 01 9d be
       0.10607714 -0.088581145 -0.052535933 -0.30665103
0001e0 81 27 db bd 54 eb b3 bc 4c 6c b2 3c 3c 54 f3 3d
       -0.10700894 -0.0219628 0.021780156 0.11881301
0001f0 20 ef 92 bd ef 7e 04 3e fd c5 b7 bc 59 4d 38 3e
       -0.07174516 0.12939046 -0.022433275 0.17998256
000200 f8 48 b5 3c af af 23 3e 05 c7 00 3e d6 77 b0 bd
       0.02212952 0.15984987 0.1257592 -0.08616607
000210 82 20 8c 3d a4 02 82 3e 46 98 19 3e 09 1e 00 bd
       0.06842138 0.2539264 0.14999494 -0.031278644
000220 a1 8b 0f 3e 96 7d 12 3d 63 84 47 be 7b 1f 29 bb
       0.14018108 0.0357643 -0.19484095 -0.0025806117
000230 3d ec 95 bd 0b 61 52 bd f6 2c 87 bd d1 3f 20 bc
       -0.073204495 -0.05136208 -0.066003725 -0.00978084
000240 e3 c3 9e ba 02 50 30 bc f9 4f e1 bd 71 7f 41 be
       -0.0012112822 -0.010761263 -0.11001582 -0.18896271
000250 f4 08 58 bd f7 ce 82 bd 66 ed 2d 3e a1 ae 00 be
       -0.052742913 -0.06387132 0.16985092 -0.12566616
000260 ff fa 1f 3e d5 cb 42 3d 4a a0 39 3e 8e 74 2b 3e
       0.15623091 0.04755767 0.18127552 0.16743681
000270 03 80 41 3e 38 40 7a 3d 72 24 61 3d 65 5d ba 3d
       0.18896489 0.0610964 0.054966398 0.09099845
000280 bd 57 27 be 14 b3 cc bd a9 f8 18 bc ab 60 56 be
       -0.16342063 -0.09995094 -0.009336629 -0.20935313
000290 40 d6 c0 bd 5c c7 1b 3e 27 77 a3 3d 08 aa 34 3e
       -0.09415865 0.15212768 0.07981711 0.17642987
0002a0 bf 7e ef bd 8c 3c f9 bd 53 cb ee 3d c0 42 bc bc
       -0.11694097 -0.121697515 0.11659875 -0.022981048
0002b0 90 2f 5a be 59 56 be 3c 1e 01 12 be 6a 5b 8a bc
       -0.21307206 0.023234533 -0.14258239 -0.016889293
0002c0 f4 e2 bf 3d 04 c6 a7 bd d8 d8 fc bd 69 f6 9d bd
       0.0936946 -0.08192065 -0.12346047 -0.07713015
0002d0 9f 15 25 3d 46 38 8b 3d 3f 63 29 be 52 43 13 3e
       0.040303823 0.06797843 -0.16541766 0.1438115
0002e0 5c a8 02 be e0 f5 a9 3d f3 75 e5 3d 82 64 c4 bd
       -0.12759537 0.0829885 0.11204138 -0.09589483
0002f0 83 44 0f 3e 9c 4f 31 3e 36 24 87 3d 1d 91 9f 3d
       0.13990979 0.17315525 0.065987036 0.0779135
000300 b1 63 5c 3e 1c eb 23 be f8 e5 c5 3d b5 72 53 3e
       0.21522404 -0.16007656 0.09663004 0.20649226
000310 47 f6 37 3e 30 36 30 be dc e9 04 be 22 1b 2f be
       0.17965041 -0.17208171 -0.12979835 -0.17100194
000320 cb c1 08 3e d4 ff 02 3d 9c 4d 6d 3d 13 1d c5 3c
       0.13355176 0.031982258 0.057935342 0.024061715
000330 62 f5 65 3e c8 12 36 bc 6c 31 c3 ba 58 bf 02 be
       0.22456887 -0.011112876 -0.0014892048 -0.12768304
000340 0c c5 3a bd d1 aa 20 3e 5d c2 19 3e b1 2b a9 bd
       -0.045598075 0.15690161 0.1501555 -0.082602866
000350 bb 63 09 3d fa 32 74 3d 6d 2e 11 3e 79 b7 c9 bd
       0.033542376 0.059618928 0.14177866 -0.09849448
000360 8e 01 f5 bc 24 34 c1 3d 6d a8 47 bd d9 53 a3 bc
       -0.029907968 0.09433773 -0.048744608 -0.019937443
000370 b4 6e a6 3d c6 73 9c bc d6 71 1d 3c fa d3 60 3a
       0.08126584 -0.019098174 0.00960966 0.0008576509
000380 46 71 c0 3d 67 78 82 bc 5f a1 e1 bd de 8f 40 3e
       0.09396605 -0.015926553 -0.11017107 0.18804881
000390 1a 34 c5 bd 60 f4 8c bd c5 97 95 bd 17 64 4f 3d
       -0.09629078 -0.06882548 -0.07304338 0.050632562
0003a0 5a 5b 0a bd 05 69 14 3b 41 36 bb 3d 36 4b 0a 3e
       -0.033778526 0.0022645604 0.091412075 0.13505253
0003b0 e7 fc 94 3d bc 23 9e bc 06 be dd 3d 50 5f 0a be
       0.072748 -0.019304149 0.1082726 -0.13512921
0003c0 bb b2 1d 3e 4c 26 4b 3c a6 d9 79 3d 62 e1 4c 3e
       0.15400212 0.012399267 0.06099858 0.20007852
0003d0 9e cd cc bd 15 d3 6f 3d 37 24 10 bc af 32 76 be
       -0.10000156 0.058550913 -0.008797697 -0.24042772
0003e0 3f 76 b0 bd 3e ed c0 bd 15 57 4b bd 11 66 90 3d
       -0.08616304 -0.0942025 -0.049643595 0.070507176
0003f0 41 8e 05 be 39 2b a6 bd 81 b7 f7 bc 75 87 a5 bd
       -0.13042547 -0.08113713 -0.030238869 -0.08082477

conv2.in1.weight f4 [32]
000000 09 c3 1a 3f b6 da 79 3f 18 cd d7 3e 5f 33 52 3f
       0.6045385 0.9759935 0.42148662 0.82109636
000010 fc 7b 20 3f 88 ab 40 3f 3e 16 53 3e 43 c7 4a 3f
       0.62689185 0.75261736 0.20613953 0.792103
000020 87 37 3c 3f d1 f8 77 3f db 08 1c 3f 46 43 11 3f
       0.7352223 0.9686404 0.6095101 0.56743276
000030 19 35 b7 3e ea cd 79 3f 03 50 6d 3f ca 77 79 3f
       0.35782698 0.97579825 0.92700213 0.9744841
000040 f3 83 66 3f f8 5b 84 3f 0d 62 48 3f fb 8e 27 3f
       0.9004509 1.0340567 0.78274614 0.65452546
000050 bc 46 6e 3f cf 09 47 3f 81 25 8d 3f 8c 7e 59 3f
       0.9307668 0.7774934 1.102707 0.8495872
000060 be 6a 31 3f 87 87 c3 3e bb 94 84 3f d3 02 3f 3f
       0.693035 0.38189337 1.0357889 0.74613684
000070 b2 6d 19 3f b7 32 80 3f 2a a7 46 3e 87 08 f0 3e
       0.59933007 1.0015477 0.19399706 0.46881506

conv2.in1.bias f4 [32]
000000 39 bf 6d 3e 38 fc 1e 3d 8f 13 d9 3e d1 ad 03 3e
       0.23217477 0.038814753 0.42397735 0.12859274
000010 c0 83 8c 3e 04 e8 46 3e fe 83 0f 3f a3 57 38 3e
       0.27444267 0.19424444 0.5606078 0.18002181
000020 0c 43 84 3e 9a 84 71 3d 96 da e4 3e 20 02 b5 3e
       0.25832403 0.05896435 0.44698018 0.35353184
000030 42 bc f1 3e 72 0a 0f bd 07 50 ce 3d 70 47 44 3d
       0.47213942 -0.03492207 0.10073858 0.04791969
000040 ec 46 b4 3d d1 0a 80 3c 2d d8 38 3e 67 57 98 3e
       0.0880259 0.015630158 0.18051215 0.29754183
000050 84 cb 30 3d 64 af 3f 3e 8f 1b 84 3c 03 24 14 3e
       0.043162838 0.1871925 0.016126422 0.14466862
000060 10 75 54 3e 8f 1d 04 3f 1f 7d 82 3d 3c a7 25 3e
       0.20747781 0.516076 0.06371521 0.16177076
000070 72 00 94 3e d2 12 57 3d ac bc 0e 3f 5f 61 bb 3e
       0.2890659 0.052508183 0.5575664 0.36597726

conv2.conv2.weight f4 [32, 1, 3, 3]
000000 7e 05 7c 3e 60 62 21 be 45 16 77 3e af 5b ab be
       0.2461147 -0.15760183 0.24129589 -0.33468387
000010 01 fd d6 be 78 57 b4 bd be 67 41 bb a9 cf 37 3d
       -0.41989902 -0.08805746 -0.0029511298 0.044875775
000020 95 6d 18 3e c6 ae a8 3d d5 78 be be a6 19 e2 bd
       0.14885552 0.082364604 -0.37201563 -0.11040048
000030 33 7a 88 bd 50 a6 9e be f7 df 96 be 7c f3 23 3e
       -0.06663933 -0.3098626 -0.29467747 0.1601085
000040 14 5e cd bd 8d 20 5a be a5 3f 4c be 2c cc b2 bc
       -0.100277096 -0.2130148 -0.19946153 -0.021825872
000050 db 08 94 bd 9e 5b 8c 3e 09 af fb 3e af ac d2 3d
       -0.072282515 0.27413648 0.4915698 0.10286843
000060 ab 55 74 3e 92 73 5f 3e 8d 04 71 bd 71 df 7b ba
       0.23860805 0.2182143 -0.05884223 -0.00096081855
000070 62 50 6c 3e e6 14 09 3e db 67 42 be 62 98 db bd
       0.23077539 0.13386878 -0.1898493 -0.10722424
000080 95 f5 a5 be b5 ec 0d be 25 aa f6 bd cd 2c 29 3e
       -0.32413927 -0.13859828 -0.12044171 0.16520996
000090 54 68 25 3e 11 87 a4 3e 21 16 e5 3d 79 30 80 3e
       0.1615308 0.32134297 0.111858614 0.25036982
0000a0 30 3b 18 bd 9f 9f 31 bd 36 0d d9 bd 3d 96 9d be
       -0.03716582 -0.043365117 -0.10598223 -0.30778685
0000b0 a2 24 49 be 0f a1 8d bd 6a 27 54 bd 75 58 a8 3c
       -0.1964288 -0.06915485 -0.0517954 0.020549992
0000c0 86 0a 8f bd 28 e9 df bd 20 54 99 3e cd 62 0a bd
       -0.06984429 -0.10933143 0.29946995 -0.03378563
0000d0 81 db 42 3e eb f4 86 3e ae 6e bf 3d 97 03 70 be
       0.19029047 0.26358733 0.09347282 -0.2343887
0000e0 2d 6f 47 3d 69 87 74 be 3c be d9 bd c0 c3 e7 3e
       0.04869001 -0.2387978 -0.106319875 0.45266533
0000f0 96 f1 a7 3d e1 9e 8a 3c 6a 3c b8 3e 75 97 e3 bd
       0.08200376 0.016921462 0.35983592 -0.111128725
000100 28 85 8d be 3c 5e 46 3e f5 50 0c 3d 59 b6 e1 3e
       -0.27640653 0.19371885 0.034256894 0.44084433
000110 00 1f a9 3e a7 c9 c8 bb 19 bf a5 3e 2f 8c 52 be
       0.33031464 -0.0061275545 0.32372358 -0.20561288
000120 9a 70 b1 bd c3 58 46 be 67 38 2c 3e 5c de c1 bd
       -0.08664055 -0.19369797 0.16818391 -0.0946624
000130 68 2e 27 be bd 0e c1 3e 74 d8 8e ba f8 0e 9e 3e
       -0.16326296 0.37706557 -0.0010898248 0.30870795
000140 b5 be 99 3e 9a 54 0c be cd b7 06 3e ad 9c d3 3d
       0.3002831 -0.13704148 0.13156052 0.10332618
000150 37 4d 1c 3d f2 b1 cf 3e e9 b3 6b 3e 61 d0 5f be
       0.038159575 0.4056545 0.23017849 -0.21856834
000160 13 05 50 be 4e 28 34 3d 64 cc 30 be 4a b4 82 3e
       -0.20314436 0.04398375 -0.17265469 0.25528175
000170 2d 8b 07 be 0d e1 11 be 6c 61 df 3e 12 51 3c 3e
       -0.13236685 -0.14246006 0.43629014 0.18390301
000180 3c 98 8f bd 66 3d 7e bd 30 64 e4 bd 07 6b 63 3e
       -0.07011458 -0.062070273 -0.11151922 0.22208796
000190 86 d0 05 3d c0 a7 62 be 2f 9c 1f 3e 18 c4 01 3d
       0.032669567 -0.22134304 0.15586923 0.03168115
0001a0 d8 9d 30 be 35 fe 61 3e 08 03 82 3e 83 cf 61 bd
       -0.17247713 0.22069629 0.25392938 -0.05512954
0001b0 5b fa 57 3e 61 d5 b8 bd c5 16 7c be 04 5a c1 bd
       0.21091597 -0.09025074 -0.24618061 -0.09440997
0001c0 b0 6b 26 bd 18 66 1e bd 1d 0e 44 be 0b 14 ed 3e
       -0.040630043 -0.038671583 -0.19146009 0.46304354
0001d0 57 1f 94 3e 65 23 e3 3d c4 0f 8a 3e d6 e6 9a bd
       0.2893016 0.11090735 0.26965153 -0.0756356
0001e0 06 5c 7e 39 a2 48 a7 3d ed 4a 42 3e f2 6e 03 bd
       0.00024257609 0.081681505 0.18973894 -0.032088228
0001f0 1e e1 0b bd f7 26 3e 3e a4 d8 1d bd 8a 07 7a be
       -0.034150235 0.18569551 -0.038536683 -0.24416938
000200 bc f9 e4 3d 3b fa 3d bd ae f3 98 3e f0 f1 83 3e
       0.111804456 -0.046381216 0.29873413 0.2577052
000210 58 69 7d be 41 42 16 bd e7 76 94 3e 40 f8 72 3e
       -0.24747217 -0.03668428 0.28996965 0.23727512
000220 dc f0 ac 3d 54 a2 c8 3d 58 c2 a3 be 0b 1d b5 be
       0.08444378 0.09796587 -0.3198421 -0.3537372
000230 91 61 6b be ec d0 70 3e 22 81 2c be 78 f6 95 3e
       -0.22986437 0.23517197 -0.16846135 0.29289603
000240 ec f7 28 3e a0 67 75 be 09 2c 44 3e 9c ce 64 3e
       0.16500825 -0.23965311 0.19157423 0.2234444
000250 b3 f3 45 be 29 ca 78 3d aa e1 77 3e f3 70 b6 3e
       -0.19331245 0.06073967 0.24207178 0.35633048
000260 10 84 a3 bd a7 63 1a be ca b9 98 3e 1f ea a9 be
       -0.07984173 -0.15077077 0.29829246 -0.33186433
000270 37 0d b7 3b 38 5a 0e 3e ad af 03 3d 31 d5 cb be
       0.005586292 0.13901603 0.03214996 -0.3981109
000280 3b 20 5a be 4a 82 2f bd 07 bd 84 3d 41 47 80 bc
       -0.21301357 -0.042848863 0.064813666 -0.015658977
000290 b1 62 fc bc 11 37 f2 bd 42 85 5c 3e 8b c3 b9 3e
       -0.030808778 -0.11826909 0.21535209 0.36282
0002a0 74 e5 6f be e8 14 c5 3e 86 67 1d 3e 0f 74 22 3e
       -0.23427373 0.38492513 0.15371522 0.15864585
0002b0 d8 46 44 be 0a 2e 0b 3e 52 c1 8b be 56 f6 19 3c
       -0.1916765 0.13591781 -0.2729593 0.00939711
0002c0 5c 8e 16 3f dd 0a c1 bd dd 94 a8 3e ce 4c 83 3d
       0.58810973 -0.094259 0.32926074 0.06411134
0002d0 cf 27 19 3e f5 47 a3 be 74 41 33 3e cf dd 42 3d
       0.14956592 -0.31890836 0.17505437 0.047574814
0002e0 2d 5a 3a 3e 47 6d a5 3e 5b ed de 3d 08 c1 12 bd
       0.18198462 0.32309934 0.10885116 -0.03582862
0002f0 8b 54 c9 3e 6f 77 70 3e 9c e8 f4 3e 03 1c 9e 3e
       0.39322314 0.2348306 0.47833717 0.30880746
000300 24 92 ba 3d 1c 4b 1a bd bf 62 97 be 91 12 72 be
       0.09109905 -0.037669286 -0.29567525 -0.23639895
000310 10 b9 43 be af a1 e0 3d da 90 e5 be 16 e1 78 be
       -0.19113564 0.10968339 -0.44837075 -0.24304613
000320 67 3e 00 3e 50 84 b9 bd 6e 5a 5d be 6a b8 be 3e
       0.12523805 -0.0905844 -0.21616527 0.37250072
000330 6d f1 ab be 53 61 be 3c 19 6d 09 bd 43 7f 90 bd
       -0.3358263 0.023239767 -0.03355131 -0.07055523
000340 bd 0f 5f 3e 79 a2 ed 3e 8c b4 77 be 45 b2 f7 3d
       0.21783347 0.4641302 -0.24189967 0.12094549
000350 7b 0e 64 bc 4b 02 74 ba 56 5e 55 be fc 8b 2a 3d
       -0.013919468 -0.0009308203 -0.20836768 0.041637406
000360 6d 04 8f 3e 4a 40 bd 3d 79 c5 2a be 26 43 e2 3c
       0.27933064 0.09240778 -0.16676892 0.02761991
000370 e8 ab 57 be 3c d9 d8 bc ff a3 95 3e 6b a7 86 3e
       -0.21061671 -0.026470773 0.29226682 0.26299605
000380 5e 94 9b bd d4 67 d4 bd 76 c4 a4 be 52 98 3e be
       -0.07596658 -0.10371366 -0.32181138 -0.18612793
000390 4e 03 fa 3c 5e ba ac 3e a2 29 02 3e 81 6f 37 3e
       0.030519154 0.33735937 0.12711194 0.17913629
0003a0 be c7 1b 3e 64 74 31 3e 51 2b 2c bd b9 df 48 3e
       0.15212914 0.17329556 -0.042033497 0.19616593
0003b0 f1 f5 9e 3d 6e 2a 86 3e c2 da df 3e f6 f7 21 3e
       0.07761753 0.26204246 0.43721586 0.15817246
0003c0 8b 34 90 bd 6e a5 96 be 9b f6 f2 bb ae 89 aa bc
       -0.07041272 -0.29423088 -0.0074146516 -0.020817604
0003d0 3c 9c 5f 3e 73 ef 43 3d 67 3c 66 be 1b 1b 74 be
       0.21836942 0.04783578 -0.22483979 -0.23838465
0003e0 c6 1e aa be e7 eb 32 3e ac 3f 7c 3e e5 7a 25 be
       -0.33226603 0.17472802 0.24633664 -0.16160162
0003f0 10 e3 07 3e cb 78 8c 3b 59 3d 18 be a7 03 c7 3d
       0.13270211 0.0042868606 -0.14867152 0.097174935

conv2.in2.weight f4 [32]
000000 df 2e 5e 3f 9c 52 6d 3f 30 e5 58 3f 3a 2c 4c 3f
       0.8679027 0.92704177 0.8472471 0.79754984
000010 40 87 62 3f 14 46 5a 3f 80 33 80 3f a6 79 70 3f
       0.88487625 0.8526318 1.0015717 0.9393562
000020 1f 08 5c 3f 49 73 80 3f 84 06 5c 3f e0 66 6e 3f
       0.8594989 1.0035182 0.8594744 0.93125725
000030 d8 e5 7a 3f 98 91 6e 3f 7f ce 6f 3f 41 e2 60 3f
       0.98006964 0.9319091 0.93674463 0.87845236
000040 aa 8c 7f 3f ea d5 5e 3f 1d c7 6d 3f 13 5f 7c 3f
       0.9982401 0.87045157 0.9288195 0.9858257
000050 01 11 73 3f ae 73 67 3f 39 f9 73 3f b6 2e 6e 3f
       0.9494782 0.9041089 0.9530216 0.93040025
000060 83 7a 69 3f fc 18 6b 3f a0 78 7f 3f 58 28 63 3f
       0.91202563 0.91835 0.99793434 0.88733435
000070 ed e0 5c 3f c2 4b 43 3f 66 8d 80 3f b2 c0 6a 3f
       0.8628071 0.7628747 1.0043151 0.9170028

conv2.in2.bias f4 [32]
000000 5b 50 54 3e ef 81 7c bd 88 32 e7 3e 98 53 8e 3c
       0.20733778 -0.06164735 0.4515574 0.017373845
000010 0d 02 17 3f e6 78 55 3e 69 ad b0 3e 72 4f dc 3e
       0.58987504 0.208469 0.345073 0.43029362
000020 c6 7e b0 3e 33 8c 0d 3e 94 8d b5 3e bf 51 1f 3e
       0.3447172 0.13823013 0.35459578 0.15558527
000030 8e 17 bb 3e 04 a2 66 bd 04 83 7f 3d 74 04 be 3d
       0.36541408 -0.056306854 0.062380806 0.09278193
000040 23 ae d4 3d d5 57 8c bd f5 16 a1 3e f2 57 a0 3e
       0.103847764 -0.0685269 0.31462827 0.31317097
000050 48 4a 65 bd 86 d3 ab 3e cb 12 07 3a b8 4f dc 3d
       -0.055979043 0.33559817 0.00051526417 0.10757393
000060 bb 4c c3 3e b7 e5 16 3f c4 78 16 3e ad 4e 07 3c
       0.38144478 0.5894427 0.14694506 0.008258504
000070 b4 55 e9 3e 80 1f f7 bd 51 fd 22 3e 79 04 07 3f
       0.455732 -0.12066555 0.15916945 0.527412

conv2.conv3.weight f4 [64, 32, 1, 1]
000000 6c 7b 4c 3e 2d 19 ba 3d 61 82 70 bd b2 17 ad 3c
       0.19968957 0.09086833 -0.05871809 0.021129463
000010 8a 2c d6 bd 74 d9 60 be 42 3f 35 3e 72 90 9a 3d
       -0.10457714 -0.21957952 0.17699912 0.07547082
000020 d5 d0 a3 bd 6a 79 30 3e ac 1c 16 be b8 8f 80 bd
       -0.07998816 0.17233816 -0.14659375 -0.06277412
000030 4d 74 5f 3e 29 7f 99 bd 0f 9f f6 bb db 28 f1 bd
       0.21821709 -0.07494957 -0.0075262855 -0.11775371
000040 55 99 43 3d df 65 ab 3c bf cc 36 be 81 dd 33 bd
       0.04775365 0.0209226 -0.17851542 -0.043912414
000050 60 85 d5 3d ef bc 28 be f3 e5 2e be 54 d7 ba bb
       0.1042583 -0.16478322 -0.17079906 -0.0057019386
000060 1a 95 36 3e 74 63 02 3c 65 fd f7 3c fd 69 a8 bc
       0.17830315 0.007958282 0.030272195 -0.020558352
000070 a0 6f 65 bd 6a 6f 1c 3c a1 de 1a 3e d6 87 17 3e
       -0.056014657 0.009548048 0.15123989 0.14797911
000080 6f 51 ca bd 3a 8c 82 bd 2c ae b8 3d f8 51 f1 bd
       -0.098788135 -0.06374402 0.09017596 -0.117832124
000090 4e 9e c1 3d 2b 81 a0 3d ab c2 ac bd ea fe bb bc
       0.09454022 0.07837137 -0.084355675 -0.022948701
0000a0 e1 d4 85 bd 86 89 a5 3d ec 34 35 3e 61 bf 0a 3e
       -0.06534744 0.08082871 0.1769597 0.13549568
0000b0 65 27 0f be dd 48 63 3d f9 00 45 3c ea 8b 25 bd
       -0.13979872 0.05548941 0.012024158 -0.040416636
0000c0 ec cc f7 3d ae 3f 3f 3c 70 5d 0f be b6 19 91 3d
       0.120996326 0.011672897 -0.14000487 0.07084982
0000d0 35 63 d0 3d c2 d1 80 bb 0c 85 0c 3e 9e 69 8b bd
       0.10175172 -0.003931255 0.13722628 -0.06807254
0000e0 aa 35 f5 3d 1e 7a ac be e6 0b 27 3d 6d a9 18 3e
       0.11973126 -0.33686918 0.04078283 0.14908381
0000f0 aa 16 9c 3c c7 20 e6 3d 9b 69 ff 3c ce a5 4c 3e
       0.019053776 0.112367205 0.031178286 0.19985124
000100 ca cf a2 3d ae 35 82 bd de 42 38 be 1c 17 d4 bc
       0.07949789 -0.06357895 -0.17994258 -0.025889926
000110 d5 e3 83 3d 12 53 6f 3d c2 2e 67 3e d4 6d 03 bd
       0.0643994 0.05842883 0.2257643 -0.032087162
000120 ad 21 23 3b 72 b9 c6 bd ec b6 92 bd 78 89 5e bd
       0.0024891899 -0.0970334 -0.07163796 -0.05433032
000130 96 94 f5 bd 5a 77 28 3d 8e 07 e8 bd cb a1 b1 3d
       -0.11991231 0.041129448 -0.11329566 0.08673438
000140 ea 39 05 3b 3f b9 d5 bd 87 f3 13 bd 47 45 99 bd
       0.002032871 -0.104357235 -0.036120918 -0.07483917
000150 40 5a fa bd aa 18 02 be 7a 49 93 bd fd 46 c5 3d
       -0.12224245 -0.12704721 -0.07191749 0.096326806
000160 4d 33 17 be 5f 65 68 3e 40 02 3f be 92 7e d6 bc
       -0.14765663 0.2269492 -0.18653202 -0.0261834
000170 70 25 e4 bc 0f 05 29 3e a7 35 df bb 4c e3 ba bd
       -0.027849883 0.16505836 -0.006811816 -0.09125385
000180 2f d1 5d 3d 28 48 36 bd 89 8e ca bd e0 13 11 bc
       0.05415457 -0.044502407 -0.09890468 -0.008854836
000190 ad 40 26 bd 65 1d 43 3e 55 47 0f bc 40 65 59 bd
       -0.040589023 0.19054182 -0.008745034 -0.053075075
0001a0 d6 b7 3b 3e 6c 4f 29 3e cb b6 cc 3d 0d d0 0d 3e
       0.18331847 0.16534203 0.099958025 0.13848896
0001b0 2a 25 75 bd 68 06 a9 bd 2c 96 28 3d 86 dd 5e bc
       -0.059849896 -0.08253175 0.04115884 -0.01360262
0001c0 ff b1 bd 3d 44 be 1e be 3f 99 20 be 5d d1 6d 3e
       0.09262466 -0.15502268 -0.15683459 0.23224397
0001d0 fa 77 01 bd 13 97 91 3d af 14 91 bc 83 87 16 3e
       -0.03160856 0.07108893 -0.017710058 0.14700131
0001e0 fa f9 14 be 18 ee 26 3e ef c0 d3 3c 1d 10 92 bd
       -0.14548483 0.16301763 0.025848834 -0.071319796
0001f0 5d 85 7c 3e f5 6c 58 bd 6c 1b 09 be 14 2e c3 3b
       0.24660249 -0.052838285 -0.13389367 0.0059564207
000200 5c ee dc 3b f3 ab 2e 3e 18 33 02 be b9 d9 1f 3e
       0.006742282 0.17057781 -0.12714803 0.15610398
000210 91 4f 40 3e cc 0b 19 bd 6e 16 95 bd 29 c8 11 3e
       0.18780352 -0.037364766 -0.07279669 0.14236511
000220 80 98 00 bc 79 01 20 bd 3e b2 27 bd b5 ec 40 3e
       -0.007848859 -0.039063904 -0.04094147 0.18840297
000230 f7 8d 8a bd a6 39 30 bd 34 cf f6 3d 71 0e 67 bc
       -0.06765359 -0.043023728 0.120512396 -0.014102564
000240 b0 77 cb 3d 1d be 87 3d c6 c0 7a be 0f c8 56 bd
       0.09934938 0.06628058 -0.244876 -0.052436884
000250 42 37 84 bc 84 bb 01 3d 94 33 8f bd 35 2c 22 3e
       -0.01613963 0.03167297 -0.069922596 0.15837176
000260 9a 13 3f 3c d8 ce ce 3d 87 3f eb bd 34 64 86 3d
       0.011662388 0.10098046 -0.11486726 0.06562081
000270 52 cb b2 bd b0 27 da bd 3c da 70 3b 88 4e 24 be
       -0.087301865 -0.10652101 0.0036751172 -0.16045582
000280 21 58 5a 3d 44 cd 0f 3d 70 91 c8 3d 4c bc a5 3d
       0.053306703 0.035107866 0.09793365 0.080925554
000290 4e 8e 63 bd b4 04 d1 bc d1 9a ae 3d b7 4d 62 bd
       -0.055555634 -0.025514938 0.08525623 -0.055249896
0002a0 2a 2c 32 be e2 04 20 3a ba e3 ec bb ed 15 f4 bd
       -0.1739966 0.0006104243 -0.0072292956 -0.119182445
0002b0 72 08 63 3c 85 87 c7 bb 38 96 fd 3d 4c 3f 10 3e
       0.013856994 -0.0060891532 0.123821676 0.14086646
0002c0 6b 23 ff bd c9 81 6a 3d 01 0f 84 3c bc 93 14 be
       -0.12457927 0.05725268 0.016120436 -0.14509481
0002d0 07 b4 2e 3d b2 4a 04 3e 77 1c ca bd 32 42 9e bd
       0.042652156 0.12919119 -0.098687105 -0.077274695
0002e0 71 e0 90 bd 29 02 4c 3c e7 a6 e9 3c 35 56 00 3c
       -0.07074059 0.012451687 0.028521968 0.007833053
0002f0 3d f6 11 3e 1c ed bd bd e1 d2 99 be 0d 1d 6f 3d
       0.14254089 -0.09273741 -0.300437 0.058377314
000300 27 79 3b be 74 79 e4 3d 68 fc 3a be f0 24 f5 3c
       -0.18307935 0.11155978 -0.18260348 0.02992484
000310 e8 c8 41 be 26 35 0f 3e b5 f5 70 bd bf 04 15 be
       -0.18924296 0.13985118 -0.058828074 -0.14552592
000320 77 79 ac 3d 47 a6 36 bc a1 c8 01 3d fc 6c 59 3d
       0.08421605 -0.011148042 0.031685475 0.05308245
000330 4d fb c5 3d 78 55 a2 bc 6f 15 1d bb 01 3e be bc
       0.096670724 -0.019816145 -0.0023969074 -0.023222925
000340 ed 6f 15 be f1 68 be bc 1c 4d 69 3d 53 f5 e2 3c
       -0.14593478 -0.0232434 0.056958303 0.02770487
000350 88 c8 47 3c c9 83 04 be 23 4d b3 bd e8 ef 1b be
       0.0121938065 -0.12940897 -0.08754947 -0.15228236
000360 91 8d fa bd 39 4c f4 bd f5 71 e8 3d de 01 21 be
       -0.12234033 -0.11928601 0.113498606 -0.15723369
000370 2e 1f 38 3e 1b 80 96 bd d3 b0 4b 3e ea a2 55 3e
       0.17980644 -0.07348653 0.19891672 0.20862928
000380 84 31 bf bd ff 35 2b be 71 6c 42 be 75 e0 02 3d
       -0.09335616 -0.16719817 -0.1898668 0.03195234
000390 be e6 52 be ec 4d 30 3d 32 5a 2c be 6a c4 23 be
       -0.20595834 0.043043062 -0.16831282 -0.15992895
0003a0 5b 35 3b 3e 3c f5 0d bd 2f 4d ab 3d 6b fa ac bc
       0.18282072 -0.0346577 0.08364331 -0.021115502
0003b0 da 95 27 3e 16 d2 0e 3e 56 3a 85 bd fa 28 df 3c
       0.16365758 0.13947329 -0.06505267 0.027241219
0003c0 0b b1 15 3d 6a 3c 13 3e 57 f3 80 bd bd 3e 14 3e
       0.036545794 0.14378515 -0.062964134 0.14477058
0003d0 1c 8d 87 3c 33 c5 92 bd b7 a9 41 be 95 dc c3 bd
       0.016546778 -0.07166519 -0.18912397 -0.09563557
0003e0 fa a6 cd bd 93 1d 4e be 21 5b fe 3d 60 c6 b3 3d
       -0.10041614 -0.20128469 0.12419725 0.087780714
0003f0 31 cf dc 3d 14 51 2d bc 29 66 f1 bd 64 ec 1a bd
       0.10781706 -0.010578413 -0.11787064 -0.037823096

conv2.in3.weight f4 [64]
000000 70 6a 7e 3f 1b 1f 89 3f 66 e0 72 3f af 0a 88 3f
       0.9938116 1.0712618 0.94873655 1.062826
000010 7b be 7a 3f c4 a4 79 3f 4f f7 84 3f 87 68 88 3f
       0.979469 0.9751704 1.0387973 1.0656899
000020 7d 62 81 3f 5f 69 79 3f 1f 57 88 3f f4 b6 80 3f
       1.0108181 0.9742641 1.0651587 1.0055833
000030 69 b8 8b 3f 31 d0 7b 3f 46 9a 80 3f 38 7d 7a 3f
       1.0915653 0.9836455 1.004708 0.9784732
000040 88 a9 7f 3f c7 3d 6c 3f fe d1 79 3f 72 dc 7d 3f
       0.9986806 0.92281765 0.9758605 0.991645
000050 cd 97 83 3f d9 68 7d 3f 20 98 76 3f ac 4c 80 3f
       1.0280701 0.9898811 0.96325874 1.0023398
000060 a2 6c 8f 3f 30 a8 73 3f 52 10 68 3f 8a 26 80 3f
       1.1205027 0.9517851 0.906499 1.0011761
000070 3f e1 7a 3f 55 9e 71 3f 18 5a 60 3f 11 97 7f 3f
       0.9799995 0.9438222 0.8763747 0.99839884
000080 f1 45 7e 3f 48 00 81 3f 53 b6 6c 3f fb b0 79 3f
       0.9932547 1.0078211 0.92465705 0.97535676
000090 22 c7 88 3f 45 e8 76 3f 40 b6 76 3f 58 df 80 3f
       1.068577 0.96448165 0.9637184 1.0068159
0000a0 cc 5b 6a 3f b8 49 81 3f 16 10 6f 3f 9a 9a 82 3f
       0.9154632 1.0100622 0.9338392 1.0203431
0000b0 c7 32 84 3f b6 86 82 3f f2 74 83 3f 05 1c 91 3f
       1.0327996 1.019736 1.0270064 1.1336676
0000c0 77 b3 83 3f d2 ac 83 3f 54 56 76 3f c7 7a 70 3f
       1.0289143 1.0287116 0.96225476 0.93937343
0000d0 b3 b6 85 3f f4 50 83 3f 16 e4 84 3f 40 d2 5b 3f
       1.044638 1.025908 1.0382106 0.8586769
0000e0 2d 0e 84 3f dc 00 88 3f a1 5d 8e 3f 25 c2 79 3f
       1.0316826 1.0625262 1.1122323 0.97561866
0000f0 ca 47 82 3f 0d 10 7b 3f 7e 96 75 3f 7a 3d 86 3f
       1.0178158 0.98071367 0.9593276 1.0487511

conv2.in3.bias f4 [64]
000000 27 b1 ad bd 45 26 35 3d ec 66 57 3c 94 ea 84 bd
       -0.08481055 0.04422595 0.013147097 -0.06490055
000010 66 fb ec 3d ef e2 2c bd 19 05 f3 bc 5e 23 fe bc
       0.11571388 -0.04220861 -0.029665517 -0.031022724
000020 c4 d4 be 3c a9 cc b9 bd 08 00 d8 3c aa 6d 22 bd
       0.023294814 -0.09072239 0.026367202 -0.039655365
000030 18 1c ed bc 2d ff 98 3d 06 b1 5d 3d de d9 26 3e
       -0.02894406 0.07470546 0.0541239 0.16294047
000040 fc 20 10 3d eb 7a 3b 3d 1c fd 90 3c 48 15 3b 3d
       0.035187706 0.04577152 0.017698817 0.045674592
000050 af 4b 9c bd 90 fd 96 3d 80 ff ae b9 ed 73 ad 3c
       -0.07631623 0.07372582 -0.0003337823 0.021173442
000060 bb ef f7 3d a7 df 6e bd ff 94 db bd a0 94 1b bc
       0.12106272 -0.05831876 -0.10721778 -0.009495884
000070 33 09 ec bb e4 d5 18 3d 0c a9 83 bd 41 69 61 bd
       -0.007203245 0.037313357 -0.064287275 -0.05503202
000080 cd 3c 93 3d 94 ad d8 3d 04 2f 8a 3c 55 14 1c 3d
       0.07189331 0.105799824 0.016868122 0.038105328
000090 1a 7b 3f 3e 43 24 01 be ac ea c5 bd 26 b8 b1 bd
       0.18699303 -0.12611489 -0.09663901 -0.08677702
0000a0 db 3d 26 bc b6 eb 10 bd 61 0e 85 3d a2 28 bc 3d
       -0.010146583 -0.03538104 0.06496883 0.091874376
0000b0 08 02 9e bc 95 18 48 bd 12 37 a4 bc 0f 02 56 3d
       -0.019288078 -0.04885157 -0.02004579 0.052248057
0000c0 b3 da 80 3d 0a 5e 0e bc 4c 97 50 3d 26 1b f1 3d
       0.062917136 -0.008689413 0.050925538 0.11772756
0000d0 51 c4 8e bd aa 45 b1 bd 04 2b 88 bd 47 fd 17 bd
       -0.06971038 -0.086558655 -0.066488296 -0.03710678
0000e0 ea ec d4 bd a1 32 cf bc e2 c8 a2 3d bf 6c 34 bc
       -0.1039675 -0.025292696 0.079484716 -0.011012255
0000f0 27 91 c7 3a b3 e2 58 3b d1 18 34 bd 5f 9f 0f 3e
       0.0015225754 0.0033094108 -0.04396898 0.14025639

conv3.conv1.weight f4 [64, 64, 1, 1]
000000 a4 83 de bb 17 ea 62 bd 26 07 9b 3b f3 41 93 3d
       -0.006790595 -0.055399027 0.004731077 0.07190313
000010 74 a6 af bd 49 f1 78 3c 07 01 db 3d a3 4c 70 3d
       -0.0857667 0.015194246 0.10693555 0.058666836
000020 cb ee 34 be 99 5e 38 bd 0e c5 3d bd 07 25 6a 3d
       -0.17669217 -0.04501209 -0.046330504 0.05716422
000030 59 f1 21 bd 17 e2 5c 3c 10 bd 13 3d 0f 14 03 be
       -0.039536808 0.013481638 0.036068976 -0.1280062
000040 10 47 a8 bc 99 b0 fb 3c b5 26 90 3c 59 be 97 bd
       -0.020541698 0.030723857 0.017596582 -0.07409353
000050 39 d9 bf 3b 23 18 2a be f9 eb a2 3c 9d f8 21 be
       0.0058547524 -0.1661077 0.019887911 -0.15817495
000060 b6 de 21 bd d0 91 39 bd 3a e7 93 bd b3 66 0f 3e
       -0.039519034 -0.045305073 -0.07221837 0.1400402
000070 2c 66 fe bb 34 f6 df 3b 99 38 c8 bd 27 a8 57 bd
       -0.0077636447 0.0068347696 -0.0977642 -0.052650597
000080 65 c8 26 be 37 b3 93 bd 1a 79 97 bd 7c e5 b4 bc
       -0.16287382 -0.07211917 -0.07396145 -0.022082083
000090 84 5a ec 3d 3c dc a5 3d d3 ac 91 bd d9 56 06 bd
       0.11540702 0.08098647 -0.07113042 -0.032797668
0000a0 29 c7 a9 3b c3 f6 77 3d c5 ff 0b 3c a9 b1 93 3c
       0.0051812124 0.060538065 0.008544867 0.01802905
0000b0 9b 52 d6 3c 82 3a 93 3d 76 63 7f bd ad cf bf 3d
       0.026162436 0.07188894 -0.062350713 0.09365783
0000c0 11 cd 18 bd 87 f1 06 be 24 17 b9 bd 1f 36 d6 bd
       -0.03730494 -0.13178073 -0.09037617 -0.104595415
0000d0 b2 61 49 3e f4 de f1 3d 6d 59 0e bd 04 5b b5 3c
       0.19666174 0.11810103 -0.03475325 0.022138126
0000e0 57 3f af 3d 4f 41 87 bd 91 bf 99 bd 23 35 00 be
       0.08557003 -0.066042535 -0.075072415 -0.1252027
0000f0 d7 fa 96 3e 8e 67 50 bd b9 31 3f 3e 1d 12 c9 bc
       0.2948825 -0.050880007 0.18671311 -0.02454477
000100 9f 65 a5 bd 0d 8c 3d bc 2b 6c 1b bd 8d a4 2e be
       -0.08076023 -0.011569035 -0.037944954 -0.17054959
000110 a3 ad 4d bc b3 ce 23 3d 42 dc c6 bd 4e bf be bd
       -0.012553605 0.039992046 -0.097099796 -0.09313832
000120 43 08 f2 3d 7b ee cf 3d 43 83 a1 bd a9 20 fa 3b
       0.11817982 0.101529084 -0.07886364 0.007633288
000130 5f 3f cf 3d 66 08 f2 3d 1f 6e 38 3d 28 f2 71 bd
       0.10119509 0.11818008 0.045026895 -0.05906883
000140 33 a1 15 be c4 40 43 bd a4 17 d7 bc 79 fe fa 3d
       -0.14612274 -0.047669187 -0.02625639 0.12255568
000150 c2 2b 0c be 1a 36 73 3c 42 03 ed 3d cc 69 a1 3d
       -0.13688567 0.014844442 0.11572887 0.07881507
000160 04 68 97 bd b8 39 86 bd 7e d1 6a 3c 52 ca 95 bd
       -0.07392886 -0.06553978 0.014332173 -0.0731398
000170 84 85 31 bd e5 e4 10 bd 6a c8 71 3d 61 0d 3f 3d
       -0.04334022 -0.03537454 0.05902902 0.04664362
000180 82 8d 22 3c d4 0f 49 3d dd d5 13 3e ca 87 14 bd
       0.009921433 0.04908736 0.14437051 -0.03626231
000190 01 71 2c 3d a8 ac e7 bd bc a8 e7 bd 16 0c c6 bd
       0.042099956 -0.113122284 -0.113114804 -0.09670274
0001a0 44 5b f7 bc 69 df cd b9 47 7c 6e 3d 06 dd 23 be
       -0.030194886 -0.000392671 0.05822399 -0.16002283
0001b0 be b1 08 be 05 9e a2 3c aa 6b 30 3d d6 0f 9a bd
       -0.13349053 0.01985074 0.043071426 -0.07522552
0001c0 a2 1d 83 3d 44 e6 53 3b 5e b8 a7 bd 61 a6 1a 3c
       0.064021364 0.0032333294 -0.08189462 0.009439082
0001d0 9a ae 33 be 09 03 09 3e a5 45 38 3e 83 ba 99 bd
       -0.17547074 0.13380064 0.17995317 -0.075062774
0001e0 16 6d 80 bd 41 a3 f6 3d 06 c1 94 bc 7d 52 45 bd
       -0.062708065 0.12042857 -0.018158447 -0.04817437
0001f0 00 a8 ea bd 3e db 57 bc 45 9d 3e be 22 01 bf 3c
       -0.11457825 -0.01317483 -0.18614681 0.02331597
000200 0c 09 14 bc f5 af 26 be 58 06 c8 3c 98 7d 1a 3e
       -0.00903536 -0.1627806 0.024417087 0.15086973
000210 1b 07 1f bc c6 8b 98 3d 04 90 00 3e 9d a2 06 3d
       -0.009706284 0.07448535 0.12554938 0.032869924
000220 57 ad 4c 3d 41 13 0b bd d0 34 35 3e ee 43 0b bc
       0.049969997 -0.03395391 0.17695928 -0.008500082
000230 c7 4b cf 3d 65 6f 10 be 89 6f eb 3d 15 c8 27 3d
       0.10121875 -0.14104994 0.11495883 0.040962297
000240 d8 4e a4 3d b3 bc 40 bd 3f 2e ad 3c d1 cd 0a be
       0.08022851 -0.047054958 0.021140216 -0.13555075
000250 9e 53 57 bd a8 37 1b 3c 14 57 f5 bd 6d ff 34 be
       -0.052569978 0.009473719 -0.119794995 -0.17675562
000260 d4 bc 09 3e 76 d0 6a bd b6 86 d3 bd 08 3b dd bd
       0.13450938 -0.05732771 -0.103284284 -0.10802275
000270 72 b0 2c 3d 6c d1 68 3d 4b 1d a5 bd 54 c5 69 be
       0.04216046 0.056840345 -0.08062228 -0.22829181
000280 40 3c 17 3e 0e d8 da bd b6 1f 28 be 32 7d 42 bc
       0.14769077 -0.106857404 -0.16418347 -0.011870669
000290 19 06 76 3d 14 02 a4 3d c5 01 5a 3a 52 fb 7d bd
       0.06006441 0.08008209 0.0008316304 -0.062007256
0002a0 2c c4 ac bd 23 42 a2 bb c6 03 7b bd 7e 1b f5 3a
       -0.08435854 -0.004951732 -0.061282896 0.001870021
0002b0 20 e3 bc 3d bb 6a 0a 3c b5 1b 04 bd 58 ae 27 bd
       0.09223008 0.008448298 -0.032252986 -0.04093775
0002c0 d5 b1 ad bd c5 05 81 3c 1e fd 07 3d c9 75 04 3d
       -0.084811844 0.015749821 0.033200376 0.03233889
0002d0 88 07 82 3d 45 e1 50 bd 07 cc 87 bd 12 f4 01 bd
       0.06349093 -0.050996084 -0.06630712 -0.031726904
0002e0 20 ed 0e 3d ed 01 e7 bd 0f e6 a9 bd 92 04 21 bd
       0.03489411 -0.11279664 -0.08295833 -0.039311
0002f0 80 e4 1b 3e 86 ae 8b bd c0 b9 38 bc 2a 0d a9 bd
       0.15223885 -0.06820397 -0.011274755 -0.08254464
000300 8a bd b9 bd 40 30 17 bc 56 51 76 bb 16 b4 9e bb
       -0.09069355 -0.009227812 -0.00375851 -0.0048432453
000310 c5 59 99 bd ee 2e b7 bd 8d ec 3f 3d 35 86 cc 3d
       -0.07487825 -0.08944498 0.04685645 0.099865355
000320 e3 98 fa 3c b8 69 89 bd 52 13 21 be 1d b0 be bd
       0.03059048 -0.067096174 -0.15730026 -0.09310935
000330 cf 4f 16 bc d1 04 30 bc f0 60 3b bd 17 2f 8b 3d
       -0.009174301 -0.010743336 -0.045746744 0.06796091
000340 40 6e b5 bc a1 9a 51 3d 8e 6e b4 3b fb 02 a1 bd
       -0.022147298 0.051172856 0.005506343 -0.078618966
000350 a8 18 01 bd 4a 0b 32 bd 96 5c 35 be 70 7c 0c be
       -0.031517655 -0.043467797 -0.177111 -0.13719344
000360 94 1c e0 3b 28 e5 6c bb 61 b4 9a bd d4 b2 8d bd
       0.0068393443 -0.003614733 -0.07553936 -0.069188744
000370 2a 5d ac 3d 12 76 1d 3d 05 37 02 3d 59 03 4c 3e
       0.08416207 0.03844268 0.031790752 0.19923152
000380 20 40 05 3e c3 a1 37 bc e0 eb e5 3c 46 99 d4 3d
       0.13012743 -0.011208001 0.028066576 0.10380797
000390 ae 3a 12 be 22 b3 28 3e 1a 8d d1 3d 7b 45 ca bc
       -0.14280197 0.16474584 0.10231991 -0.024691334
0003a0 ce 4f 48 bd fc d1 c3 bd 55 69 c2 bc 2c dc 08 3e
       -0.048904233 -0.09561536 -0.023731867 0.13365239
0003b0 f8 68 a8 bd b3 2c 00 3e 8f fb 12 bb 38 c5 f1 3d
       -0.08223146 0.12517051 -0.0022427773 0.118051946
0003c0 65 b0 de bb d0 ef 2e bc 20 9a 16 3e f4 39 5b 3d
       -0.00679593 -0.010677293 0.14707232 0.053522065
0003d0 75 e2 1a 3e 93 24 4f be ae 48 9b bd 06 b3 33 bd
       0.15125449 -0.20228796 -0.07582222 -0.043871902
0003e0 87 81 42 3c aa a0 51 3d fb c0 2f bd b2 e8 0e 3e
       0.011871702 0.05117861 -0.04290865 0.13955954
0003f0 0d b2 ab bd fb a5 81 3d 89 53 00 3e 9e f1 20 bb
       -0.0838357 0.063304864 0.12531866 -0.0024558078

conv3.in1.weight f4 [64]
000000 27 f8 2d 3f 9a 7a 59 3f 12 37 85 3f 80 50 8b 3f
       0.67956775 0.849527 1.0407431 1.0883942
000010 39 39 31 3f 2e 27 01 3f e7 2a 5f 3f 20 76 2f 3f
       0.6922794 0.5045041 0.8717484 0.6853962
000020 29 1b 29 3f 72 bf 84 3f 67 f7 ce 3e 6e 4e 7e 3f
       0.6605707 1.0370924 0.40423128 0.99338424
000030 ba 58 81 3f ba 65 73 3f 6e f0 48 3f e7 44 c3 3e
       1.0105202 0.950771 0.78491867 0.38138506
000040 57 8b 2b 3f b2 46 57 3f 0a 2d a9 3e 8e 3c dd 3e
       0.6700949 0.8409225 0.33042175 0.43210262
000050 cf 45 82 3f 3c 31 82 3f 7c 40 3d 3f b5 97 58 3f
       1.0177554 1.0171275 0.7392652 0.84606487
000060 ec 8e 3a 3f 6b aa 0d 3f ea 50 21 3f 5b 48 bb 3e
       0.7287433 0.5533816 0.6301409 0.3657864
000070 d2 45 5d 3f 08 b3 51 3f ca a6 16 3f 98 9b b7 3e
       0.8643466 0.81913805 0.5884825 0.35860896
000080 87 2a 3e 3f f2 ff 29 3f 30 e1 44 3f ad 48 03 3f
       0.7428364 0.66406167 0.7690611 0.5128277
000090 4c f3 ec 3e 02 ed 73 3f 1e cb 4b 3f b6 17 11 3f
       0.4627937 0.9528352 0.7960681 0.56676805
0000a0 7d f4 36 3f 44 45 ca 3e a4 e8 28 3f eb 0e 55 3f
       0.7146681 0.3950597 0.6597998 0.8322589
0000b0 9d 6f 2d 3f 08 96 73 3f 2a 23 1f 3f 29 f7 55 3f
       0.67748433 0.95150805 0.6216303 0.8358026
0000c0 7c 1c 2e 3f 81 40 8a 3f 1b 9f 05 3f 96 dc 49 3f
       0.68012214 1.0800935 0.521959 0.7885221
0000d0 b6 ee 70 3e 81 6f b2 3e 06 a9 1e 3f c4 f8 6f 3f
       0.23528561 0.34850696 0.6197666 0.9373896
0000e0 5e 12 64 3e 57 19 02 3f 8d a0 3c 3f b1 a9 c2 3e
       0.22272632 0.50819916 0.7368248 0.3802009
0000f0 23 c1 9f 3e 1c c6 5c 3f 46 e9 33 3f 03 48 34 3f
       0.3120204 0.8623979 0.7027782 0.7042238

conv3.in1.bias f4 [64]
000000 a1 88 8a 3e 68 0f 5c 3e 61 6d c6 3d 48 39 f6 3d
       0.27057365 0.21490252 0.09688831 0.12022644
000010 66 1f cf 3e 38 c4 b9 3e 35 c6 fc 3d 34 21 91 3e
       0.40453643 0.36282516 0.123424925 0.28345644
000020 0c 07 9a 3e ea 0f 17 3d b8 c2 ee 3e 49 48 31 3e
       0.300835 0.03688041 0.46632934 0.17312731
000030 d8 fa 7a 3d 2e 94 f3 3d 96 00 1d 3f 0a b3 d2 3e
       0.06127438 0.118934974 0.6132902 0.4115222
000040 32 f9 c4 3e ae bc 1a 3e 0a 28 ef 3e b2 52 c4 3e
       0.3847137 0.15111038 0.46710235 0.38344342
000050 5a b8 87 3c 5c 1c 09 3e d2 9d 38 3e d6 aa 3b 3e
       0.016567398 0.13389724 0.18028954 0.18326887
000060 8f 9d 93 3e ea d6 ae 3e 51 fe 98 3e 48 23 d1 3e
       0.28831145 0.3414834 0.29881528 0.4084723
000070 04 67 18 3e e9 c8 b3 3e c9 2d c8 3e 1d 17 df 3e
       0.14883047 0.3511422 0.3909743 0.43572322
000080 01 9e 3f 3e ee 26 51 3e 81 9e 8c 3e 33 eb cb 3e
       0.18712617 0.20425007 0.2746468 0.3982788
000090 c8 8a ba 3e ec 50 84 3d 6a c2 50 3e 17 59 f0 3e
       0.36434007 0.06460747 0.20386663 0.4694297
0000a0 20 df 64 3e db f5 ed 3e b8 a0 e2 3e 50 03 a0 3e
       0.2235074 0.46476635 0.44263244 0.31252527
0000b0 d4 db bd 3e 29 66 f3 3d a8 d1 8b 3e 82 09 68 3e
       0.37081778 0.1188472 0.27308393 0.22659877
0000c0 79 f9 9c 3e e9 41 06 3d 5a 65 a0 3e 47 9b 61 3e
       0.30659083 0.0327777 0.31327325 0.2203189
0000d0 15 06 d8 3e 9c 41 c8 3e 3b a1 b1 3e 73 8e aa bd
       0.4219214 0.39112556 0.34693322 -0.08327951
0000e0 e1 9e ee 3e d1 7d e2 3e f4 98 85 3e 8a b4 be 3e
       0.4660559 0.44236615 0.26093256 0.37247115
0000f0 88 f5 e7 3e c2 b3 44 3e d2 9b ae 3e c6 bf 9e 3e
       0.45304513 0.19209197 0.34103256 0.31005687
