tmp/models/epoch3_batch2286.pth (torch, 987253 bytes, 85 tensors)

conv1.weight f4 [32, 3, 9, 9]
00000000: 7213 f33b 5e91 c5bb 5fb1 3d3c 37ff 763d
00000010: 4046 9f3c b291 e33c a4da 063d 761f e53b
00000020: 2f89 473c be8a 1a3d e151 a93c 256f 79bd
00000030: 50da 633d 7650 a43d 2d6e 08bc 5d17 b13d
00000040: 32c2 613c 7ce8 2cbd ff37 1a3d 4e5c 853d
00000050: b2c2 c73d db27 073e 504e 343d 45a0 5dbd
00000060: b89e 9fbc c5d8 643d a33f 613d 2552 28bb
00000070: eeac 063d 0d15 dabc fb58 21bd f7a1 a03d
00000080: c051 513d af5b eabd 8001 02bc 54f8 ed3b
00000090: 416c d03c 116e fc3c 1d8b 8fbd cdad 21be
000000a0: 3642 fc3d 6b8a 9a3e dc2f dcbc ccb5 eabc
000000b0: 4ba4 65bc 4e0e 423d ac50 683d c2a8 293d
000000c0: 4272 99be 9a90 82be 6b76 83bd 31b3 08be
000000d0: 8961 dc3c bbed 483d 4cb4 2a3d 8c7f 44bd
000000e0: e7a6 21bd 351e 38be 44a1 7fbe 5b6c 46be
000000f0: e2f1 f0bd 344a 8f3d 3ac3 bd3b ae5e d53d
00000100: d483 20bd 1f9c 1bbd b2f6 babd 5850 fdbd
00000110: fece f1bb cafe 0ebd 9b89 833c 0c90 c03d
00000120: ef75 823d c1ba 8bbc 2380 7bbd 8a5e bebd
00000130: 4928 81bd c893 7bbd 405d c03a 31ad 8b3d
00000140: f16f db3d 368f eebb 6131 edbc 9757 7d3c
00000150: 5892 7fbd 4198 093c d84d c13c 2f49 b9bc
00000160: 39e1 1c3d 4553 8c3d 611e b83d 7771 4b3b
00000170: 9bc9 d4bb 4be9 893c c5cc 89bd 2f77 293d
00000180: 5d1c 8d3d f842 653c 4956 2d3c 82a8 c9bc
00000190: 89b1 fa3c 80f0 173d 1bea 633d b474 bb3d
000001a0: 9138 82bd f068 a7bb c848 25bc 5bd6 1f3d
000001b0: 2abd cb3c c994 2e3a 9d4b 28bc b074 57bd
000001c0: b6e0 343e 1eb3 4d3e 2c81 18be b617 a83a
000001d0: 4f71 943d 1860 26bd 7474 51bd b70b 7ebd
000001e0: 6c64 16be 7e05 613e bcd9 ba3e ab32 df3b
000001f0: 551b cbbd 2a4a 5f3c 8611 1c3d 8a1d 9a3d
00000200: beb7 443c 69c4 71be a6ca 40be 2d5a 8b3d
00000210: 5c2a 43bd 312e eeba 28bf 7abc 6297 d83c
00000220: 4e71 fabc 0bcb 55bc 6954 05be 1ae5 68be
00000230: 52e4 87be 3f93 1abe 0efb debc 8797 093d
00000240: 0322 903d 9908 93bd d854 b0bc a2da 943d
00000250: 29ba 46bd d87b b43c 9fa1 373c 6990 c0bc
00000260: aeb6 94bc 589f 8ebc 394c 323d 50f0 52bc
00000270: ce43 93bd 605f 72bd 0172 93bd 3a45 1dbc
00000280: 589d 28bd 17cb 29bd 31a1 603d e00f 6b3d
00000290: f0e5 8cbd 1797 933b 423f a63c dad9 89bb
000002a0: 24e5 ba3d 1402 8e3c 5603 183c d63e e3bc
000002b0: f64b e5bc c0e0 2cbc 93d8 3e3d e122 533c
000002c0: 5362 4ebd 9ec9 2d3c 5f1f 1fbb 9176 b3ba
000002d0: bc12 1cbd d7ea 7dbc 02df 80bc 9c70 9a3b
000002e0: b7e4 223c 49e9 a0bc eac1 b5bd 7fbc 223d
000002f0: 709d 0e3d 1105 693d a079 9bbc 0b12 f8bc
00000300: 59e9 183c 9dc7 5b3b 0d26 d2bc 224c a1bd
00000310: 3a67 85bd 1936 53bc 93f2 59bd 9a4a d4bc
00000320: ec11 b7bb 3fef 0bbe bbda 0c3e 08f0 4b3e
00000330: 7555 f03c 6cd6 0bbb 1974 4ebd af4b ac3a
00000340: e142 0ebc 3638 613d c295 eabd a9c0 14be
00000350: 341b ff3c ae71 8fbd 59be 483d 590e 8d3d
00000360: d287 ca3b 8170 843c 55f5 d63d 7e36 41bd
00000370: 5ce1 dbbd 6546 dabd 8fea f63c e72b 483d
00000380: c850 6e3d a919 083d 7dcb 09bd 3750 923c
00000390: d37c 943d 8483 b53d cb16 16bd 5b40 f73d
000003a0: c30d 433c b1a2 76bd 6266 9eb9 f3f7 ec3b
000003b0: 8375 4cbd cecf 4abc 8326 3fbd e123 d5bc
000003c0: 6af4 0dbd dce9 8abb a60f 153c 3c81 003d
000003d0: 1397 a93d 51d2 df3d bf42 073e 7ab2 5e3d
000003e0: c6d1 3a3d fcbe 88bd 7af2 a9b9 7dd4 9fbc
000003f0: ea3a 883c c19f d63d f105 203d c7e5 903d
0.0074180895 -0.006029292 0.011577933 0.060301986 0.019442677 0.027779434 0.032923356 0.006992276
0.012178703 0.03772997 0.020668926 -0.06089701 0.05562812 0.08023159 -0.008327049 0.08647034
0.01377921 -0.042213902 0.03765106 0.06511746 0.09753932 0.13198797 0.044019997 -0.054107923
-0.019484863 0.05587079 0.05499233 -0.0025683728 0.032879762 -0.026621366 -0.0393915 0.07843392
0.051103354 -0.114432685 -0.007934928 0.007262269 0.025442244 0.030814203 -0.07008956 -0.15788956
0.12317316 0.3018373 -0.02687829 -0.02865114 -0.014016221 0.047376923 0.05671756 0.041420706
-0.29969984 -0.25500947 -0.06419071 -0.13349606 0.026901977 0.049054842 0.04167585 -0.0479732
-0.03946581 -0.17980273 -0.24963862 -0.19377272 -0.117648855 0.06996575 0.005791095 0.10418449
-0.03918822 -0.037990686 -0.09129085 -0.1236884 -0.0073794117 -0.034910955 0.016056826 0.09402475
0.0637015 -0.017056825 -0.061401498 -0.09295376 -0.06306512 -0.061420232 0.0014676228 0.06820143
0.107147105 -0.0072802557 -0.02895421 0.015462778 -0.062395424 0.008398117 0.02359669 -0.022617904
0.038300727 0.0685182 0.08990169 0.0031042972 -0.00649376 0.016834876 -0.0672851 0.041373428
0.068901755 0.013993017 0.010579654 -0.024616484 0.030602233 0.037094593 0.055643182 0.09153119
-0.063584454 -0.005108945 -0.010088153 0.039022785 0.024870474 0.0006659744 -0.010271934 -0.052601516
0.17663845 0.20087859 -0.14893025 0.0012824449 0.072481744 -0.040618986 -0.05113645 -0.06202289
-0.14686745 0.21974751 0.36494243 0.00681146 -0.099173225 0.013628522 0.03810265 0.075251654
0.012006698 -0.23610081 -0.18827304 0.06804309 -0.04764782 -0.0018171725 -0.015304364 0.026439372
-0.030571606 -0.0130488975 -0.13020481 -0.22743645 -0.26541382 -0.15095232 -0.027219322 0.033591773
0.07037737 -0.07179374 -0.021524832 0.072682634 -0.04851738 0.02203171 0.011207967 -0.02350636
-0.018153515 -0.017409965 0.043529723 -0.012874678 -0.07190667 -0.059172988 -0.07199479 -0.009599024
-0.04116568 -0.041453447 0.054841224 0.057388186 -0.068797946 0.0045040953 0.020293836 -0.004206878
0.09125736 0.017334975 0.009278139 -0.027739923 -0.027990323 -0.010551631 0.04659326 0.012886734
-0.050386738 0.010607151 -0.0024280173 -0.0013691952 -0.038103804 -0.015497885 -0.015731338 0.004713131
0.009942225 -0.019642489 -0.08874877 0.039730545 0.034818113 0.056889597 -0.018978894 -0.030282041
0.009332978 0.0033535727 -0.02565291 -0.07875849 -0.065138295 -0.012891316 -0.053209852 -0.025914479
-0.0055868533 -0.13665484 0.13755314 0.19915783 0.029337624 -0.0021337522 -0.050403688 0.0013145114
-0.008682937 0.054985248 -0.11454345 -0.14526619 0.031140901 -0.070041046 0.049009655 0.06887502
0.006180742 0.016166927 0.10496012 -0.04717111 -0.10736343 -0.10657958 0.030141143 0.048869994
0.058182508 0.033227596 -0.033641327 0.017860515 0.07250371 0.08862975 -0.03664283 0.12072822
0.0119051365 -0.06021375 -0.0003021239 0.0072317063 -0.049916755 -0.012378646 -0.046667587 -0.026018085
-0.03465692 -0.004239304 0.009097969 0.031373248 0.08280768 0.109287865 0.13209055 0.054369427
0.04561021 -0.066770524 -0.0003241485 -0.019510502 0.016629655 0.104796894 0.039068166 0.070750766

in1.weight f4 [32]
00000000: 8314 803f bc8f 843f a0b7 533f 695b a23f
00000010: 0d68 653f 3785 9c3f b420 7a3f c5d5 723f
00000020: c531 7e3f cbb8 723f e851 823f b7a8 4b3f
00000030: 6a73 5f3f d7b9 833f 31de 5f3f fb86 7b3f
00000040: edcc 703f 937b 713f e60d 743f 64ba 723f
00000050: a2f9 653f 78bc 613f 8413 6a3f e2e4 7e3f
00000060: 6a48 863f 29c1 6e3f df88 703f e0b9 7e3f
00000070: f100 673f 00a4 973f a4c8 443f ec31 793f
1.000626 1.0356364 0.82702065 1.2684146 0.89611894 1.2228154 0.9770615 0.94857436
0.9929469 0.9481322 1.0181246 0.79554313 0.8728548 1.0291089 0.8744841 0.9825284
0.9406269 0.94329184 0.9533371 0.9481566 0.89834034 0.88178205 0.9143603 0.99568
1.0490849 0.9326349 0.9395885 0.9950237 0.9023581 1.1846924 0.76868653 0.973418

in1.bias f4 [32]
00000000: 2215 fd3c 139c 9d3c f67a 1e3e c07d 37be
00000010: 5602 3d3e 7e01 8e3e 0845 c93d 4296 9f3b
00000020: 0aab 8a3c 4d43 2e3e 9f32 5c3d 0cd7 6e3e
00000030: d2f0 373f a683 8a3b 3f92 bebb c5f4 d53d
00000040: 9860 443e c167 0c3e 4f25 593e 219c 823d
00000050: 518b 59bd b2d1 dcbd 3c4d 7abd 1db1 1b3f
00000060: f9a0 0c3c f57a a6bd 0edc 9c3c 65c5 b23e
00000070: 5d7f 2bbe a226 bf3d 6e8c b2bd 24df 473c
0.030893866 0.019239461 0.15476593 -0.17919064 0.18457922 0.27735513 0.0982762 0.004870207
0.01692726 0.1701786 0.053759214 0.23324221 0.7185184 0.0042271195 -0.0058157737 0.10447077
0.19177473 0.13711454 0.21205638 0.063774355 -0.053111378 -0.10782184 -0.061108813 0.6081713
0.008583301 -0.08128921 0.019147899 0.34916225 -0.16747804 0.093335405 -0.08718191 0.012199197

conv2.conv1.weight f4 [32, 32, 1, 1]
00000000: d20f c33d 4e68 20bd 8fa4 95bd 028c 253e
00000010: b95e 3f3d fa54 36be e18d 49be 9afe 96bd
00000020: 5a08 cabd 926f 2abe 8ded 6d3d ed48 ae3d
00000030: 2c7f 383e 79bc 85bd 2765 1cbd 4196 84bd
00000040: 35e5 9eba 4703 13bd 7469 613d f252 38bd
00000050: 5d11 1b3e 983c 303e 64c5 8ebd a9b5 96be
00000060: 6fa7 1c3d 23e5 a5bd bf01 65bd 2b9a 32bd
00000070: 5d16 233d 74d6 7b3d 02be 873d e7a7 bc3d
00000080: d1f4 0fbe b8a2 82bd 45fc 16be 21b6 e93d
00000090: 32ef 1abe 6777 cabd ecfa 5abd a909 83bd
000000a0: 7440 2c3e 7aca 1bbd 3f32 0dbe 6bea 603d
000000b0: c298 4dbe 16cb 6f3e b978 523e 3458 283e
000000c0: 4df5 2fbd 6a2c 79ba cc5c 503d 9533 863d
000000d0: 49f0 903d aad7 673d 6b94 92bd 4e69 b6bc
000000e0: f110 42be 1cf4 f33d edca b2bd b1a6 d7bc
000000f0: 73d1 7b3d beca 98bc 2c9f 233d 3fd4 cabd
00000100: bbb9 95bd 8b16 18bd 54bb 833d c92c 37be
00000110: 40ad 613e 92fb 503e df6e 7b3d c2ea e2bc
00000120: 8571 8ebd 2202 94bd 8a72 d23d eca9 df3d
00000130: 1b6f a8bd d284 b0bd e701 bdbd 6f1b c9bd
00000140: 8ce4 2c3e c10e 1cbe 6e7b 99bc 4bef 453e
00000150: e133 ed3c ad77 393e 4eb8 903c 29ee 52be
00000160: 5b21 93bb 45e9 973d 8b8b b73d 1d21 083e
00000170: adbe e6bd 17dd d33d 1859 17be f50d f43c
00000180: ed5d 6cbd 4934 cfbb 612a 0bbe 7195 4ebe
00000190: 5c77 433d f77a 053e b707 b83d 2c2d da3d
000001a0: 25a5 05be b395 f3bc c533 f3bd 0621 083e
000001b0: 8867 dcbd 949c 363e c796 6d3e 09b8 443d
000001c0: 0fa9 b1bd 5a1d a83b c912 14be 1a6c 21bc
000001d0: 186e a13d 2634 86bd 38ef 37bd c886 a0be
000001e0: 71a6 a9bd d7d2 93bc 924e 98bd cef6 d63d
000001f0: 56d4 66bb e71c 303e f6ee 113d 8794 543e
00000200: 3e00 1ebb 8a0a bb3d 563f 243e 5cad 43be
00000210: 1eea 023d cbfe 8c3e 858b 103e b92e b23d
00000220: 742b 493e 9a15 153e d59b 10be 0db6 c13c
00000230: 332e 78bd 6974 febd f980 e8bb d122 01bd
00000240: 5a79 31be f3a8 db3d 424e 1dbe f744 48be
00000250: 3439 a3bc 5084 0fbe 595f 3e3e b487 2abe
00000260: 1c39 053e 43e1 f73d ad36 7b3d 65e0 243e
00000270: 82e6 1d3e 65ee 6e3d a07f c73d c99a 9f3b
00000280: e336 26be 7e77 94bd 9c00 f4bc 9dbc 68be
00000290: 3f67 38bd 7720 413e a8ad 9c3d ed91 3e3e
000002a0: 0cbb 28be 52e6 0fbe 6379 e03d 48dc b2bd
000002b0: d2fc 54be 3eaa b83d d853 27be 8b47 593d
000002c0: 69f1 193e a3e9 bbbd 238c d1bd 6b96 c73c
000002d0: 9bcb 953d 04de e23d 6cb0 27be 259a c23d
000002e0: 0005 20be f8e2 733d 428d 2f3e 1b8f 0dbd
000002f0: f15e c03d 03a1 543e ce95 0e3d 8be8 b83d
00000300: 7986 673e e539 09be 49de 893d e6df 823e
00000310: 78df 2c3e f751 5dbe 4a71 09bd 7c50 efbd
00000320: d104 1f3e e3e5 173d 9203 163d 760b 9e3d
00000330: 9b87 8b3e 1059 5abd f77f c63c cc01 96bd
00000340: ead3 c2bd b56b 4b3e c89e c13d f687 83bd
00000350: d9e1 863d ff5f 193d 4aa4 103e 5caf 2dbe
00000360: 2368 753c 7a8a 8c3d 1173 d2bd 01cf 963c
00000370: 8d46 b23d 74f0 a1bd a122 0b3d 47bc c638
00000380: e654 373d 6565 ecbc c659 bebd a964 5b3e
00000390: cc59 edbd aa1f 5dbd db5a b2bd 7e7c 613d
000003a0: 127c c4bd 5942 41bd afeb 2f3e bf9f eb3d
000003b0: d8f0 003e c9bd ae3c 3e87 043e 957c 41be
000003c0: ac36 f93d 97ea 9ebc 1428 1c3b 23b0 f03d
000003d0: c7d5 40bd bed2 823d 144e b4bd 04d7 a2be
000003e0: 49c1 b4bd 70f6 93bd 5f97 93bc aa80 45bc
000003f0: 3cdf a0bd 4f97 bfbd 43cc 12bd a6eb 99bd
0.09524502 -0.039161973 -0.07306778 0.1616669 0.046721194 -0.17805853 -0.19683029 -0.0737278
-0.09864874 -0.16644123 0.058087874 0.08510003 0.18017262 -0.06530089 -0.038182404 -0.06473971
-0.0012122752 -0.035891797 0.05503221 -0.045000978 0.15143342 0.17210615 -0.06971243 -0.2943547
0.038245615 -0.08100345 -0.05590987 -0.043604057 0.03981625 0.061483815 0.06628038 0.09211712
-0.14058234 -0.063786924 -0.1474467 0.114116915 -0.15130308 -0.098860554 -0.053461954 -0.06398327
0.16821462 -0.038034894 -0.13788699 0.05491106 -0.20077804 0.23417315 0.20553865 0.16439897
-0.042958546 -0.00095052144 0.050869748 0.06552807 0.07077081 0.056602158 -0.07157215 -0.02226701
-0.18951775 0.119117945 -0.08730111 -0.026324602 0.061479043 -0.018651363 0.03994672 -0.09903764
-0.07310816 -0.037130874 0.064322144 -0.17888178 0.22038746 0.20408466 0.06138503 -0.027699832
-0.06955246 -0.07226969 0.10275753 0.10921082 -0.08224317 -0.086190835 -0.092288785 -0.09819686
0.16884059 -0.15240003 -0.018735614 0.19329564 0.028955402 0.18112059 0.017666008 -0.20598663
-0.0044900603 0.074175395 0.089621626 0.13293882 -0.11266837 0.10344904 -0.1478008 0.029791811
-0.057706762 -0.0063233715 -0.13590385 -0.20174195 0.04772125 0.13035189 0.089858465 0.10653147
-0.13051279 -0.029734468 -0.11875109 0.13293847 -0.107619345 0.17833167 0.23202048 0.048027072
-0.086748235 0.005130452 -0.14460291 -0.009852434 0.07882327 -0.06552915 -0.04490587 -0.3135283
-0.08283699 -0.018044872 -0.07436861 0.10496293 -0.0035221777 0.17198525 0.03562828 0.20759784
-0.002410903 0.091328695 0.16039786 -0.191091 0.031961553 0.27538142 0.14115722 0.08700318
0.19645482 0.14559022 -0.14121945 0.023646379 -0.060590934 -0.12424547 -0.007095453 -0.031527344
-0.17331448 0.10725584 -0.15361884 -0.19557558 -0.019924738 -0.14015317 0.1859106 -0.16653329
0.13010067 0.12103512 0.06133144 0.16101225 0.15419963 0.05833282 0.097411394 0.0048707468
-0.16231875 -0.07249354 -0.029785447 -0.227282 -0.04502034 0.1886004 0.0765031 0.18610354
-0.16477603 -0.14052704 0.10960653 -0.087334216 -0.20799568 0.09016846 -0.16340578 0.053046744
0.15033497 -0.09175422 -0.10231807 0.024363717 0.07314225 0.11077502 -0.16375893 0.09502057
-0.15626907 0.059542626 0.1714373 -0.034560304 0.09393109 0.20764546 0.034810834 0.09028729
0.22609891 -0.13400991 0.06731851 0.25561446 0.16882122 -0.21613298 -0.033555306 -0.11685273
0.15529181 0.03708447 0.0366245 0.0771703 0.27251896 -0.053307593 0.02423094 -0.073245615
-0.09513076 0.19865306 0.09454113 -0.06422417 0.06586046 0.037445065 0.14125171 -0.16961426
0.014978441 0.0686235 -0.102758534 0.018409254 0.08704863 -0.07907191 0.03396857 9.476445e-05
0.0447587 -0.028856942 -0.09294467 0.21425118 -0.11589393 -0.053985275 -0.087087356 0.055050366
-0.09593977 -0.047182415 0.1717975 0.115050785 0.12591875 0.021330731 0.12942216 -0.1889518
0.12168631 -0.01939897 0.00238276 0.117523454 -0.047078874 0.06387852 -0.08803955 -0.3180467
-0.08825929 -0.072247386 -0.018016515 -0.012054602 -0.078550786 -0.09355032 -0.03583933 -0.075156495

conv2.in1.weight f4 [32]
00000000: f61d fb3e 0e86 803f 1de5 323e 402a b43e
00000010: e784 0f3f 59f2 423f 7459 b33d 0404 3d3f
00000020: 844d 2a3f 50a9 723f 20d0 ac3e 4d92 fc3e
00000030: 1717 883e 2735 773f ed0b 2c3f 1c1a 613f
00000040: 56cc 573f 3e0e 5c3f 21f2 353f afd9 1a3f
00000050: 5f0a 663f 642a 5b3f 5628 1a3f de36 3d3f
00000060: 6452 233f 1c24 b53e 49bf 693f bbf6 263f
00000070: 913d 083f 31f3 683f 5927 873d 4dac bc3e
0.49046296 1.004091 0.17470212 0.35188484 0.5606217 0.76151043 0.08757296 0.7383425
0.6652453 0.947896 0.33752537 0.4933037 0.26580116 0.9656548 0.672057 0.87930465
0.84296167 0.8595923 0.71072584 0.6048841 0.89859575 0.8561156 0.602178 0.73911846
0.63797593 0.35379112 0.91307503 0.6522023 0.5321894 0.9099608 0.06599302 0.36850205

conv2.in1.bias f4 [32]
00000000: f90a a13e 6555 ac3c 42df 183f 382e d73e
00000010: e0a2 ad3e 91f0 463e 3aeb 1e3f ad35 6e3e
00000020: e1ac a23e ec9b 0f3d 4ecd 253f 3cb2 d63e
00000030: 8825 083f ce5e 4a3d 3559 823e ee04 063e
00000040: d0c6 223e 2dbd 4cbb 27c2 7a3e 1f30 ae3e
00000050: 295b 2ebd 75a2 123e 60be 953e 10f9 733e
00000060: 5af3 7a3e 9542 0c3f e7c1 063e 39fa 753e
00000070: af85 b33e 2bd4 ed3d e3d4 183f 2287 e83e
0.31453684 0.021036813 0.59715664 0.4202745 0.33913326 0.19427706 0.6207768 0.23262663
0.3177252 0.035060808 0.64766395 0.41932857 0.5318227 0.04940682 0.25458685 0.13087818
0.15896153 -0.0031240687 0.24488126 0.34021088 -0.042567406 0.14319785 0.29246807 0.23825479
0.24506894 0.54789096 0.13159905 0.24021234 0.3506293 0.116127335 0.5969984 0.45415598

conv2.conv2.weight f4 [32, 1, 3, 3]
00000000: d5e5 753e 23a7 ebbd 1187 6c3e 46ff 9ebe
00000010: 2559 e4be c995 dfbc 08e3 42bd 173d 933c
00000020: 3e61 723e 525c bc3d 15d5 bcbe c0be 1c3b
00000030: 714c f6bd cca9 96be 66ed 99be 3dfc e33d
00000040: cb7b 20be ac70 83be 17ab 87be 53fc 8abd
00000050: 7ab8 4cbd 032c 1e3e b711 1a3f 820e 013e
00000060: 3cbb 093e 1e17 443e 9fc1 6abd da55 5e3c
00000070: 7d9d 913e 6242 c13d 7b51 23be 9873 0ebe
00000080: 830b b9be ad6e afbd e547 b5bc d417 423e
00000090: a95c 363e 648e c23e 984c 133e be06 803e
000000a0: e568 f0bb a7cf 83bc 2f47 c1bd 7721 94be
000000b0: 4e9b 25be c568 01bd 47da 89bd c57a 6ebd
000000c0: a472 7dbd 8ab1 fbbd bb6f 913e 75cf 743b
000000d0: e557 443e c90b b63e fbd6 af3d a3da 59be
000000e0: b3ba 1c3d aa92 57be 77bc edbd c5a0 fc3e
000000f0: 976e 743d 45a1 2c3d 1d85 d73e 7736 12be
00000100: 4865 93be b0c2 203e cffd 203d 993e f43e
00000110: e2f4 a23e e734 3fbd c6c1 b23e 83f8 28be
00000120: b169 87bd 8352 31be c8c7 363e 1598 d9bd
00000130: aa0d e6bd 0cca d23e 6273 febc e5f2 a43e
00000140: cd96 b33e fa6c 27be 901d 343d e2b9 603d
00000150: 81fc a43c bfc9 f83e 9442 913e f427 40be
00000160: 5a54 18be 99c6 e33c 7273 1dbe e930 933e
00000170: d210 21be ccf2 26be d0cf f23e 1f02 033e
00000180: 7800 d0bd 471c 823c f4dd 85bd 0412 6c3e
00000190: 5ff0 99bd 6e3c 86be 1c96 593e e2f1 9d3d
000001a0: 4f38 34be ca1c c23d 425c 793e e45e 1ebd
000001b0: 3d79 2c3e fdd3 1bbe 9c4a 51be d0dd bbbd
000001c0: 633c 39bd 4528 a13c 19e1 0ebe da41 0b3f
000001d0: 6277 9e3e ace0 e13d 6bd0 8c3e e5f1 09be
000001e0: 760f f23b cda6 0e3e 084e 453e ee83 96bd
000001f0: 6d24 2bbd ee86 1e3e b0bd 21bd 035a 82be
00000200: 2a38 053e 6267 8ebd 4db1 913e 7e17 9a3e
00000210: 248e 87be 5765 69bd 08e7 603e 50b1 883e
00000220: a4ea 203e 3986 ee3d 38c3 90be 8585 dabe
00000230: cd62 7dbe 222f 5a3e 1521 0ebe ef4f 723e
00000240: 11db 063e 6a24 5abe 06f0 763e 861a 373e
00000250: a0c9 0abe b024 903d 9ec0 1d3e 4ab2 df3e
00000260: 7138 7cbd 26c8 83bd 94f1 8c3e e9e9 cabe
00000270: 8d65 da3a 579b 803e e03f 703d c084 acbe
00000280: 0af7 3bbe ea0d 253d 5529 8d3d ff67 16bd
00000290: 4762 1bbd 0d54 f5bd da45 4d3e 0392 c63e
000002a0: 0d03 5bbe 4e7b d33e deea 323e 3b58 f63d
000002b0: 3d87 53be a16a 133e 454e 90be 8292 bf3b
000002c0: b85d 193f db8a ccbd e4d2 b03e 8edb a13d
000002d0: 3a1a 063e 0d68 adbe accb 0d3e 8004 973d
000002e0: 159a 783e c237 973e d307 273e 94e9 073d
000002f0: 2a0b c73e f6d3 793e e137 013f b71d ab3e
00000300: ae82 993d 8a2d 46bd 93d0 95be e583 63be
00000310: 02a5 48be 6bc0 c83d cea0 d0be eb02 94be
00000320: bb31 393d b1e8 34be 4231 aabe 9782 7c3e
00000330: bb37 cabe 4ba8 e5bd 7ecf 09be aa82 73bd
00000340: 4c55 7d3e 5ab0 ec3e cbbe 68be 018e ba3d
00000350: d405 8a3d 4879 f4bc 268e 7abe e899 d33c
00000360: 5609 2b3e a6e0 893d ff28 2ebe 9bc4 b43d
00000370: 252e 18be b930 92bd 4fa4 963e 2c9c cb3e
00000380: 1f5c aebd 2ec7 a6bd b99e b4be a4fc 0dbe
00000390: d37b 643c 1913 bf3e c217 173e 67ed 0e3e
000003a0: fc73 2c3e fdf6 293e d9c0 db3c bc05 a83e
000003b0: 42aa dd3d 3f47 8f3e bd50 f83e ef7c a73d
000003c0: b921 993b 44ff 4bbe 6ac9 2cbd 2442 0dbc
000003d0: 6833 763e a3f5 d33d 2f82 51be 6984 90be
000003e0: d1c4 a7be 9043 2e3e 9260 923e 9e5c b2bd
000003f0: 6a03 f43d fbca 75bd 85b5 c4bd 6365 0d3e
0.24013455 -0.11506488 0.23098399 -0.31054133 -0.44599262 -0.027293103 -0.047579795 0.017973466
0.23669907 0.09197296 -0.3688132 0.0023917407 -0.12026299 -0.2942642 -0.30063933 0.11132095
-0.15672223 -0.256719 -0.2649772 -0.06786408 -0.049980618 0.15446477 0.6018328 0.1260319
0.1345033 0.19149444 -0.057313558 0.013570273 0.28440467 0.0943649 -0.15949051 -0.13911283
-0.36141595 -0.085660316 -0.022129009 0.18954402 0.17808785 0.3799926 0.14384687 0.25005144
-0.007336723 -0.016090227 -0.09437405 -0.28931782 -0.16172525 -0.031594057 -0.06731086 -0.05822255
-0.061876908 -0.12289722 0.28405556 0.00373551 0.19174154 0.35555866 0.08585926 -0.2127481
0.038263988 -0.21052042 -0.116082124 0.49341407 0.05967578 0.042145986 0.42093745 -0.14278589
-0.2878821 0.15699267 0.03930455 0.47704008 0.31827456 -0.04668131 0.34913462 -0.1650105
-0.06611956 -0.17316632 0.17849648 -0.106247105 -0.11233075 0.41169775 -0.031060878 0.32216564
0.3507599 -0.16350165 0.043973505 0.05486477 0.020139934 0.4859142 0.28371108 -0.18765241
-0.14875928 0.02780466 -0.1537607 0.28748253 -0.15729073 -0.16303557 0.47424173 0.12793778
-0.101563394 0.015882624 -0.06536475 0.23053747 -0.0751655 -0.2621798 0.21248668 0.07712151
-0.17599605 0.09478147 0.243516 -0.038664714 0.16843124 -0.15217586 -0.20438617 -0.09173167
-0.045223605 0.019672522 -0.13953055 0.54397357 0.30950457 0.11029181 0.2750276 -0.13471182
0.007387097 0.13930817 0.19268048 -0.07349382 -0.041782785 0.15481159 -0.03948754 -0.25459298
0.13009706 -0.069533125 0.28455582 0.30096048 -0.26475632 -0.05698141 0.21963131 0.2669778
0.15714508 0.11646695 -0.2827394 -0.42679992 -0.24744721 0.21307042 -0.13879807 0.23663305
0.13169505 -0.21302953 0.24114999 0.17881212 -0.13553476 0.070382476 0.15405509 0.4369071
-0.061577264 -0.0643466 0.2752806 -0.39631584 0.0016662345 0.25118515 0.058654666 -0.3369503
-0.18355957 0.040296473 0.06892649 -0.036720272 -0.03793552 -0.11978922 0.20046178 0.38783273
-0.21387883 0.41305012 0.17472407 0.120285474 -0.20657058 0.14396144 -0.28184715 0.0058463225
0.5990863 -0.09987422 0.34535897 0.07903205 0.13095942 -0.33868447 0.13847226 0.07373905
0.24277528 0.29534727 0.16311578 0.03318174 0.38875705 0.24397263 0.5047589 0.33421108
0.07495628 -0.048383273 -0.29260692 -0.22218283 -0.19594195 0.09802326 -0.40747684 -0.28908476
0.045213442 -0.1766689 -0.33240706 0.24659191 -0.39495644 -0.1121374 -0.13458058 -0.059450783
0.2473957 0.46228296 -0.22729032 0.09109116 0.06739393 -0.029842988 -0.24468288 0.025830224
0.1670278 0.067323014 -0.17007826 0.08826562 -0.14861353 -0.07138199 0.29422233 0.39767587
-0.085136645 -0.08143459 -0.35277346 -0.13865906 0.013945538 0.37319258 0.14755157 0.1395775
0.1684112 0.16598125 0.026825355 0.32816875 0.1082349 0.27984044 0.48499098 0.08178126
0.0046732095 -0.19921595 -0.04218427 -0.008621726 0.24043047 0.10349586 -0.20459817 -0.2822602
-0.32767347 0.1701796 0.28589302 -0.087090716 0.11914714 -0.06000803 -0.096049346 0.13808207

conv2.in2.weight f4 [32]
00000000: f6c2 493f 7a78 633f 1309 503f 536f 3f3f
00000010: db2c 533f a714 4b3f ac8d 693f 0269 5c3f
00000020: f978 423f 0606 753f dc65 553f 17a7 543f
00000030: 81ff 653f eee4 653f 7d38 573f b979 543f
00000040: f1f7 723f 2e65 463f c5b7 523f c35a 643f
00000050: 73fd 713f 36c6 563f 8db0 663f 921c 5f3f
00000060: a5f7 543f 78c2 583f d973 633f 3bb2 553f
00000070: 9211 433f 00d3 383f c03d 703f a91f 503f
0.7881311 0.8885571 0.81263846 0.7477924 0.8249032 0.7932839 0.912318 0.8609773
0.7596584 0.95712316 0.8335855 0.8306746 0.89842993 0.89802444 0.8407057 0.82998234
0.9490958 0.7749814 0.8231166 0.8920099 0.9452736 0.83896196 0.90113145 0.8715297
0.83190376 0.84671736 0.88848644 0.83475083 0.76198685 0.7219696 0.93844223 0.8129831

conv2.in2.bias f4 [32]
00000000: 24dc a43e a3e5 f5bd aa1c 223f ec54 953e
00000010: 9b31 2c3f 43fc 7f3e 106b cd3e 022d 0a3f
00000020: 71db e63e 1775 173e 54e9 043f 9d7a 9d3e
00000030: b110 213f 57d9 a2bd 21ec d03d 8506 7fbc
00000040: 30c0 363e d4ec f4bd f1ad c73e bcf6 aa3e
00000050: 462d 0ebe 1ee9 bd3e 7e03 cb3c 9f88 463e
00000060: 2fa4 083f e68f 323f 0728 a73e feb8 353e
00000070: c481 193f 68f4 1fbe 918f 9b3d ae55 293f
0.32199204 -0.1200669 0.6332499 0.29166353 0.6726319 0.24998574 0.40120745 0.53974926
0.45089296 0.1479076 0.5191853 0.3075761 0.62916094 -0.079516105 0.10201288 -0.015565519
0.17846751 -0.11959234 0.38999894 0.33391368 -0.13884458 0.37091917 0.024781939 0.19388054
0.53375524 0.6975082 0.32647726 0.1774635 0.5996363 -0.15620577 0.075957425 0.6614636

conv2.conv3.weight f4 [64, 32, 1, 1]
00000000: 51b4 533e 4cb2 bf3d 30d2 e6bd 90d3 cfbb
00000010: 88e9 10be aaa0 97be 894d 2d3e 83c2 493d
00000020: a3d5 63bd 9e02 2f3e f288 34be df4c 0bbe
00000030: ac10 663e 2f31 a4bd eb00 48bb 64c5 9bbd
00000040: 1d78 f63c da57 5abc 1d98 3dbe 0566 51bc
00000050: 7ab5 f43d 26cb 2dbe ada5 1dbe e918 3bbc
00000060: 7113 2c3e bf8c 373c 8525 e03b 71ab 0cbd
00000070: cee0 2dbd b821 6fbc 2ecc 2c3e ac2e 273e
00000080: fc55 ccbd 10f4 2abd 0b81 bf3d 1270 b9bd
00000090: fbe0 8c3d 19eb 033d 5d0e e9bd 38fe 76bc
000000a0: db38 a3bd fca9 bc3d b0eb 483e 4237 1b3e
000000b0: cd73 07be 247a 253d 6f5b 33bd c6a3 98bc
000000c0: 2731 073e 2522 4d3d 7372 26be 01e9 2c3d
000000d0: d4e5 e03d 1cbb 85bc 111b 483e e7b5 c1bd
000000e0: 9002 c23d 8cbc c1be 093f 283d ab3f 243e
000000f0: 8678 933c e50c 303e 5f99 9b3c b214 4b3e
00000100: 235b 453d cdf7 33bd f956 84be 3cbb 6cbd
00000110: 6aad 733d 1fe9 2a3d e11e 6f3e 0019 56bd
00000120: 25bb 6abd b290 68bd 840e 04be 1bfc 38bd
00000130: a4ea 1bbe e2a6 153d 77df a9bd 5e51 d73c
00000140: bbd1 e53b 558b 19be e9d9 93bd 135c 65bd
00000150: 017b 1ebe fcad 1abe 3620 88bc 42cc b63d
00000160: 1661 27be 0297 4e3e ea74 68be b4ae e8bc
00000170: b3d9 09bd 3c30 ec3d 4bdd b5bc 92d9 d3bd
00000180: b693 f13b da83 82bd a0f1 14be 8ec1 203d
00000190: ce43 623b 4ba5 593e 03eb 193b f72e 32bd
000001a0: 6c8f 6e3e f9d0 023e f437 263e 894a 113e
000001b0: aa0c 93bd 889c 5ebd ee65 143c 203f dbbb
000001c0: ea40 be3d 74c5 2cbe 889c 00be 9f2d 663e
000001d0: d79d 36bd 3319 bd3d 4c1c aeb9 d388 153e
000001e0: 9452 04be 8e5e 323e 8039 fe3c 47f9 c2bd
000001f0: d21f 8e3e 5e15 bebc 1f4e 2dbe 7923 2abd
00000200: 4fe5 e83b 9b73 303e 22df 06be 4d6f 313e
00000210: 27d3 693e 9e91 e2bb 0213 b7bd 7275 1e3e
00000220: 171d c7bc 9934 d2bc 74a7 a5bc 8997 3b3e
00000230: 86eb 98bd ee40 a6bc 2785 163e 9160 52bd
00000240: e662 a13d dbbc 1d3d 8390 77be b90e 0f3c
00000250: 3c80 a6bc 02a8 363d eeab bfbd 98cd 263e
00000260: f451 3b3d 7943 093e 1b4c 9bbd 03f8 983d
00000270: 2cd7 d4bd 6c6f 10be c26a f3bc b740 46be
00000280: 9f91 0d3d 413e a63c 8527 1c3e 87cb 8f3c
00000290: 9d06 13be bdbe db3b 0b53 1b3d 7ddb 0a3d
000002a0: 73d2 7ebe 3c1b 46bd 35df db3a 01a6 80bd
000002b0: e7aa 813d 63c9 813d 3549 ee3d 010d 843d
000002c0: 9214 cfbd 6a96 053c fc38 fbbc c482 07be
000002d0: 6d78 9f3d 4c09 3f3e 4ede 62bd d1ae 1bbc
000002e0: ef01 d1bd 87aa 853d 075c 573d 7f75 cdbc
000002f0: f242 f13d c324 d9bd 8225 b0be 0980 c4bb
00000300: 2a79 05be 0070 b43d bd2d 82be 9ba6 9d3d
00000310: 0007 2cbe 92a5 fb3d 205f c1bd f2ce 34be
00000320: 377c b73d fb9e 383d 3121 bc3c b1b4 813d
00000330: e2b9 983d c571 87bd 9995 a3bc ae45 8c3b
00000340: b809 16be bb2a 24bd 066b 523d cc46 823c
00000350: b17e 403c f045 0abe 3b8e 8ebd cf1b f5bd
00000360: dda9 1dbe 1452 01be 939d 033e 9d0d e1bd
00000370: 36e2 3f3e 4506 7cbd b457 653e 5741 7b3e
00000380: 085e 43bd 0626 40be d0ec 3dbe 1bfb 893b
00000390: 21cd 7abe f6c2 893d 03d7 27be 9475 fbbd
000003a0: f4e1 453e 1e24 523b 7d71 133e 5aaf 3cbd
000003b0: 467f 303e ccb0 233e cd8e 8bbd af35 de3b
000003c0: 400d c3bb 21a3 003e f247 72bd 1108 133e
000003d0: 38f4 ce3c 07ac 60bd 32ef 81be 8ee8 80bd
000003e0: 0893 02be 6d23 2ebe 739a 273e e9c5 c63d
000003f0: 8b63 fd3d df9b 46bc 418c 0bbe ec80 19bd
0.20674254 0.09360179 -0.11270559 -0.006342359 -0.14151585 -0.29614764 0.16924109 0.049257766
-0.05562366 0.17090842 -0.17630365 -0.13603543 0.22467297 -0.080171935 -0.0030518125 -0.07606009
0.030086571 -0.0133266095 -0.18515058 -0.012780671 0.119486764 -0.16972026 -0.15395232 -0.011419513
0.16804291 0.01120299 0.00684041 -0.034343187 -0.04245072 -0.0145954415 0.16874763 0.16326398
-0.09977338 -0.041736662 0.09350785 -0.09054579 0.06878849 0.03220663 -0.11379693 -0.015075259
-0.07969829 0.092121094 0.19621158 0.15157798 -0.13227768 0.040399686 -0.04378837 -0.01863278
0.13202344 0.05008139 -0.16254596 0.042214397 0.10981336 -0.016324572 0.19541575 -0.09458523
0.09473145 -0.37839162 0.04107574 0.16039912 0.018001806 0.17192419 0.018994031 0.19832113
0.048182618 -0.043937493 -0.25847605 -0.057795748 0.059491552 0.041726228 0.23351623 -0.052269936
-0.05730738 -0.056778617 -0.12896162 -0.0451623 -0.15226227 0.036536105 -0.08294576 0.026283916
0.007013527 -0.14994557 -0.072192974 -0.055996012 -0.1547661 -0.15105432 -0.016616922 0.08925678
-0.16345629 0.20174792 -0.22700849 -0.028403617 -0.03365488 0.115326375 -0.022200247 -0.103442326
0.007372345 -0.06372805 -0.14545298 0.039247088 0.0034525278 0.2125446 0.0023486025 -0.04350182
0.23296899 0.12775029 0.16232282 0.14188589 -0.0718015 -0.0543485 0.009057505 -0.0066908747
0.09289725 -0.16872197 -0.12559712 0.2247834 -0.04458412 0.09233322 -0.0003320895 0.14602976
-0.12922126 0.17418882 0.031033278 -0.09520202 0.27758652 -0.023203548 -0.16924332 -0.041537736
0.007107414 0.172316 -0.13171056 0.17327614 0.22834454 -0.0069143316 -0.08939172 0.1547449
-0.024305863 -0.025659846 -0.02022145 0.18319525 -0.074667975 -0.020294633 0.14699231 -0.051361624
0.078801915 0.038510185 -0.2417622 0.0087315375 -0.020324819 0.04459382 -0.09358965 0.16289365
0.045732453 0.13404645 -0.07582875 0.074691795 -0.10392603 -0.14105004 -0.029713992 -0.19360624
0.034562703 0.020293357 0.1524945 0.017553104 -0.14357992 0.0067060874 0.037920993 0.033900727
-0.24884968 -0.048365816 0.0016774895 -0.06281663 0.06331425 0.063372396 0.11635057 0.06447793
-0.10111345 0.008153537 -0.03066682 -0.13233477 0.07786641 0.1865589 -0.055387788 -0.009502129
-0.10205447 0.06526666 0.052578 -0.02508044 0.11780347 -0.10602715 -0.34403616 -0.0059967083
-0.13034502 0.08810425 -0.2542552 0.07697793 -0.16799545 0.122874394 -0.09441972 -0.17657068
0.08959239 0.04507349 0.022965046 0.06333292 0.07457329 -0.06613497 -0.019968795 0.0042807674
-0.14652145 -0.040079813 0.051371597 0.0159029 0.011748956 -0.13503242 -0.06960722 -0.11968195
-0.15396829 -0.12628967 0.12853079 -0.10988925 0.18738636 -0.061529417 0.22396737 0.24536644
-0.047697097 -0.18764505 -0.18547368 0.0042108423 -0.24492313 0.06726639 -0.16390614 -0.122782856
0.19324476 0.0032064985 0.14398761 -0.046065666 0.17236051 0.15985411 -0.068143465 0.006781302
-0.0059525073 0.12562229 -0.059150644 0.14358546 0.025262937 -0.054851558 -0.25377804 -0.06294356
-0.127514 -0.17005701 0.16367511 0.09705717 0.12372502 -0.0121221235 -0.13627721 -0.037476465

conv2.in3.weight f4 [64]
00000000: 8d1e 813f b4d6 873f 43a1 783f bbac 843f
00000010: 0093 7c3f dd7a 813f 148d 843f 8dd0 823f
00000020: 666b 803f 0d73 6d3f f490 8b3f b012 823f
00000030: f768 933f 1a8b 803f e7ef 843f 6283 6e3f
00000040: ebd3 803f dcc8 6c3f 7c94 7a3f eb0a 813f
00000050: bcbf 823f a943 723f be69 7c3f 325f 7e3f
00000060: d783 973f 50b6 753f a8d0 5d3f 1770 803f
00000070: fbae 753f 28cf 6b3f 1f32 613f 3751 7d3f
00000080: 7d2d 7f3f 38b3 833f 8b9d 6b3f baaf 853f
00000090: 604e 883f 31ee 723f 37a9 723f 30ed 793f
000000a0: 0061 5f3f d562 783f fe85 683f 0820 7b3f
000000b0: d1c3 823f 8b6a 823f 7c8c 7d3f 4268 933f
000000c0: 006f 7f3f ad82 853f e7a1 7b3f 932f 7a3f
000000d0: 464c 843f 115b 813f 5aaf 8c3f d9f0 5e3f
000000e0: 575f 893f 689a 853f bffb 8f3f 5468 783f
000000f0: 00db 803f 0eb8 743f 2341 7d3f 4cc1 883f
1.0087448 1.0612397 0.97121066 1.0365213 0.98661804 1.011562 1.0355554 1.0219895
1.0032775 0.9275368 1.0903611 1.0161953 1.1516408 1.004245 1.0385712 0.93169224
1.0064672 0.9249399 0.9788282 1.0081457 1.0214763 0.9463449 0.9859885 0.99364007
1.1837109 0.9598131 0.8664651 1.0034207 0.95970124 0.9211297 0.87967104 0.9895205
0.99678785 1.0289068 0.92037266 1.0444252 1.0648918 0.948947 0.9478945 0.97627544
0.87257385 0.97025806 0.90829456 0.9809575 1.0216008 1.0188764 0.9904249 1.1516192
0.9977875 1.0430504 0.9829392 0.9772884 1.0335777 1.0105916 1.0991013 0.87086254
1.073222 1.0437746 1.1248702 0.9703419 1.0066833 0.95593345 0.98927516 1.068399

conv2.in3.bias f4 [64]
00000000: 0eee e4bd 766b 803d d961 203b 34a4 e0bd
00000010: 9d02 003e 985e 13bd 7f9d d3bc 32cc edbc
00000020: b65e bf3c 20d9 debd ad92 783c 7848 7cbc
00000030: 542a 2dbd 5a29 fb3c 6ea5 183d 9972 293e
00000040: 35e6 3c3d 3caa 8c3c cf82 dd3b 8b97 a73d
00000050: aef2 8fbd ac4e 9c3d cbe5 b8bc 74f1 703d
00000060: 306e c93d 9511 80bd 172c d6bd ba0a 0fbc
00000070: a31b dcbb 0bcb 033d 4bbf babd f555 04bd
00000080: 1bd6 b03d f342 e03d bfeb 413d 3518 113d
00000090: b404 3b3e a5aa cdbd 497d fabd 54c9 d4bd
000000a0: c18e ed3c 416b 92bc bddf 9a3d 3a4c c23d
000000b0: 7e89 ddbc 5651 69bd bc0a 35bd 92a2 003d
000000c0: 886b 893d dc4e 113d dccf 4c3c c3c2 1a3e
000000d0: db11 4cbd abbf 87bd 2225 96bd f18e 51bd
000000e0: 916c 00be 2501 11bd 6a47 ba3d 7952 3d3b
000000f0: 1b33 0f3a 6854 74bc bf2d e9bc 72cf 153e
-0.11178218 0.062704965 0.0024472384 -0.10968819 0.12500997 -0.035978884 -0.025831936 -0.029028032
0.023360591 -0.10881257 0.015171689 -0.015398137 -0.042276695 0.030659366 0.03726714 0.16547622
0.04611798 0.017171018 0.0067599784 0.081832014 -0.07028709 0.07632193 -0.022570511 0.058824018
0.0983547 -0.062533535 -0.10457628 -0.008730585 -0.0067171617 0.03217606 -0.091185175 -0.032308538
0.086345874 0.109502696 0.047343966 0.035423476 0.18263513 -0.100423135 -0.122309275 -0.10389963
0.028998734 -0.017873408 0.07562206 0.09487195 -0.0270431 -0.056962334 -0.04419969 0.03140504
0.06709963 0.035475597 0.012500729 0.15113358 -0.049821716 -0.06628355 -0.07331301 -0.05116171
-0.12541415 -0.035401482 0.090956524 0.002888827 0.00054626324 -0.014912702 -0.028464196 0.14629915

conv3.conv1.weight f4 [64, 64, 1, 1]
00000000: 101b 2abd 3007 3bbd f26c ce3c 88d6 db3d
00000010: 6c5e ddbc 2144 2f3c f8fa ee3d 7b4a 4d3d
00000020: 0b4f 66be eac7 69bd fcf2 57bd 6ade 993d
00000030: 097c b0bd ef98 803c dee8 c63d d60a f2bd
00000040: 10f7 943d 9782 f83b 4af2 35bd 6d9d 6abd
00000050: 04f2 d9bc 8a05 1abe 316f 07bb 8144 2ebe
00000060: 41c9 86bd 7cc9 1bbc 553c 8cbd 9584 333e
00000070: 7d4f 143c a2a1 6e3d 6acf 9abd 49b8 e5bd
00000080: a29b 14be 97d3 adbd 85aa fdbd 1f6e a2bd
00000090: 15da ea3d f4a6 b33d b4f0 b2bd f7e5 02bc
000000a0: b78f 1f3c e2f5 7c3d db56 033d e8c4 4b3d
000000b0: e520 68bc 9d6a 843d 8bc0 1dbd 5eaf c13d
000000c0: 16ef 383c 9562 0abe 2ba2 1cbe 169c 88bd
000000d0: d0bd 723e b29f b43d efbc 37bd 888d 9e3d
000000e0: cb7d f43d a97c ccbd 59a4 43bd 1dde 09be
000000f0: 55ee 9d3e 692c 54bd 9459 423e 3ef5 2a3b
00000100: f3ad 72bd 49bc bfbb f741 b1bd a494 0fbe
00000110: de8c 0ebd 8d29 603d c7a5 debd b2a0 e0bd
00000120: 1c4f f23d 5b9f 4a3d 7dbb 99bd 5ed8 f73d
00000130: c85d 013e f4ab 293e 34df febc 44ca b5bd
00000140: 2735 5ebe 7ec1 24bd fef6 26bd b1b7 503d
00000150: 5c30 babd 287d 7c3d 8ce5 173e 2855 b93d
00000160: bbf4 c4bd cba4 83bd 1b93 f8bb a005 19bd
00000170: 2142 dfbc 0447 55bd 6744 7f3d 2442 613d
00000180: e37e 6fbd b0f7 05bc 3095 103e baf1 d4bd
00000190: efaf ab3d 6095 04be ecd6 c4bd 2daa ee3a
000001a0: 5e4d abbc 7113 abbc 5fe1 563d fc91 01be
000001b0: e626 b7bd a976 1c3d a1ca 53bd 3109 a0bb
000001c0: cbbb 653d 98ab c1bb a11a 40be 2552 013d
000001d0: ecbf 55be e240 d13d 0adf 723e 3b5d 16be
000001e0: d297 87bd a4f8 223d 9bca e8bc 17b7 d3bd
000001f0: 195a 26be 972f 7bbc e53a 6fbe c56b 5fbd
00000200: 31a3 7bbc e946 50be c8bf 433d 7fcc 4c3e
00000210: 066c 08bd 12df 893d 9c1f f13d 6476 753d
00000220: a91e 1d3d 914d 5cbd 25e1 413e 2d88 c93c
00000230: 9ed1 2e3e c10d fcbd ad83 df3d f716 b13c
00000240: 54e7 813d b5e4 81bd e398 353d 4b85 43be
00000250: 0309 afbd fba7 623c d8ee 2dbe 568e 53be
00000260: 2faf af3d 2c99 3ebd 21bc c0bd 0954 efbd
00000270: 24a8 6e3d bb46 933c a6d0 89bd ad48 73be
00000280: 50ca 203e d635 03be 7d8f 2cbe d72d 2dbd
00000290: 99e2 803d 3250 dc3d e1e4 093c 266e 4dbd
000002a0: 36f1 66bd f7ec 0e3c cd9f a7bd e365 b83c
000002b0: cc6d e03d 6d58 aa3c caf3 4ebc bc96 16bd
000002c0: d63d afbd fe93 babb eeca c23b 1b21 8b3d
000002d0: c6e8 b13d 15f9 c4bc 33d2 6bbd 2eba 38bd
000002e0: 3d57 e43c 3e7a 0abe 2cd9 01be 2129 bbbc
000002f0: f18b 193e 4f29 30bd 5e4c 88bc 3af0 b7bd
00000300: 9fe3 b4bd b898 603c fc3a a1bd 6c61 a83c
00000310: b4d4 aabd 99df d2bd 149d 7b3d cf61 a93d
00000320: 7970 e1bc 986a e7bd 2f7f 34be 8df4 82bd
00000330: e16f 3fbd 4364 ebbc 3ced d6bd 0d5f 8a3d
00000340: a2df 7ebd 3555 d63c 0a49 833c 89ff c4bd
00000350: 861c 3abc f97f 92ba 3293 5fbe 704d f4bd
00000360: 28a9 d2bc e771 1d3a 1d72 33bd ad04 f3bd
00000370: 8f1a ba3d 4c07 833c 2cd9 833d 68ae 6f3e
00000380: 18c8 ce3d 8dea acbc 3ecc 923d 27c5 af3d
00000390: 873d 1fbe 7a0f 343e 5a6f c33d 0d15 7dbc
000003a0: fafc 87bd d625 95bd fa3e 3ebd f95d 0b3e
000003b0: 26f4 b2bd b0c1 053e 4010 26bd f9de 253e
000003c0: edbb f4ba 9255 1fbc 1710 1f3e 0283 973d
000003d0: 9373 4e3e 07d2 6fbe cea2 24bd fec8 8dbd
000003e0: f21e 823b 89a7 9b3c 4a44 56bd 7721 293e
000003f0: 6aea 98bd 640f 993c 6d33 083e 1e14 8ebb
-0.041529715 -0.04566115 0.025198434 0.10734278 -0.027022563 0.010697396 0.11668962 0.05011986
-0.2249109 -0.05707542 -0.052721962 0.07513125 -0.08617408 0.015697924 0.09712385 -0.11818473
0.07273686 0.007583927 -0.044420518 -0.05727904 -0.02660466 -0.15041175 -0.002066564 -0.1701832
-0.06581355 -0.009508487 -0.06847445 0.17531045 0.009052155 0.058259614 -0.07559092 -0.1121679
-0.14512494 -0.08487623 -0.1238604 -0.0793116 0.11467377 0.08772078 -0.08737317 -0.007989398
0.009738854 0.06175793 0.032065254 0.04974833 -0.014167999 0.06465647 -0.0385137 0.09457277
0.011287471 -0.13514169 -0.15296237 -0.06670396 0.2370522 0.08819522 -0.044857915 0.07741839
0.119380556 -0.099847145 -0.047764156 -0.13463636 0.30845895 -0.051800165 0.18979484 0.0026086117
-0.059247922 -0.0058513028 -0.0865516 -0.14021546 -0.03480231 0.054727126 -0.10871463 -0.1096815
0.11831495 0.04946838 -0.07506464 0.12101816 0.12633431 0.16569501 -0.03111229 -0.0887647
-0.21699964 -0.04022359 -0.040762894 0.05095643 -0.09091255 0.061642796 0.14833659 0.090494454
-0.09616991 -0.06427916 -0.0075858957 -0.03735888 -0.027253212 -0.05206968 0.062321093 0.054994717
-0.058470618 -0.008176729 0.1411941 -0.10397668 0.08383166 -0.12947607 -0.096113056 0.0018208675
-0.020910915 -0.020883294 0.052461024 -0.12653345 -0.08942966 0.0381991 -0.051706914 -0.004883908
0.056087296 -0.005910348 -0.18760158 0.03157248 -0.20873994 0.102174535 0.23717895 -0.14684002
-0.06620754 0.039787903 -0.028416922 -0.10337656 -0.16245307 -0.0153311705 -0.2336231 -0.054546136
-0.015358732 -0.2033955 0.04779032 0.19999884 -0.033306144 0.067320004 0.11773607 0.05992736
0.038359318 -0.05378491 0.18933542 0.024601066 0.1707215 -0.12307311 0.10913787 0.021617396
0.063429505 -0.063424505 0.044335257 -0.19093816 -0.08546641 0.013833995 -0.16985643 -0.20659766
0.085783355 -0.046532795 -0.09410883 -0.1168595 0.05826582 0.017978063 -0.0672925 -0.23758192
0.15702176 -0.12813506 -0.16851611 -0.042280044 0.0629322 0.107574835 0.008416385 -0.050153874
-0.05638238 0.008723489 -0.081847765 0.02250952 0.10958442 0.020794118 -0.012631366 -0.036764845
-0.08556716 -0.0056939116 0.0059446013 0.06793424 0.08686976 -0.024044553 -0.05757351 -0.04509943
0.02787363 -0.13523194 -0.12680501 -0.02284676 0.1499479 -0.043008145 -0.016637977 -0.089813665
-0.08832478 0.013708286 -0.078725785 0.020554267 -0.08341351 -0.10296554 0.0614291 0.08270609
-0.027519451 -0.11299628 -0.17626642 -0.063943006 -0.046737555 -0.028734332 -0.104944676 0.06756411
-0.06222499 0.026163677 0.016026039 -0.09619052 -0.01135934 -0.0011177055 -0.21833494 -0.119288325
-0.025715426 0.00060060475 -0.04381 -0.11866126 0.09087097 0.01599469 0.064379066 0.23406374
0.100967586 -0.021107936 0.07167862 0.08582526 -0.15550815 0.17584029 0.09542723 -0.015446913
-0.06640048 -0.07282607 -0.046446778 0.13610066 -0.08737974 0.13062167 -0.04054284 0.16198339
-0.0018671729 -0.009724991 0.15533482 0.07398035 0.20161276 -0.23419963 -0.040194325 -0.06923102
0.003970974 0.019000785 -0.05231122 0.16516672 -0.07466586 0.018684097 0.13300867 -0.0043358942

conv3.in1.weight f4 [64]
00000000: 5d29 323f a2e6 243f 1fb7 803f d870 8e3f
00000010: f3d2 e83e a828 043f 351f 473f 9f1d 313f
00000020: 7b9b 033f c366 793f 8c55 ac3e 83b6 533f
00000030: ee90 7c3f a248 7a3f 3e34 0f3f 7206 953e
00000040: 30a7 e53e 35d9 313f d2b1 793e c896 cf3e
00000050: 9047 843f 881a 803f 9d06 363f 582b 1c3f
00000060: f4f3 ae3e 6df3 f23e 82c0 083f cf0e ab3e
00000070: 187e 5a3f 37e0 253f b59a 043f 33ad 7a3e
00000080: 44e9 0a3f 7e71 c23e e513 383f 240c 0a3f
00000090: 97c1 8f3e 020e 543f fda9 193f 0110 093f
000000a0: f8f7 273f 1054 bf3e 96db f63e 3634 2e3f
000000b0: 1a34 013f d68c 6a3f d530 063f 1632 343f
000000c0: 09b4 ff3e d65f 813f 6091 ef3e 3938 2f3f
000000d0: fced 2c3e 5e3b 863e 833a 063f 0b94 733f
000000e0: d8e0 d23d 6799 fe3e ca11 1c3f 1132 473e
000000f0: 3340 5e3e c51f 083f 4b14 2c3f 07e1 003f
0.69594365 0.6441442 1.0055884 1.1128187 0.4547344 0.51624537 0.77781993 0.69185823
0.5140912 0.97422427 0.33659017 0.82700366 0.98658645 0.9776708 0.5593909 0.2910648
0.44854116 0.69472057 0.2438424 0.40544724 1.0334339 1.0008097 0.7110384 0.6100364
0.34170496 0.47451344 0.53418744 0.33409736 0.85348654 0.6479525 0.51798564 0.24480133
0.54262185 0.37977213 0.71905357 0.53924775 0.28077385 0.82833874 0.60025007 0.53540045
0.65612745 0.37368822 0.48214406 0.6804842 0.50470126 0.9162115 0.5241826 0.70388925
0.49942043 1.0107372 0.467906 0.68445164 0.16887659 0.2621717 0.5243303 0.9514777
0.10296792 0.49726412 0.60964644 0.19452693 0.21704178 0.53173476 0.67218465 0.50343364

conv3.in1.bias f4 [64]
00000000: 1d47 843e 26b2 c03e 10d5 92bc c340 a63d
00000010: cbef 133f 4baf b63e c0ac 503e 0cb3 8b3e
00000020: 06c6 dc3e 841f 9c3d 3941 073f 740b 9e3e
00000030: 3e43 913d 1498 b03d 2644 4a3f d60f fa3e
00000040: 0c2c 0e3f 9f2c 753e 50bb 093f 502f d33e
00000050: e1a9 aabc 4325 1e3e 3b41 593e c3d8 bd3e
00000060: 984a 0c3f 3ebc d03e ffe4 c63e 7a6d e03e
00000070: cc4e 203e 5cfd ef3e 66b4 e83e b133 083f
00000080: fadc a23e 9d3c b73e f0e8 a53e 8797 bc3e
00000090: 645d f63e 86b2 e33d a514 ad3e b50c 013f
000000a0: 4bc8 903e 1db5 fa3e 0825 123f 7300 d63e
000000b0: 3a71 043f ff34 203e 50f3 b43e ce3c a63e
000000c0: bd85 ea3e 62d8 1e3e e547 ba3e 8c31 a13e
000000d0: f6fc f73e 499c ee3e 6bc3 dc3e c693 52bd
000000e0: 7077 083f 18a1 e83e 051a bc3e dd22 023f
000000f0: 41d6 073f 7729 da3e a917 af3e 2e68 ef3e
0.25835505 0.37635916 -0.017923862 0.08117821 0.5778777 0.35680613 0.20378399 0.2728504
0.4311983 0.07623199 0.52833897 0.30868113 0.070929036 0.086227566 0.79010236 0.48840207
0.5553596 0.23942803 0.5380144 0.41247034 -0.020832958 0.15443902 0.2121629 0.3707944
0.5480132 0.40768617 0.38846585 0.43833524 0.15655059 0.46872985 0.45450133 0.53203875
0.31809217 0.35788432 0.3240428 0.36834356 0.48118126 0.11118035 0.33804813 0.50410014
0.2827781 0.48966303 0.57087755 0.41797218 0.5173527 0.15645216 0.35341883 0.32468265
0.4580516 0.15512231 0.36382976 0.31483114 0.4843518 0.4660361 0.43117842 -0.05141046
0.5330725 0.45435405 0.367386 0.5083445 0.530613 0.4260976 0.3419774 0.4675917

conv3.conv2.weight f4 [64, 1, 3, 3]
00000000: c1b7 ed3d e02e 0fbd e64a 70be b6cf c43e
00000010: 9109 c7bc f0ad 4fbe c968 bd3d 25e0 b73e
00000020: b58e 60be c645 f43d 5638 243e 6b63 9cbe
00000030: 3135 753e a2dd bd3e fb1a 5dbe 45c1 a73d
00000040: b9ed 1fbd abdc e7bc 7a40 91bd 7a2c d93c
00000050: 49b1 d73d f272 37bc 8ede a03c 7def d53d
00000060: 5651 8f3e c0eb c13e 17f4 473e 6d1c ae3e
00000070: 7480 ee3e 20a1 d53e a9a8 dbbd 10c8 033e
00000080: d120 353e 3733 3bbc 2dce 763d 2071 193e
00000090: 5487 42bd 7e08 96bd 92e9 913e 2d80 ce3d
000000a0: 6031 28be ab88 0bbc 5d5a 59bc bbe1 fc3e
000000b0: 2d54 92be 24bc 84bd bb2f 16bd 700d 15bd
000000c0: 4906 ccbd 5e2a 6bbe 37a4 1ebe 1ce7 e13d
000000d0: 9b4c fb3e 34ce 6f3e 8f93 afbe 2f4b 07be
000000e0: 8c6a 93be 8299 8ebe c002 b7be 50eb 20be
000000f0: 14f8 523e eb7b 30bd a4dc 943c 2c90 0abd
00000100: eaa7 07bd 715b b83b 0e49 a9bd f623 a23e
00000110: 3a6c c33e d29e da3d 7e0e 773e 51a0 6d3e
00000120: cc17 adbd 6145 f4bd b328 cfbd c444 0d3e
00000130: 15ac ea3e f0d8 773e 4cca 4abc 9efa f2bd
00000140: dfdd 9bbd b40f e63d ef99 80be f128 eabd
00000150: 0b04 c6be 7200 13bd 5604 b8be d635 d23d
00000160: 88f2 503e c0fd d4be c2e9 acbd eade 1f3e
00000170: 7662 1cbe a40f 0dbe f891 0c3f b3c7 8cbe
00000180: afc8 4e3e 2919 083d cf72 9bbe ee3d 9e3e
00000190: 4290 853e 1473 063e 53ea 99bd b764 f13e
000001a0: 3bed 28be 1b43 243d 3050 813e 9bc7 ecbd
000001b0: 8de9 3d3e afaa de39 4eae f53c 8d39 8abd
000001c0: 4070 fb3c 38e9 42bd e359 73be db89 27bf
000001d0: adc0 acbe 176e 4c3d 2554 e3bd 548b e1bc
000001e0: d022 293c 07da a93e 0cd0 d63b ac89 ef3b
000001f0: 3295 943e 6b37 d43e d148 a0bc 40e8 de3d
00000200: 7cd2 88bc 3701 f7bd 4421 4f3c b673 f63d
00000210: cb3c 153f 44b1 30be 1205 87bd 3934 813d
00000220: 349a ffbd 38d3 51bc 28a0 fb3e db56 7fbe
00000230: 53bf f4bd 5cd4 043d c178 a7bd 7291 56bc
00000240: 9f12 923d 04ae 12bc d446 e7bd 4cd8 d5bd
00000250: b0f5 ddbd b10d 7bbe 74cf 883c 78b6 b53e
00000260: 0268 e43e 295c 2e3e 0490 583e ccd6 7fbd
00000270: 9f5b a63e 07b8 d8bd 36dc 223e 60d3 cd3d
00000280: fc9c bd3b f332 803d 3353 bbbd 8513 033f
00000290: 4843 893e a8e9 aa3e 4c20 1ebe 3463 2b3d
000002a0: 165c e9bd f2a9 f6bb a8ee 0dbe e5db aebd
000002b0: ee59 55be da8a 893d b7cf 123e cacb 243f
000002c0: 6a71 9abd 2f58 323d 4856 d8bd e0b2 e73c
000002d0: 3258 9a3d d049 32bd 6f3e d8bd 5216 76be
000002e0: 4a21 8ebe 850f b3be abfe a0be 2ae2 9fbe
000002f0: 237b 3cbe 424f bf3d 6349 573e 3644 0d3e
00000300: c83f d2bd 406a 983e 9b30 e73e 8208 35bd
00000310: 01b7 c2bd 4699 303e fecd 96bb 9367 7bbd
00000320: 042f acbe 8471 01be 7099 f63d 28d8 193f
00000330: 1e38 793d 2dbe 4dbd 8345 06be 8439 70be
00000340: 253b 47be 1df9 77bd 8824 3d3d c358 773d
00000350: 1e93 ca3e e5e5 5e3d 24f6 773e 8821 223e
00000360: b0d7 083d e4b9 b73e c77c 863e dfa4 84bd
00000370: 7977 633e dc9f ad3e d773 4cbe dfb8 8cbe
00000380: 91f9 c7bd c0cc b73d 32c2 cd3e f54f 1a3e
00000390: c613 d03d 1723 1fbe ef9a 08be cbb2 fdbd
000003a0: 2a06 e7bd 91a3 c2bd a795 de3b ac96 153e
000003b0: 8f4e d4bd 02bd 093d fe40 f2bd 285e f23e
000003c0: 2eb9 37bd 473a 8e3c 852d 5f3e 9398 9b3d
000003d0: 52d1 85be e9a9 993c 0839 d03e 8786 c4be
000003e0: 7337 093e 3900 473e aa6d 17be 28a4 90bd
000003f0: 3f26 9f3c fe79 d8bd 9566 1a3e 7678 ce3d
0.11607314 -0.034956813 -0.23466071 0.3843972 -0.024296554 -0.20281196 0.09248502 0.35913196
-0.21929438 0.11927371 0.16037115 -0.305446 0.23946072 0.37083155 -0.21592323 0.0819116
-0.03904507 -0.028303465 -0.07092376 0.026510466 0.10531861 -0.011196839 0.019637372 0.104460694
0.27991742 0.37875175 0.19526707 0.34006062 0.46582377 0.4172449 -0.10725529 0.12869287
0.176883 -0.011425785 0.06025522 0.1498456 -0.04749234 -0.073258385 0.28498513 0.10083041
-0.16425085 -0.008516471 -0.013266173 0.4939097 -0.28579846 -0.064811975 -0.036666613 -0.036389768
-0.09962136 -0.2296538 -0.1549233 0.11030409 0.49081883 0.23418504 -0.34292266 -0.13212274
-0.28792226 -0.27851492 -0.35744286 -0.15714765 0.20602447 -0.043086927 0.018171616 -0.0338289
-0.03311912 0.005626135 -0.08265887 0.3166806 0.38168508 0.10674824 0.24126622 0.23205687
-0.084518045 -0.119272955 -0.10115185 0.13795763 0.45834413 0.24203849 -0.012377333 -0.11864208
-0.07610678 0.11233464 -0.25117442 -0.1143359 -0.3867496 -0.035889097 -0.35940808 0.10264175
0.20405018 -0.41599846 -0.08443023 0.15612379 -0.15271935 -0.13775498 0.5491023 -0.27496108
0.20193742 0.03322712 -0.3036103 0.30906624 0.26086622 0.13129836 -0.07515397 0.47147152
-0.16496746 0.04010306 0.2525649 -0.11561509 0.18546124 0.0004247031 0.029990342 -0.06749258
0.030693173 -0.047585696 -0.23764758 -0.65444726 -0.3374075 0.049909677 -0.11100034 -0.027532257
0.010323241 0.33174154 0.006555563 0.007310113 0.29020077 0.4144853 -0.019565972 0.10884142
-0.01670193 -0.120607786 0.0126422085 0.12033789 0.5829589 -0.17255121 -0.06592764 0.06308789
-0.12480584 -0.012806706 0.49145627 -0.24935476 -0.11950555 0.032429084 -0.08177329 -0.0130962
0.07132458 -0.008952621 -0.11292806 -0.10441646 -0.10837877 -0.24516942 0.016700484 0.35490775
0.44610602 0.17027344 0.21148688 -0.062460706 0.32491776 -0.105819754 0.15904316 0.10050082
0.0057865363 0.06259718 -0.09146728 0.5120166 0.26809144 0.3338139 -0.15442008 0.041842654
-0.11394517 -0.0075275833 -0.13860571 -0.08538035 -0.20835087 0.06715937 0.1433705 0.6437346
-0.07541163 0.04354113 -0.10563332 0.028283536 0.07536353 -0.043527424 -0.10558783 -0.24031952
-0.27759773 -0.34972778 -0.31444296 -0.31227237 -0.18406348 0.09341289 0.21024089 0.13795552
-0.102660716 0.29768562 0.4515427 -0.044197567 -0.095075615 0.17245969 -0.004602193 -0.061378073
-0.3362962 -0.12640959 0.12040985 0.60095453 0.060844533 -0.050230194 -0.13112454 -0.2345944
-0.19456156 -0.060540307 0.046177417 0.060387384 0.39565367 0.054418463 0.24214989 0.15833104
0.03340882 0.3588401 0.26267073 -0.06476759 0.22213544 0.33911026 -0.19966064 -0.27484795
-0.09764398 0.089746 0.40187222 0.15069564 0.101600215 -0.1554073 -0.13340352 -0.12387618
-0.112804726 -0.09503854 0.0067927423 0.14608258 -0.10366546 0.033627518 -0.118288025 0.4733746
-0.044854335 0.017361773 0.21794708 0.075974606 -0.2613626 0.018757777 0.4066851 -0.38383886
0.13400058 0.19433679 -0.14787927 -0.0706256 0.019427417 -0.10570143 0.15078194 0.1008157

conv3.in2.weight f4 [64]
00000000: a4f2 5d3f 0160 613f 50ba 583f 24cc 6a3f
00000010: b302 503f 93b5 5a3f cf87 713f 8607 453f
00000020: c410 683f 3a94 583f d980 4e3f fda9 683f
00000030: f03d 3f3f fe07 623f 435d 3b3f a27c 5a3f
00000040: 62d7 4d3f ce34 4b3f 2230 3d3f 2158 5f3f
00000050: 92c3 6e3f ba53 4a3f f4b1 5e3f 2d36 5a3f
00000060: 7299 583f 87d4 4e3f d0c9 463f 312c 6f3f
00000070: 93e4 803f 56c9 443f c663 633f c8d1 753f
00000080: 1693 453f c99a 3c3f 3092 513f 55b2 503f
00000090: ca1d 3b3f c6e9 363f 5ed9 3f3f 1480 363f
000000a0: b00a 3e3f 792d 773f 9df2 453f 03a3 3a3f
000000b0: 4c38 4d3f 73be 693f 5623 623f 91b1 553f
000000c0: b614 583f 309c 4a3f 897d 4f3f 105a 373f
000000d0: c484 703f 608e 573f 9205 3b3f 2d38 5e3f
000000e0: 8e4c 403f 7b1f 693f c406 3d3f cb0c 673f
000000f0: 35de 593f 8eef 4d3f 57a2 463f 1856 443f
0.86698365 0.88037115 0.8465929 0.91717744 0.8125412 0.8543331 0.9434785 0.76964605
0.9065058 0.84601176 0.80665356 0.9088438 0.74703884 0.88293445 0.7318918 0.85346425
0.80406773 0.7937745 0.7390157 0.8724385 0.93267167 0.79034007 0.86990285 0.85238916
0.8460914 0.8079304 0.7765169 0.93426806 1.0069755 0.76869714 0.8882412 0.96023226
0.7717756 0.73673683 0.8186369 0.81522113 0.7309233 0.7145046 0.7494105 0.7128918
0.7423506 0.9655376 0.77323323 0.72904986 0.8016403 0.9130623 0.8833517 0.8347407
0.844066 0.79144573 0.81050926 0.716218 0.93952584 0.8420162 0.73055375 0.8680447
0.75116813 0.9106366 0.7383845 0.90253896 0.85104686 0.80443656 0.7759146 0.7669387
