tmp/models/epoch1_batch2286.pth (torch, 987253 bytes, 85 tensors)

conv1.weight f4 [32, 3, 9, 9]
00000000: 219c 873c efc7 e2bc c11a 8a3c f068 743d
00000010: 6aea 9bbc ae88 d439 88fb 843c ebff 693c
00000020: ffa2 b8bc 366d 833c b4ed a93c f5cc 27bd
00000030: 9c11 063d ec40 203d 2958 7ebd 4588 313b
00000040: c97f 77bc 8fca 61bc 6d43 ab3b 7570 243d
00000050: a1c9 143d 7d12 553d 3900 023c 2d5e 14bd
00000060: cf3f 0ebd 7a70 3cbc 3bc7 8b3c b2f9 97bc
00000070: edb1 cc3c 2a39 98bd 3ad8 c7bc f4d6 383d
00000080: 6bfd 5a3d 9cee 8bbc c33d 20bc 817e a3bc
00000090: 08cd 0e3d 56bd 3a3d ffd6 cbbd ff70 25bd
000000a0: f62c 9f3d 0576 273e 6752 de3b a754 a1bc
000000b0: 9ec7 a8bc fe52 813d 1ab4 2b3d 3e89 b5bc
000000c0: 36fe 05be 494f 8fbd 3540 eb3c 8e9c 67bd
000000d0: aaf5 bebb c59a 693b b521 083d 0cb6 8fbc
000000e0: a67e 13bd bc92 b4bd f29e 8dbd 3e74 59bd
000000f0: cf80 fdbd bb35 a9bc dd3d 2cbd 155f 9a3d
00000100: 5c7d cbbb 1854 b63c 09aa 85bd 2467 d9bd
00000110: 31af a53b fe76 90bd 7aa2 81bc 6e31 bf3d
00000120: 2070 c53b 0678 47bd d60a 35bd 462c acbd
00000130: 5ae6 14bd 1f1f 6bbc 2916 b63c 7af8 573d
00000140: 1c25 3c3d 8abf fdbb 2fdc 4dbd ad9b 353d
00000150: 83d2 11bd b9b8 37bb a472 993c 90ba 0ebd
00000160: e6c9 423d 7a86 fb3c 1b74 763d 94c3 283a
00000170: d914 d83c 877c 1c3c b67d b0bd 66a5 193c
00000180: 2625 1dbc 2e78 43bc f491 3a3d fcc5 3abd
00000190: 2e58 043c 3b45 99bc cfca b2bc 50e7 6b3d
000001a0: 395f fdbc 6245 dbbb 4333 8bbd 01bd ae3c
000001b0: 300f 4e3d c220 863c 1bdf 40bd 7c4e 23bd
000001c0: fb82 cb3d 4f44 263e 5aaf 4dbd dc4c 473c
000001d0: d913 9b3d 3e9c 543c 241f 72bc 54a7 c2bd
000001e0: d79d 41bd 98a9 a13d 74a7 e83d d483 ce3b
000001f0: 1344 afbd 6e88 293d 6189 a23d ea51 563d
00000200: db16 acbd 38de a0bd 1009 34bd 964f f53d
00000210: 7cb1 163d af64 ccbb 4309 f4bb a994 a73c
00000220: 72aa 05bd 9628 90bd 2ac6 bdbd 8975 9cbd
00000230: 8874 06be f788 19be 8706 b4bd 9c6d 4e3d
00000240: f68a 4d3d 7efe 88bd 4311 babc 8bdb f73b
00000250: 0217 e3bd 2180 2abc 07af 2bbd 786e 0dbd
00000260: 818a 2b3d 8db7 34bd 9a60 353c 8b4e b7bc
00000270: f13b e1bd 1be5 6abd c898 5cbc 84b4 2e3d
00000280: 0501 22bc 5ced 20bd 3d99 eb3c cf64 063c
00000290: 5b4f 8ebd 7f8f d73b cd52 7cbb f8b4 9bbc
000002a0: 8e14 893d 1011 fe3b eeea 2cbd 4d37 68bd
000002b0: 7993 7dbc f9c0 263d 0157 5e3d 6fd8 493c
000002c0: 6a31 92bd c688 85bd 4f90 ccbc baf5 353d
000002d0: 0a59 55bd f041 45bc 7596 3bbd 56a7 5ebd
000002e0: 6991 dc3b 90e8 eb3c eed5 cbbd e12c aabc
000002f0: 5686 093d 56b1 a63d 0a39 153c 1fd2 85bd
00000300: 9794 c23c 49cc 2cbb 27bf 6f3c 8414 e13c
00000310: f4a3 8abd 3d43 37bc 08b7 0ebc e8ca 3c3c
00000320: d491 7abd 9219 90bd 20a4 b53d 2eaa a23d
00000330: 8782 6d3d 471b 10bc b579 31bd 5880 d83c
00000340: c325 febc 16f1 a1bd 0c21 83bd fd4d 3fbd
00000350: 7853 893d 83dc 2dbd ea69 debb 8c51 3c3d
00000360: b430 f4bb a227 d63c 1d75 143d 3955 acbd
00000370: b094 5ebd d7f6 9fbd b1dc 5cbd 9b60 50bd
00000380: 23c2 6f3d caa3 553c 8061 38bc f721 323d
00000390: 8376 1f3d aa51 2d3d 79d6 b3bd 5ec9 653d
000003a0: b27f 313c 6de4 d13b 0724 ffbc 1e58 00bd
000003b0: 3638 59bd a5b0 52bc 41c4 37bc 1bb5 063d
000003c0: 3358 c03c ff57 3a3d c67f b33c ed8b 61bc
000003d0: 7f70 403d ab9b 623d 2141 8c3d b7ed daba
000003e0: 5607 433c 4b45 58bd 126b 883c 3ea5 29bd
000003f0: 361f 8dbc fede 6e3d f283 46bc 6072 8b3c
0.01655394 -0.027683226 0.01685846 0.05967039 -0.019032676 0.00040537625 0.01623322 0.014282207
-0.02253866 0.016043287 0.020743228 -0.040966947 0.032731637 0.039124414 -0.062095795 0.002708928
-0.01510615 -0.013781204 0.0052265436 0.04014631 0.0363251 0.052019585 0.007934623 -0.036222626
-0.03472882 -0.011501426 0.017062774 -0.018551681 0.024987185 -0.07432778 -0.024395097 0.04512687
0.053464334 -0.017081551 -0.00978035 -0.019957783 0.0348635 0.04559072 -0.099531166 -0.040390965
0.077722475 0.16353615 0.0067847255 -0.019693686 -0.020602997 0.06314658 0.041919805 -0.022160169
-0.13085255 -0.06997544 0.02871714 -0.056545787 -0.0058276253 0.0035645228 0.03323527 -0.017542861
-0.036009453 -0.0881705 -0.06915082 -0.053089373 -0.12378084 -0.020655503 -0.042051185 0.07537667
-0.0062100124 0.022256896 -0.06526572 -0.10615376 0.005056285 -0.07053946 -0.015824545 0.093356
0.006025329 -0.048698448 -0.044199787 -0.08406882 -0.036352493 -0.014350682 0.022227364 0.0527272
0.045933828 -0.0077437805 -0.05025881 0.044337917 -0.03560115 -0.0028033687 0.018731423 -0.03484589
0.047555827 0.030703772 0.06016932 0.0006437835 0.026377128 0.009551174 -0.086177275 0.009377813
-0.009591376 -0.011930509 0.045549348 -0.04559897 0.008077664 -0.01870977 -0.021825222 0.057593644
-0.030929195 -0.0066916207 -0.06796887 0.021330358 0.050307453 0.016373042 -0.04708777 -0.03986977
0.09937092 0.16236995 -0.050216056 0.012164321 0.07572145 0.012976704 -0.014777932 -0.095045716
-0.04726967 0.078936756 0.11360064 0.006302336 -0.08557906 0.041389875 0.07936359 0.052324213
-0.08402797 -0.07854885 -0.043953955 0.119780704 0.036790356 -0.0062375884 -0.007447393 0.020456629
-0.032633252 -0.07038991 -0.092663124 -0.076396056 -0.1313039 -0.14993654 -0.087903075 0.0503975
0.05018135 -0.066891655 -0.02271331 0.0075640134 -0.11088373 -0.010406525 -0.041914966 -0.03452918
0.041880134 -0.04412036 0.011070395 -0.02237632 -0.10997761 -0.0573474 -0.01346416 0.042652622
-0.009887938 -0.039288864 0.028759593 0.008202746 -0.069487296 0.0065783854 -0.0038501502 -0.019007191
0.066933736 0.007753499 -0.042216234 -0.056693364 -0.015477055 0.040711377 0.054282192 0.012319668
-0.07138331 -0.06520228 -0.024971155 0.044423796 -0.052086867 -0.0120396465 -0.045797784 -0.054358803
0.0067312014 0.028797418 -0.09952913 -0.020773353 0.03357538 0.08139293 0.009107837 -0.06534218
0.023752494 -0.002636688 0.014632977 0.027475603 -0.06769553 -0.011185464 -0.00871063 0.011522986
-0.06117423 -0.07036127 0.08869195 0.079426154 0.05798581 -0.008795566 -0.04332896 0.026428387
-0.031023866 -0.079073116 -0.064027876 -0.046705235 0.067053735 -0.042446624 -0.0067875283 0.045976207
-0.007452095 0.026141945 0.0362445 -0.084146924 -0.05434102 -0.07810753 -0.053921405 -0.05087338
0.058534753 0.013039539 -0.011253715 0.043489423 0.03893138 0.04231421 -0.08781142 0.05610024
0.010833668 0.0064054043 -0.031145109 -0.031334035 -0.053032123 -0.012859498 -0.011216224 0.03288756
0.023479557 0.045494076 0.021911513 -0.013766271 0.046982285 0.055324238 0.0684836 -0.0016702925
0.0119036045 -0.052800458 0.016652618 -0.041417353 -0.017226797 0.05831813 -0.012116419 0.017022312

in1.weight f4 [32]
00000000: 6dc5 803f 99b0 873f bf22 6e3f 91d9 873f
00000010: fa9e 6f3f cfe9 843f 39ed 7d3f 3ba1 7d3f
00000020: b400 803f 0ee7 6e3f 707a 833f 8e7b 653f
00000030: 1dcd 743f 4ccc 883f 230a 763f 1b14 813f
00000040: 0252 813f acf4 6f3f 6878 7a3f 3beb 863f
00000050: ad3b 823f d7df 743f 4111 863f 045f 853f
00000060: 1550 863f ab4b 7e3f 99b3 723f 92aa 813f
00000070: 0d98 713f 10cb 873f 736b 783f d873 703f
1.006025 1.0600768 0.9302177 1.0613271 0.93601954 1.0383853 0.991901 0.99074143
1.0000215 0.9332131 1.027174 0.89641654 0.9562548 1.0687346 0.9610922 1.0084261
1.0103152 0.93732715 0.97839975 1.0540537 1.0174462 0.9565405 1.0474015 1.0419621
1.0493189 0.9933421 0.94805294 1.0130179 0.94372636 1.0608845 0.97038954 0.93926764

in1.bias f4 [32]
00000000: d603 e53d 176e 683d 6d7e 433d 885a 033e
00000010: b811 e43c ce1b 3d3e fa74 9f3d 8f79 9cb7
00000020: cabd 163d b082 8abd 9c75 10bc bf46 bb3c
00000030: 341b 7c3e e503 463d 0a21 31bc 01c8 c03a
00000040: e9c4 c63c 6e24 d03d 0c33 273d e22f 8c3c
00000050: 3362 03bc 825e 54bd 5e83 0a3d 9a25 a73e
00000060: 3535 ff3c cfe8 06bd 619f 303d 24b8 373d
00000070: 37d0 bfbc 3ccb 483d 9f13 ddbc 507c af3c
0.11182372 0.056745615 0.04772799 0.12827504 0.02784048 0.18467638 0.077859834 -1.8653254e-05
0.03680209 -0.06763208 -0.008817103 0.022860883 0.24619752 0.048343558 -0.0108111 0.0014708043
0.024263816 0.101631984 0.040820166 0.017112676 -0.008019018 -0.051847942 0.033816688 0.32645875
0.0311533 -0.032936867 0.043120746 0.044853345 -0.023414714 0.049021944 -0.026986895 0.021421582

conv2.conv1.weight f4 [32, 32, 1, 1]
00000000: 189f 9a3d de92 47bd 2397 d1bd cd4d 743d
00000010: d6cf 033e fda7 00be b2f6 4fbe 50da a2bd
00000020: e851 05be 5267 35be e67b 97bc 7253 83bd
00000030: 8ef0 fe3d b1c5 00be 584f 84bd 5481 80bd
00000040: c6fc ccbc dff3 1ebd 4672 50bc 480c 18be
00000050: 7ade f13d 0002 dd3d f10c a7bd 78ad 4abe
00000060: e1ac 8abd 6d34 ebbd abf9 733d f1fc 17bd
00000070: e525 0fbd 41e5 e43a 1246 e43d 262c 2d3d
00000080: accf 3ebe cecc 8c3c 2f62 00be 010b c83d
00000090: 49fd fbbd 6d9b c1bb da6d c3bc f85c 9abd
000000a0: 4439 303e 10c5 6abd 1741 dabd 239f 683d
000000b0: f5a0 bebd 6f4d 3e3e 3953 4e3e 6559 fb3d
000000c0: 5613 a2bd be5b 85bd 91c6 51bb 4a2f f33c
000000d0: 6370 9b3d 38bd 543d 20f2 5bbd 9145 543d
000000e0: 9b42 73be 373b f73d 7489 07be 368c 86bc
000000f0: 2ba1 ba3d 40af 12bd dc97 19bb 7829 cbbd
00000100: c5d7 11bd e326 bebd bd50 d93d 3210 9cbd
00000110: 5dbc 4b3e fafe 203e da9c fb3d 2abf 7ebd
00000120: ea80 b3bd 12f1 413c 0e1b 8b3d 43c9 473d
00000130: c1c2 1dbd 5663 0bbe aacc 05be e3a6 87bd
00000140: 7104 703d c0ad 03be c07f 60bd 82b6 2c3e
00000150: 0dc7 1a3c 1fa3 1a3e 9b55 a23d 02db b5bd
00000160: be15 4fbd 3e04 c93d e0eb 813c 5122 623d
00000170: 85e2 02be 22cd ad3d 8c56 47be b541 333d
00000180: b899 533d 87b9 db3c df88 59bd 6dfb edbd
00000190: 0114 0e3e 0d14 7d3d c6e9 363d 9100 e33d
000001a0: 42e2 42be 320f 14be 3e2f c0bd 5e36 003d
000001b0: cad7 5bbc 878b 523e ed04 333e a5cd 4d3d
000001c0: eb43 92bc ed88 39ba e27c 09be f297 77bc
000001d0: 9455 143e 9197 e0bd 5169 b1bd 92e3 5fbe
000001e0: 7893 27be 2f7f 873c 8316 563d 06f9 d13d
000001f0: 938d f0bd 73dc f83d 3a56 26bd 6dc8 053e
00000200: d666 19bc 74c1 313e c14f f93d 806d acbd
00000210: e35c bb3d 8b31 2c3e 74e8 f43d a420 87bd
00000220: 14d3 fc3d 6302 b63d 3d2d 59be 65ae e4bc
00000230: 01f9 99bd 50f7 36bd ced3 c3bd 169f 483d
00000240: d573 8e3c f9c0 c63c b65e d8bd 141c 60be
00000250: ee7b d0bd 12bd b1bd 9c64 5a3e 6e4f adbd
00000260: 3b54 033e 484f e83b fb0f 113e 6388 563e
00000270: 661d 273e 15b5 a43d 5da7 85bc 8f2b 953d
00000280: b80a 25be 0e67 0bbe e54b 083c 3d68 28be
00000290: a5e3 ecbd 5417 c73d 59a6 e03d 5b48 0a3e
000002a0: 3160 86bd fccd cfbd 9d11 1e3e 3144 28bc
000002b0: 2b44 53be fcc3 f93c 0b63 0cbe 591d 78bd
000002c0: 328c 883d 2073 8abd 3d32 d9bd 7a2a 7ebd
000002d0: c505 213d 7fe2 a43d bfd1 e2bd fbf0 193e
000002e0: 9493 fbbd 45be 8d3d d02c 1c3e c632 06be
000002f0: 8e9c 3a3e 4a3c 0c3e 49af d23d 6a3e e03d
00000300: 145d 6f3e 7f65 1dbe b07a d03d 7e2d 3a3e
00000310: 4652 103e 827b f1bd ae10 d3bd 4545 4fbe
00000320: cc86 d73d e2d0 0e3d ff72 b13c f2f1 c8bc
00000330: 9f5f 1d3e 2635 cfbc c80e f53b 7589 2ebe
00000340: e4f2 81bd 0f81 303e 145f e03d 60f4 e6bd
00000350: 336e 8e3c 9c70 d43a 265b 0a3e ea2c c5bd
00000360: a3b7 b2bd 6e16 ef3d 980a 3fbd 0cf2 0fbd
00000370: 680d 6c3d 3c04 ce3b 9cff 10bd 1e30 693c
00000380: c21c 003e b1ba f0b8 4b5f f1bd d41d fe3d
00000390: d956 90bd caaa 27be e00a 9dbd f18c 7a3d
000003a0: ffd9 17bd 0da3 cd3b 8ce9 433d 9fa1 fc3d
000003b0: 7395 bb3c 417a 01bc 0c26 c63d b81c d7bd
000003c0: 2b19 2c3e f31c 3a3c 228b 833d aeae 433e
000003d0: c014 d6bd b3f8 613d 1c22 1dbc 0129 59be
000003e0: a0b0 e1bd 38d3 c4bd ab4a cebd 7b14 a53d
000003f0: beea 1ebe cabb 44bd 5189 16bc 5ee9 19be
0.07549876 -0.048724048 -0.10233905 0.05964451 0.12872252 -0.12564082 -0.2030895 -0.07951796
-0.13019526 -0.17715195 -0.018491697 -0.064124 0.12448226 -0.12575413 -0.06460446 -0.062746674
-0.025022876 -0.038806792 -0.012722557 -0.14848435 0.11810012 0.10791397 -0.08156765 -0.19792736
-0.06771255 -0.11484609 0.059564274 -0.037106458 -0.03494825 0.0017463343 0.11146177 0.04227843
-0.18633908 0.017187502 -0.12537454 0.09767724 -0.1230417 -0.005908421 -0.023856092 -0.07537264
0.17209345 -0.05731684 -0.10656946 0.05679239 -0.09308044 0.18584226 0.20148934 0.1227291
-0.07913844 -0.06511639 -0.0032009224 0.029685635 0.075897954 0.051938266 -0.053697705 0.051824156
-0.23755877 0.12071841 -0.13236028 -0.01642428 0.091127716 -0.035811663 -0.0023436463 -0.09920019
-0.035606164 -0.09284761 0.10611103 -0.076202765 0.19896074 0.15722266 0.122857764 -0.062194027
-0.08764823 0.011837261 0.0679227 0.048775923 -0.03851581 -0.13612112 -0.13066354 -0.06623628
0.058597986 -0.12859249 -0.054809332 0.16866496 0.0094468715 0.15101288 0.07926484 -0.08879663
-0.050557844 0.09815262 0.015859544 0.055208508 -0.12781723 0.084863916 -0.19466609 0.043763835
0.05166027 0.026821865 -0.053109046 -0.11620221 0.13874818 0.0617867 0.044656537 0.110840924
-0.19031623 -0.14458922 -0.09384011 0.03130185 -0.013418147 0.20561038 0.17482348 0.050244946
-0.017854651 -0.00070775935 -0.13426545 -0.01511191 0.1448577 -0.10966409 -0.08662666 -0.21864155
-0.16364849 0.016540138 0.052267563 0.102525756 -0.11745753 0.12151422 -0.040609576 0.13064738
-0.009362897 0.17358953 0.12173415 -0.08419323 0.09148576 0.16815774 0.119583994 -0.065980226
0.123449475 0.08887174 -0.21208663 -0.027915189 -0.07518197 -0.04466945 -0.09561883 0.04897984
0.017389217 0.024261938 -0.1056494 -0.21885711 -0.10179888 -0.086786404 0.21327442 -0.08462416
0.128251 0.007089529 0.14166252 0.20950465 0.16319808 0.08042351 -0.016315157 0.07283699
-0.1611737 -0.13613531 0.008318876 -0.16446014 -0.11566857 0.09721246 0.10969228 0.13504164
-0.06561316 -0.1014671 0.15436406 -0.010270164 -0.20631473 0.03048896 -0.13709657 -0.060574863
0.06667365 -0.067602396 -0.10605285 -0.062052228 0.039312143 0.08051013 -0.11075162 0.15033333
-0.12284008 0.06921057 0.1525147 -0.13105306 0.18223783 0.13694873 0.10287339 0.109494045
0.2337535 -0.15370749 0.10179651 0.18181416 0.14093885 -0.11791135 -0.10305916 -0.20241268
0.10523757 0.034867175 0.02166128 -0.024529431 0.15368508 -0.025293898 0.0074785687 -0.17044623
-0.06345156 0.17236732 0.10955635 -0.112770796 0.017386531 0.0016207877 0.13511333 -0.09627707
-0.08726432 0.116742 -0.046640962 -0.035142943 0.057629973 0.006287126 -0.035400018 0.014232663
0.1251097 -0.00011478866 -0.11785754 0.12408033 -0.07047815 -0.16373745 -0.0766809 0.06116957
-0.03707313 0.0062755407 0.04783015 0.12335514 0.022898411 -0.007902683 0.096752256 -0.105035245
0.16806476 0.011359441 0.06423022 0.19109604 -0.104531765 0.05516882 -0.009590652 -0.21207048
-0.11020017 -0.09610599 -0.100728355 0.08060547 -0.15519235 -0.048030652 -0.009188012 -0.15030429

conv2.in1.weight f4 [32]
00000000: 929b 623f 04b6 763f 96ab 303f 7127 653f
00000010: 0879 333f e7f3 4d3f 9d7d fb3e 457a 563f
00000020: 4527 4e3f 1092 703f c66a 613f 23aa 273f
00000030: 9c63 203f fb0f 7b3f 1503 7e3f 0a47 813f
00000040: 7a68 7a3f 0ba0 853f 06bb 503f c5f0 473f
00000050: f46c 603f d247 5d3f b1e5 893f dc48 5d3f
00000060: 456e 3f3f 04fd 0b3f b12f 873f b06b 5e3f
00000070: a0e8 233f 4938 853f 9df9 8c3f 13c8 243f
0.8851863 0.96371484 0.6901182 0.8951331 0.70106554 0.8045029 0.49119273 0.8378032
0.8052867 0.93972874 0.8805355 0.65493983 0.6265199 0.9807126 0.9922345 1.0099804
0.9781567 1.0439466 0.81535375 0.7810176 0.8766625 0.86437714 1.0773221 0.864393
0.7477763 0.54682946 1.0561429 0.8688307 0.6402683 1.0407802 1.1013676 0.6436779

conv2.in1.bias f4 [32]
00000000: c038 af3d 4ac6 373d cd50 833e 4e6d 773d
00000010: 4985 5f3e 8261 263e 7c1c c23e 99fc 113e
00000020: afa4 4b3e 4935 b23d a1da 743e 123d 923e
00000030: 255c 943e 6203 19bd 4f9b 6f3d 8980 12bd
00000040: 63c1 5f3d eca8 fe3b b8a4 173e 15a6 4f3e
00000050: cfa3 da3d 7b46 0a3e cef4 81bc e4b9 063e
00000060: 53cf 323e 5a7a cc3e 9354 bcba 850c a53d
00000070: a7ec 843e f28a 613b c6f5 8f3d 3649 733e
0.08555746 0.044866838 0.25647584 0.060406975 0.21828188 0.16248134 0.37912357 0.14256515
0.1988704 0.087015696 0.23911525 0.28562218 0.2897655 -0.03735674 0.058497723 -0.035767112
0.054627787 0.007771602 0.14808929 0.20278199 0.10675775 0.13503449 -0.015863802 0.13156849
0.174619 0.39937097 -0.0014368467 0.080590285 0.259618 0.0034415093 0.070292994 0.23758397

conv2.conv2.weight f4 [32, 1, 3, 3]
00000000: 4cab 803e 84bf 18be 7847 6a3e 7cf1 bebe
00000010: bf6c bfbe 4bc9 12be f994 dc3b fa3d 933d
00000020: 05f2 873d 35d6 723d 7493 bdbe 277b 04be
00000030: bd1e 27bd 5d27 9ebe dd96 7dbe b569 613e
00000040: fc24 58bd d1f5 2bbe 9027 9e3c 21a1 213e
00000050: bcc4 a23d 18ea 913e 85a3 9a3e 3437 0f3e
00000060: b769 9c3e c4b7 9e3e daff 5bbc 4eda 01be
00000070: f5be 2a3e 0ca1 fb3d 6cef 29be 8149 5e3d
00000080: c4b6 60be d23a 9abe 77b3 9fbe a180 e53d
00000090: a3dc 6a3e bfba 8e3e 6617 863d 2d1d 8e3e
000000a0: 9cc1 81bc aa3f fdbc b656 c3bd fc2a 8ebe
000000b0: 20d9 52be f493 20be 34ca cb3b f986 aa3c
000000c0: 52f3 97bc 110d fcbc 95ef 603e 2847 ecbd
000000d0: 16bb 3d3e 82e6 723e 9b14 2a3d 5416 58be
000000e0: a24f 1f3e b7d8 89be 62f0 09be f764 a93e
000000f0: fc52 fb3d 198a 643d 522d c73e 071e d5bd
00000100: 58a0 85be 6e2c 883e 6aed bb3d bacd cf3e
00000110: 0d85 843e 9eb4 d73d ea23 a43e 1d6c 31be
00000120: 6558 eebd f4bd 51be c3d6 1b3e 6973 b2bd
00000130: 19e9 1cbe e2e1 b53e 2503 3bbc 8248 ab3e
00000140: 10d4 813e 50ec c6bd 6bef 4a3e 6752 743e
00000150: 8459 993d 1ce9 9b3e 9ca0 3d3e ce98 4bbe
00000160: a411 6bbe 42df f03d 904e 88be 735b 5a3e
00000170: 1393 3a3e c2af 0fbe 1c7b c63e d3df 0a3e
00000180: 24d0 e2bc 8cd5 a6bd 9ceb 883c 55e2 723e
00000190: ff9e 033e 5a8e 5abe 5be1 1a3d e547 2f3c
000001a0: 325c f8bd 9666 8c3e 3911 5f3e b43c a7bd
000001b0: 7bf2 753e 174b 633b 7b5a 9abe f915 babd
000001c0: 8464 63bd 1048 6ebd 1a94 00be 3fa7 ae3e
000001d0: 4d45 b03e 3671 003e 19b3 853e 8a63 abbd
000001e0: 3f17 a63b 639f 893d 7551 3f3e 9ff6 ebbc
000001f0: 353b 23bd bd18 3b3e 2d25 27bd 6652 72be
00000200: d9d3 db3d f5e8 f7bc 042c 9e3e 57a7 663e
00000210: 6cb4 82be fa93 fdbc 1c26 9c3e bb19 5c3e
00000220: 5def 883d d344 253d 5d37 a7be 5ff5 94be
00000230: 42d2 8bbe edd1 453e 9971 90be 9f9f 843e
00000240: bd45 563e b003 73be 41ff 183e 95df 693e
00000250: bfc7 6fbe d876 6b3d 0064 c33e 2763 8b3e
00000260: 7ffa 9bbd aac3 46be c6a9 963e 05aa 94be
00000270: 0aa5 1f3d 8271 df3c 4c69 00bd 623e bdbe
00000280: f65b 98be d917 82bd b2b7 ac3d c856 933d
00000290: a03b 2dbd 3a17 ecbd 3338 893e f0ca 683e
000002a0: 6df2 82be 9891 cd3e 2587 cc3d f5e9 5d3e
000002b0: 3124 40be d6c6 303e 04b2 81be bd7f bebc
000002c0: 4dac fe3e 1a59 a2bd 4b7e 9f3e fcf8 1e3e
000002d0: 81ca 413e 8aff 89be 80cf 513e 1041 143d
000002e0: 03f9 1f3e 8eaa a83e 1cf1 9d3d 5f24 b0bd
000002f0: 20d0 c53e effe 843e ec36 c53e 87b7 953e
00000300: a3ba 623d 63a2 82bd ee73 9bbe 5475 93be
00000310: f71a 4bbe 5d1f 0c3e 9683 dfbe 67d8 83be
00000320: 4137 d83d cb62 91bd 5a93 5fbe 803f b93e
00000330: 5c7d b3be 7c31 0a3d 9992 75bd 7431 46bd
00000340: d506 693e 47e4 ce3e 9bb4 76be dd23 2d3e
00000350: cccf 1fbe dbaf 823c f81c 09be 0836 b63d
00000360: f641 963e 0128 9b3d 9e29 49be 5bbf 1fbc
00000370: 63dd 79be 8985 013b ccb5 913e 21f4 233e
00000380: 8db6 f2bd 8276 9bbd 330e 97be fd60 50be
00000390: 9156 5f3d ae28 7f3e 1fb3 933d cb21 9b3e
000003a0: e609 223e 55e1 4c3e 5a72 22bd 5dd6 fe3d
000003b0: bcdb 493e 913e 7b3e 3d1c ad3e bb6e 383e
000003c0: 4ac7 b9bd 9296 abbe 2d74 72bc cfc7 9bbd
000003d0: 9f7d 413e 40ce 92bd 537a 92be bf3e dcbd
000003e0: ee2a b6be ae5c b93b 288f 2d3e 65b5 97be
000003f0: 6b14 403e 27f6 583d 2b9b 6cbe e623 273d
0.2513069 -0.14916807 0.22878826 -0.37293613 -0.37387654 -0.143346 0.006731626 0.071895555
0.066379584 0.059286315 -0.3702656 -0.12937604 -0.0408008 -0.30889407 -0.24764581 0.2201298
-0.052769646 -0.1679299 0.019305974 0.15784122 0.0794768 0.28498912 0.3020288 0.13985902
0.30549404 0.30999577 -0.013427699 -0.12680933 0.16674407 0.12286577 -0.16595238 0.054269318
-0.2194472 -0.30123 -0.31191608 0.11206175 0.22935729 0.2787685 0.06547432 0.27756634
-0.01583939 -0.030914146 -0.09538023 -0.2776717 -0.20590639 -0.1568144 0.006219173 0.020816313
-0.018548641 -0.03076795 0.21966393 -0.115370095 0.18528399 0.23720744 0.041523557 -0.21102268
0.15557721 -0.26923153 -0.13470605 0.33084843 0.122716874 0.055795763 0.38901764 -0.10406118
-0.26098895 0.26596397 0.091761425 0.40586644 0.2588276 0.10532497 0.3205865 -0.17326398
-0.11637954 -0.20482618 0.15218644 -0.08713419 -0.15323295 0.35523897 -0.011414324 0.33453757
0.25357103 -0.09713042 0.19817893 0.23859559 0.07487777 0.30451286 0.18518299 -0.19882509
-0.22955948 0.11761333 -0.26622438 0.21323948 0.18220167 -0.1403189 0.387658 0.13561945
-0.02768714 -0.081461996 0.01671391 0.23719151 0.12853621 -0.21343365 0.037812572 0.010698293
-0.1212696 0.27422017 0.21783914 -0.08165875 0.2401828 0.0034682208 -0.30147156 -0.09086222
-0.05551578 -0.058174193 -0.12556496 0.34111974 0.34427872 0.12543187 0.26113203 -0.08368595
0.005068689 0.06719854 0.18683417 -0.028804122 -0.039851386 0.18271156 -0.040806938 -0.23664245
0.10733766 -0.03026245 0.30892956 0.22524773 -0.25528276 -0.03095435 0.30497825 0.2149419
0.0668628 0.04034884 -0.32659426 -0.29093453 -0.2730885 0.19318362 -0.28211668 0.2590303
0.2092504 -0.23731875 0.14941122 0.22839196 -0.23416041 0.057486385 0.3816223 0.27224085
-0.07616138 -0.19410577 0.29426402 -0.29035965 0.038975753 0.027275804 -0.03135042 -0.36961657
-0.2975766 -0.06352205 0.084334746 0.071942866 -0.04229319 -0.115278676 0.2680069 0.22733665
-0.2557558 0.40150142 0.09986714 0.21671279 -0.18763806 0.1726335 -0.25331128 -0.02325427
0.4974083 -0.07927151 0.3115104 0.15524668 0.18924905 -0.26952773 0.20489311 0.03619486
0.15622334 0.32942623 0.077120036 -0.08600687 0.3863535 0.2597575 0.38518465 0.29241583
0.055353772 -0.06378629 -0.30361885 -0.28800452 -0.19834505 0.13683839 -0.4365508 -0.2575104
0.10557414 -0.070989214 -0.21833554 0.3618126 -0.3505658 0.0337386 -0.05995426 -0.048387006
0.22756512 0.40408537 -0.24092333 0.16908212 -0.15606612 0.015952995 -0.13389957 0.088970244
0.293472 0.075759895 -0.19644782 -0.009750213 -0.24400859 0.001976343 0.28459013 0.16011097
-0.11851225 -0.07590963 -0.2950302 -0.20349498 0.054525916 0.24917862 0.07211899 0.3029922
0.15824088 0.20007832 -0.039659835 0.1244323 0.19712728 0.24535586 0.33810607 0.1801099
-0.090712145 -0.33513314 -0.014798206 -0.0760647 0.18895577 -0.07168245 -0.2860895 -0.10754155
-0.35579628 0.0056568 0.16949141 -0.2963058 0.18757789 0.052969124 -0.23106067 0.04080572

conv2.in2.weight f4 [32]
00000000: 88dc 6b3f 411a 773f 75f2 683f 6bab 6a3f
00000010: a96f 793f b963 743f 1764 813f 7060 833f
00000020: 09ed 793f 2cc1 833f 167a 6b3f f8c3 813f
00000030: cd4a 823f 2f7f 733f 8eed 7f3f 3c63 713f
00000040: ae1c 823f 8c0e 673f 3e8e 803f 8d3d 893f
00000050: 3877 773f 1fc4 713f d3f6 773f f58e 793f
00000060: 3cc5 7a3f 0fd1 793f 08e6 863f 22a2 6d3f
00000070: ccc3 713f 4063 5d3f 2464 6c3f 6891 843f
0.9213338 0.96524435 0.9099496 0.91667813 0.97436005 0.95464665 1.010867 1.0263805
0.9762731 1.0293326 0.91983163 1.013793 1.0179077 0.9511594 0.99971855 0.94292045
1.0165002 0.9025657 1.0043409 1.0721909 0.9666629 0.9443988 0.96861 0.9748376
0.97957206 0.97584623 1.053895 0.9282552 0.9443939 0.8647957 0.923403 1.0356874

conv2.in2.bias f4 [32]
00000000: 83e2 c73d b28f 7fbc af6b 633e 5c1e 43bd
00000010: a4c8 eb3e 0634 3f3e 1861 893e 0cff 983e
00000020: 7011 8c3e a29e ed3d f44c 493e 8e2e 163e
00000030: bef9 213e 48f7 21bd 53b6 9e3d 8cf5 523d
00000040: 4c98 753d 936a a7bd f8cf 823e a931 933e
00000050: 93d9 e33c 2019 373e adfd 3f3b 3444 8c3d
00000060: 8165 563e 78ba de3e 41e7 5d3d e967 1ebd
00000070: 73c4 823e 8a5c 89bd f5f4 1e3d 7340 b63e
0.097600006 -0.0155982245 0.22209047 -0.047636375 0.46051514 0.18672189 0.2683189 0.29882085
0.27357054 0.116025224 0.19658262 0.14666197 0.15817925 -0.039542466 0.07749619 0.051503703
0.059959695 -0.08174624 0.25549293 0.28748825 0.027813708 0.17880678 0.002929549 0.06848946
0.20937158 0.4350164 0.05417562 -0.038673315 0.25540504 -0.067071036 0.038807828 0.35596046

conv2.conv3.weight f4 [64, 32, 1, 1]
00000000: 2e83 1b3e c251 d83d e368 c7bd c149 8a3d
00000010: a312 d4bd 389b 54be dc1a e53d cb4e 943d
00000020: 67ea e0bd 3eee 193e 49d3 5cbe 5faa f03b
00000030: ab53 3c3e efa9 56bd 3555 e9ba cf06 12be
00000040: 516b 103d 785f 55bc 4ca4 4dbe f831 98bd
00000050: 6f35 f93d 4fcd 20be eb66 14be e881 253c
00000060: 0c45 123e cf0c dabb e74e ad3c 0fb2 95bc
00000070: 16a6 91bd 8dde 8c3d a6cb aa3d 3915 eb3d
00000080: c943 b5bd 8a90 00bd 8612 6b3d 3cd6 2fbe
00000090: f341 0d3e a365 ce3d b6a9 35bd eb7a 483b
000000a0: a5fe 2abd 5bfa e53d d673 343e 01cb 103e
000000b0: 8054 eabd b4f1 9b3d 9aca eb3c 3751 c3bd
000000c0: 316d c83d 8910 1b3d 342f 1abe 9087 dd3d
000000d0: 382f e33d c979 a2bc fe9a 013e 2c38 adbd
000000e0: a19e e33d 5375 82be 28f5 dc3c bb9d c73d
000000f0: 9ec1 193d 32f6 dc3d ff4c da3c cb70 3d3e
00000100: 519f 883d d52e b6bd 147b 28be 6bca c73b
00000110: 80a2 f6bb dfbe 553d 30e3 423e 6172 6dbc
00000120: f3e4 523d 68b1 0bbe d6d1 4bbd 46cd 28bd
00000130: 7029 abbd d34c a73c 10ce 08be d66e 193e
00000140: e8ae 6fbc d9e8 d0bd d1dd 73bb 0fa1 24bd
00000150: de2e 0abe 62d6 06be 457e 8cbd eff7 b83d
00000160: fdcb 23be 30e7 403e 750d 24be 6dcb 1fbd
00000170: e380 5ebd 8c6d 213e c652 ec3c f831 a9bd
00000180: b965 fe3d 695c 39bd 80c4 3cbd 84d5 94bd
00000190: a173 53bd a42c 293e 4c1f a6bc 4151 e2bd
000001a0: 0ae0 233e 6d49 4f3e 4060 ed3d 81e3 1d3e
000001b0: a349 9ebd c4ac f2bd 7ae4 6c3d 5199 3cbd
000001c0: 58b4 6c3d 081c 29be 1787 2bbe 8cb7 643e
000001d0: fd31 b2bb 926e 673d 09b1 90bc a5fc e93d
000001e0: 2d96 05be 5dde 2a3e 344e 07bc 7b52 323c
000001f0: c69e 183e 6523 89bd e9b5 2ebd f81d d13c
00000200: cc6f 06bc 4ae0 283e dbac b3bd 0ddf 543e
00000210: eacb 0c3e 9772 42bd cf26 58bd 73ef 0e3e
00000220: 4f66 d0bc 19fb 8bbd 6712 1dbd 8cbf 333e
00000230: e749 92bd 8d3d 49bd ddd7 083e e8ff e23b
00000240: dcb6 c53d fec5 983d 67a5 76be 26a9 82bd
00000250: 10d7 2fbd eeb7 913d 945d 82bd 741d fe3d
00000260: 77e1 1bbd 2499 1f3d 5a71 0fbe a841 ee3c
00000270: 8b51 f1bd 6f47 cabd c461 d63c 7244 eabd
00000280: 0c19 f23c e76a 483d 4fe5 f63d f805 1a3d
00000290: df04 6abd 669c 8fbc 309a 783d c935 4abd
000002a0: 3dc1 2cbe 4c0b fd3b ab12 2cbd 2865 0cbe
000002b0: 238e 033d a43c 21bd f081 ca3d 60e9 483e
000002c0: 5099 0abe 74b3 993c 6b48 c33c 7378 eabd
000002d0: 88ef 803d b2e9 e93d 1823 ccbd 8d18 89bd
000002e0: 9072 72bd 6bc9 8ebc c561 7a3a c942 1b3d
000002f0: 77c0 3d3e 8095 b7bd c91f 1cbe a280 a63d
00000300: bd8a 26be b3ba 093e 13c9 1fbe f882 5c3d
00000310: f8aa 3cbe 263d 103e 58c9 1ebd 0e68 f7bd
00000320: 073b 083e 867e 1fbb 2e93 9c3d 2851 623d
00000330: 9ce9 d33d 8049 08bd 43ef 94bc 3ed0 b03a
00000340: bfab e3bd 31ac 5cba f911 d83d f72d 143d
00000350: 46ed ce3c 0487 05be e99e 3dbd bf6f 2bbe
00000360: 5c4a dbbd c23c d2bd 2e65 f43d 12a9 0dbe
00000370: 3fe2 1e3e e7ea c5bd 7b6a f13d dfd5 4b3e
00000380: ea6b ccbd 94b4 21be 1e02 4dbe 8328 363d
00000390: f3dc 67be 4141 463d ba7e 2ebe 0e5b 37be
000003a0: c2f3 1d3e 0059 85bd 1b38 a43d 6ca8 abbc
000003b0: 4c51 e33d 6ac8 ec3d 9b32 84bd 9e51 8b3d
000003c0: 8b82 533d 93ae 453e 672e 34bd 5acd cc3d
000003d0: e7bd 803b 8e68 debd fe7f 2bbe 0eeb 9cbd
000003e0: e321 c3bd 935c 33be 8679 dd3d f91a de3d
000003f0: cf39 a13d 62bb 813c 7089 c7bd c2e5 5ebd
0.1518676 0.10562469 -0.097368024 0.06752349 -0.10355117 -0.20762336 0.11186764 0.07241591
-0.10982209 0.15032288 -0.21564974 0.0073445286 0.18391292 -0.052408155 -0.0017801883 -0.1426041
0.035258595 -0.01302325 -0.20082206 -0.07431406 0.12168395 -0.15703319 -0.14492385 0.010101773
0.14284152 -0.006654359 0.021155788 -0.018273382 -0.071117565 0.06878386 0.08339624 0.11478657
-0.088508196 -0.031387843 0.057390712 -0.17171568 0.13794689 0.100779794 -0.044351302 0.0030590843
-0.041746754 0.11229392 0.17622313 0.1413994 -0.11441898 0.076144606 0.028783131 -0.09536975
0.097864516 0.037857566 -0.15057069 0.10816872 0.11092991 -0.019833462 0.12656781 -0.084579796
0.111142404 -0.25480136 0.026972368 0.097468816 0.037538163 0.107891455 0.026648043 0.18500058
0.06671012 -0.08895651 -0.164532 0.006097128 -0.0075266957 0.052183982 0.19031978 -0.014492602
0.051487874 -0.13641894 -0.049760662 -0.04121139 -0.08357513 0.020422375 -0.13359857 0.14983687
-0.014629103 -0.10200662 -0.003721107 -0.04019266 -0.13494441 -0.13167718 -0.068600215 0.090316646
-0.15995784 0.18838191 -0.16020758 -0.03901236 -0.054322135 0.15764445 0.028848063 -0.08261484
0.12421746 -0.045254145 -0.046085835 -0.072672874 -0.051623944 0.16520935 -0.020278595 -0.11050654
0.16003433 0.20242853 0.11590624 0.15418817 -0.07728889 -0.11849359 0.05783508 -0.04604465
0.057789177 -0.165146 -0.16750751 0.22335643 -0.005438088 0.056501932 -0.017662542 0.11425141
-0.13045569 0.16686387 -0.008258391 0.010883923 0.14904317 -0.06696204 -0.04265395 0.025526986
-0.008205365 0.1649181 -0.08773204 0.20788212 0.13749662 -0.047472563 -0.052771386 0.1395853
-0.02543941 -0.068350025 -0.038347628 0.17553538 -0.07143002 -0.049130965 0.13363595 0.006927479
0.09654018 0.07459639 -0.24086533 -0.06379919 -0.04292971 0.0711516 -0.06365505 0.124079615
-0.038056817 0.038964406 -0.14008084 0.029084042 -0.11783131 -0.09876906 0.026169665 -0.11438836
0.029552959 0.048930075 0.12055456 0.03760335 -0.05713355 -0.017530631 0.06069392 -0.0493677
-0.1687059 0.007722294 -0.04200999 -0.13710463 0.032117974 -0.039364472 0.09888065 0.19620275
-0.13535047 0.018762328 0.023838243 -0.11448755 0.06295687 0.11421527 -0.09967631 -0.06694136
-0.059191287 -0.017430028 0.0009551312 0.03790549 0.18530451 -0.08964062 -0.152465 0.081300035
-0.16263862 0.13450126 -0.15604047 0.05383584 -0.18424594 0.14085826 -0.038766235 -0.12080394
0.13303767 -0.0024336888 0.0764526 0.055253178 0.10347292 -0.03327322 -0.018180495 0.0013489795
-0.11116742 -0.00084179925 0.10550303 0.036176648 0.025259625 -0.13039786 -0.046294127 -0.16741847
-0.10707542 -0.10265495 0.11933361 -0.13834026 0.15515994 -0.09663945 0.11787888 0.19905804
-0.099815205 -0.15791541 -0.20020339 0.04447223 -0.22642879 0.048402075 -0.1704053 -0.17905828
0.15425017 -0.06511116 0.08018514 -0.020954333 0.110994905 0.115616634 -0.06454965 0.068026766
0.051638167 0.19304876 -0.043989565 0.10000105 0.003928888 -0.10859786 -0.16748044 -0.076620206
-0.09527948 -0.17515783 0.108141944 0.108449884 0.07872354 0.015836421 -0.09743011 -0.054418333

conv2.in3.weight f4 [64]
00000000: 640a 823f 71ae 883f af26 6f3f 2433 823f
00000010: f3dc 803f b804 723f 69ea 853f af20 8a3f
00000020: d32e 803f ce02 7d3f 5c69 873f cecf 803f
00000030: 92be 873f 6cbf 7b3f f592 803f d66c 803f
00000040: 9c53 743f b1bf 703f 9888 743f 570b 813f
00000050: e723 813f 4b0d 813f 9e4e 733f 85cd 7e3f
00000060: 7f8b 843f 8088 733f efb1 6c3f 5172 803f
00000070: 436f 803f fa54 763f 0ef9 653f 0153 773f
00000080: b4ba 7f3f 99a3 803f 0cf9 773f 3161 773f
00000090: 5f02 863f f064 783f f79f 723f 1ba0 853f
000000a0: 072e 7d3f d764 863f 50d8 7d3f 3784 833f
000000b0: 6ae6 873f 30bb 853f 16b6 843f 91fb 893f
000000c0: 748b 833f e7ca 843f b25d 773f 3f90 793f
000000d0: f4e5 803f 957f 823f f412 833f 303d 653f
000000e0: 1a23 7b3f 72c7 833f 2d8e 873f d1ed 793f
000000f0: dad4 833f 15cf 7c3f 81a5 743f cb85 863f
1.0159421 1.0678235 0.934184 1.0171857 1.0067428 0.9453845 1.0462161 1.0791224
1.001429 0.98832405 1.0579028 1.0063417 1.0605032 0.9833896 1.0044848 1.0033214
0.9544008 0.940425 0.95520926 1.0081586 1.0089082 1.0082182 0.95041835 0.9953235
1.0355071 0.9513016 0.92459005 1.0034887 1.0033954 0.96223414 0.8983315 0.9661103
0.9989426 1.0049926 0.9686439 0.9663268 1.0469474 0.9702902 0.94775337 1.0439485
0.9889836 1.0499524 0.9915819 1.0274724 1.0617192 1.044775 1.0368068 1.0779897
1.0276933 1.0374421 0.9662734 0.9748573 1.0070176 1.0195185 1.0240159 0.8954649
0.98100436 1.0295241 1.0590264 0.97628504 1.0299332 0.9875348 0.9556504 1.050958

conv2.in3.bias f4 [64]
00000000: 4149 2fbd acc3 773d db96 ba3b fec4 04bd
00000010: 1cf2 bb3d 587e d8bc 9803 10bd 2ef5 aebb
00000020: 9ce3 6cbb 801e bbbd e80a 92bb a602 adbc
00000030: 53f1 e6bc bc91 c03c 532b 383d db80 d83d
00000040: 6a97 803b 6498 183d 795b 083c 14bc c43b
00000050: 3ba6 63bd 918a 113d 1c79 113c 1e8f 043b
00000060: b5c1 a23d 1f81 08bd fa77 f1bd b65b 03bd
00000070: da38 83bc 6c82 c83c f87d 3abd 635d cebd
00000080: ce70 6b3d a23a b63d 0cef 0d3d df20 e23c
00000090: 5289 e93d ee30 d2bd 996f 9ebd 4e57 33bd
000000a0: 4260 bfbc 628a a6bb 9037 653d a255 513d
000000b0: 35dd 2bbd c55a a8bd 4b84 a4bc 241f a53c
000000c0: b50d c23d df63 303c 1a99 a33d 06fe b13d
000000d0: 97cf 3fbd 93c9 c9bd d15d abbc cb4e 34bb
000000e0: 9b29 71bd 2676 27bd e22a 383d 355e 49bd
000000f0: 3a7a a43c 3d2a 02bd 0263 36bc 52e9 073e
-0.04279447 0.06048934 0.005694253 -0.03241443 0.09177038 -0.026427433 -0.035159677 -0.0053392863
-0.0036146408 -0.09136677 -0.0044568665 -0.021119427 -0.028191244 0.023506992 0.044963192 0.10571452
0.0039243 0.037254706 0.00832259 0.006003866 -0.05557845 0.035532538 0.008878972 0.0020226906
0.07947103 -0.033326264 -0.11790462 -0.032069884 -0.01601832 0.024476252 -0.04553029 -0.10076406
0.057480626 0.08897902 0.0346518 0.027603565 0.11403145 -0.10263239 -0.07736129 -0.043784432
-0.023361329 -0.0050824145 0.05596119 0.051107056 -0.041959006 -0.08220438 -0.020082613 0.02015645
0.09475271 0.010765999 0.07988186 0.08691029 -0.046828832 -0.098529 -0.020918759 -0.0027512785
-0.05887757 -0.04088416 0.04496277 -0.04916211 0.020077813 -0.031778563 -0.011132004 0.13272598

conv3.conv1.weight f4 [64, 64, 1, 1]
00000000: 4eed 4dbc c37a 5dbd 1d2c 923c a722 8c3d
00000010: c278 b6bd 110d 0abc b3dc a93d a648 b73d
00000020: 9121 eabd d775 56bd 7431 97bd 7fa5 223c
00000030: af7b a93b 9181 ce3c 02f4 7c3c 662b c8bd
00000040: e8ed 82bd 4b4e a53c 9243 203d 9b71 d1bd
00000050: 1072 b3bb 0255 26be 0b8b 7b3c e3b3 03be
00000060: 864b 15bd 6f19 0abd ffeb 37bd 691b ee3d
00000070: 5491 90bc a3a1 0abd 3572 c5bd 89c0 f4bc
00000080: b429 03be 6daf 00bd 09fd 7cbd d818 50ba
00000090: 668e f63d e7c0 ee3d 47d5 8dbd 0646 4dbd
000000a0: 43b4 923b 6b28 5e3d a018 0bbd 4b27 a03c
000000b0: 22bd f33c 3bd9 873d 025a 0abd 88c2 b13d
000000c0: 1735 b2bc 7f5e 10be ecd8 5bbd 95ec b0bd
000000d0: 8ceb 263e 0197 1a3e b8fc 24bd 047e 5dbc
000000e0: 816b 373d 3b38 44bd 8496 c1bd f912 d9bd
000000f0: 28a5 553e 5fca fdbc e86a 333e 20b7 6bbd
00000100: 505f 74bd 98e9 603b 1474 1bbd 7c89 20be
00000110: 29af 31bc ebbe 383d 1cec 9bbd 8288 80bd
00000120: 00c2 f13d 0c69 0c3e db23 4cbd 0c9d 203d
00000130: 9d35 f93d 5d5c 0c3e cd3f 663d 41e1 94bd
00000140: 2b70 0cbe bcae 5fbd 8703 96bd 2058 093e
00000150: afd7 fbbd 0b4e 9a3c 841b f03d 94c9 133d
00000160: 9db9 4fbd 6457 97bd 8e3f 4f3c f8ef 87bd
00000170: 6304 8bbc 536a 6abd a981 ab3d f02b 2e3d
00000180: 9663 d63c e614 7c3d c997 fb3d cef7 d5bc
00000190: 2570 743d 46e0 0bbe 55cf f3bd 5f55 c9bd
000001a0: b904 00bd c8cf 933c 3ce0 543d deb5 15be
000001b0: 451f e1bd de26 c83c 2bdf c03c f4d7 80bd
000001c0: cb2a 3e3d 4d14 b6bc aad9 a6bd 91b5 973b
000001d0: ef38 f4bd 7139 243e a402 2e3e d870 61bd
000001e0: af6d adbd 8d57 cb3d 7212 c4bc 9dbd 52bd
000001f0: c74f 4abd 3f9d 143c 3f59 26be d8d4 233d
00000200: 1fc4 16b8 1423 07be 2f7c 38ba accf d03d
00000210: d778 673b 526c 753d 02f4 e43d 6e7f 4e3c
00000220: 8fe1 823d 3515 1abc 4439 263e 2405 db3b
00000230: 5b62 bc3d 69d1 e6bd ad5c d43d 2268 5a3d
00000240: bce7 a73d b1fa 37bd bcd8 9c3c 0e63 07be
00000250: a632 69bd 7242 413d aca3 a3bd c6ed 12be
00000260: 41df 203e 1110 8abd bc9b ddbd 93d2 e3bd
00000270: 707f e73c ac6b 423d 8e68 6dbd b4b5 46be
00000280: 2c1e 053e 6c0e 9abd db5f 25be db24 9abc
00000290: 6af6 613d 5852 a23d b4f5 d9bc c512 5bbd
000002a0: 7839 ddbd 6988 fcbc 11c0 41bd ffe9 02bc
000002b0: d853 973d 6efb 08bc 1f4f 63bd 7b32 4cbd
000002c0: f801 9abd c2d3 013d e55e 4d3d 2dd6 dd3c
000002d0: 291b 7e3d de5e 3abd e5dc 90bd d225 43bd
000002e0: 8dd8 f83b 1c84 afbd d5c4 8bbd a211 2cbd
000002f0: c79d ef3d 38b6 8ebd 2fb4 ffbc 5649 98bd
00000300: f4e5 bebd f81f 28bd e09c 5c3d 4ef8 d0bc
00000310: d64f a5bd eecd fabd aa79 ae3c 1bf4 d63d
00000320: e83d 333d 17f0 1abd 9599 c9bd c9a3 f5bd
00000330: 2e48 263c 1d5d 0e3c 3d0d 98bc febe 7f3d
00000340: 4933 05bd 8bf9 843d 26f7 b6bc 80c9 a5bd
00000350: ccde 7cbc 4b79 0fbd 0af1 12be 159c b3bd
00000360: fff6 1b3c 890d 11bc e08d babd d747 90bd
00000370: 1886 ea3d 322c 523d ae7d 15bc 4505 0f3e
00000380: 9ea3 063e d691 35bd 84dc 323d 6cc5 913d
00000390: 55ae 03be 123e 013e 38c2 8e3d 6d0c 0abd
000003a0: ba42 27bd d4f0 d0bd 9796 673b 44ef 0a3e
000003b0: 509e 84bd ccc2 ed3d d564 793a a4c9 e63d
000003c0: 07ba 06bd 9e59 54bb 3dfb cb3d f89c 453d
000003d0: 9612 e83d 1b98 22be 31ff 77bd 9dcc f5bc
000003e0: 12dc cc3c aec2 763d fd5c 22bd 2595 023e
000003f0: 72d3 12be a5d9 8f3d 7732 423d 3114 203c
-0.012568785 -0.054072153 0.0178433 0.06842547 -0.089097515 -0.008425967 0.08294048 0.089494035
-0.114321835 -0.052358475 -0.07382479 0.009927153 0.005172215 0.025208266 0.015439035 -0.097739026
-0.06393033 0.020178935 0.03912694 -0.10226747 -0.005476244 -0.16243365 0.015352975 -0.1286159
-0.036448978 -0.03371566 -0.044902798 0.11626322 -0.017647423 -0.033845555 -0.09640924 -0.029876964
-0.12808877 -0.0314173 -0.06176475 -0.00079382723 0.12038879 0.11657887 -0.06925445 -0.050115608
0.0044770553 0.054237764 -0.03395903 0.019549986 0.029753271 0.0663323 -0.033777244 0.08679682
-0.02175383 -0.14098547 -0.05367367 -0.086388744 0.16300792 0.15096666 -0.040280074 -0.013518814
0.044780258 -0.047905188 -0.09452537 -0.10599322 0.20863783 -0.030980287 0.1752125 -0.05754769
-0.05966121 0.003431892 -0.037952498 -0.15677446 -0.010844984 0.04510395 -0.07613394 -0.06276037
0.11804581 0.13711947 -0.049838882 0.03921227 0.12168429 0.13707109 0.05621319 -0.07269526
-0.13714664 -0.05461 -0.073248915 0.13412523 -0.12296998 0.018836042 0.11723998 0.03608091
-0.050714124 -0.07389715 0.01264943 -0.06637567 -0.016969865 -0.057230305 0.0837434 0.04252237
0.026170533 0.061543368 0.1228481 -0.026119139 0.05967726 -0.13659772 -0.1190478 -0.09830736
-0.031254504 0.018043414 0.05197166 -0.14620158 -0.10992292 0.024432596 0.023543915 -0.0629119
0.04642753 -0.022226477 -0.08146985 0.0046297987 -0.11924922 0.16037537 0.16993195 -0.055039257
-0.08468186 0.09928808 -0.023934577 -0.05145036 -0.049392488 0.0090706935 -0.16244982 0.039997905
-3.594544e-05 -0.13196975 -0.0007037548 0.1019586 0.003531983 0.059917755 0.11179353 0.012603624
0.06390678 -0.00940447 0.16232783 0.0066839624 0.09198447 -0.112704106 0.10369239 0.053321965
0.08198497 -0.044916812 0.019146316 -0.1322138 -0.056933068 0.047182508 -0.07990202 -0.14348516
0.15710165 -0.06741346 -0.108207196 -0.11124148 0.02825901 0.047465965 -0.05796104 -0.19405252
0.12999791 -0.07522282 -0.16149847 -0.018816402 0.05516664 0.07925862 -0.026606418 -0.053484697
-0.10801977 -0.030826764 -0.04730231 -0.007990359 0.07389039 -0.008360727 -0.055495378 -0.04985283
-0.07519907 0.03169609 0.050139327 0.027079666 0.06203762 -0.04550063 -0.07073382 -0.04764349
0.0075941742 -0.0857012 -0.06824652 -0.042009003 0.117000155 -0.06968349 -0.031213848 -0.07435863
-0.09321204 -0.041046113 0.053860545 -0.025509026 -0.08071868 -0.12246309 0.021298248 0.10495778
0.04376021 -0.037826624 -0.098437466 -0.1199413 0.010149045 0.008689192 -0.018561 0.062438004
-0.032519612 0.06492909 -0.022334646 -0.08095074 -0.015433978 -0.035027783 -0.14349762 -0.08770005
0.009519338 -0.008853325 -0.09109092 -0.07044952 0.114513576 0.05131168 -0.009124203 0.13966854
0.13148353 -0.044328533 0.04366733 0.07117733 -0.12859471 0.12621334 0.06970638 -0.033703256
-0.04083512 -0.10202184 0.0035337561 0.13567835 -0.06475508 0.1160942 0.00095136213 0.11268929
-0.032892253 -0.0032402049 0.09960029 0.0482454 0.1133167 -0.15878336 -0.060546104 -0.030004794
0.025007281 0.060244255 -0.03963946 0.12752207 -0.14338472 0.07023934 0.04741141 0.009770439

conv3.in1.weight f4 [64]
00000000: f74e 293f b10b 793f 6923 7b3f 9da8 753f
00000010: 9d5f 643f b256 273f b7cf 713f 026b 553f
00000020: 1d15 2d3f 1baa 803f 2c10 363f 929c 873f
00000030: 80a0 863f 5675 6c3f eb66 843f 292d 453f
00000040: 600d 5b3f 2f59 7b3f ad3e 323f fa2d 2d3f
00000050: fd40 7c3f e192 813f 7091 643f 4ba9 783f
00000060: 4bb6 643f 0c34 363f 77a2 213f 28da 173f
00000070: 88c5 573f 21df 7e3f 112c 633f 4783 083f
00000080: 8b7f 5c3f 4096 723f 057a 623f e417 103f
00000090: 71c0 553f 2cd7 7b3f 945a 7c3f b727 333f
000000a0: 14f4 653f ffb3 023f 04b3 753f b81d 793f
000000b0: b1c4 6d3f 0c20 763f 828d 4a3f c0c4 7a3f
000000c0: c326 3e3f 00bc 7f3f 59c9 193f 317a 6c3f
000000d0: 457c 2e3f e942 c73e c4bb 593f 51d8 773f
000000e0: 9da2 213f 6516 213f b31d 5e3f 0c57 5d3f
000000f0: 42c1 123f fa98 723f 73b5 623f 5c05 663f
0.66136116 0.97283465 0.98100907 0.9596041 0.89208394 0.6536666 0.9445757 0.83366406
0.6761034 1.0051912 0.71118426 1.0594656 1.0517731 0.9236654 1.0343908 0.77022034
0.85567284 0.9818296 0.69626886 0.6764828 0.98536664 1.0122949 0.8928442 0.9713332
0.89340657 0.7117317 0.63138527 0.59317255 0.84285784 0.9955922 0.88739115 0.53325313
0.86132115 0.94760513 0.8846744 0.56286454 0.8349677 0.983752 0.9857571 0.69982475
0.8982556 0.510559 0.9597628 0.9731097 0.9287825 0.9614265 0.79122174 0.97956467
0.74277896 0.9989624 0.6007286 0.9237395 0.6815837 0.38918236 0.8505213 0.9681445
0.63138753 0.62924796 0.8676407 0.8646095 0.5732614 0.94764674 0.8855812 0.8985193

conv3.in1.bias f4 [64]
00000000: c398 8f3e 3851 eb3d 9856 2e3e eb0d 113e
00000010: e081 823e af75 7b3e c087 743d 9341 323e
00000020: 2688 943e 3f37 3a3d 2569 8a3e f051 b33d
00000030: ea91 9d3c 962a 043e d706 cb3e e66e 273e
00000040: c99c 7f3e 1ba1 583d 579e 833e 3e25 603e
00000050: 5ba0 ee3c 0e1d 063e b22e d53d 2c23 c13d
00000060: 84b6 343e 339f 6c3e af01 9b3e 31a8 773e
00000070: afb2 243e b17b 5c3e 4cba 4c3e bd95 9f3e
00000080: 79f3 123e af1e b73d 8322 363e dc81 b73e
00000090: 4e61 093e 43fa 483d 536e 903d 9d42 bf3e
000000a0: 4913 c63d 904d bf3e 9cd0 4d3e 28e5 513e
000000b0: cdfd a63d 6b78 d13d c25e 0f3e cd41 eb3d
000000c0: a1cc 833e ea11 99ba 4442 823e ca23 fb3d
000000d0: d7ac 543e 4ff6 b43e 27c9 373e 88da 70bd
000000e0: daf7 5f3e c46d ae3e ab72 213e 65a0 e13d
000000f0: 6ab6 8a3e e924 cf3d b64f 523e cd3d 403e
0.28046235 0.114901006 0.1702522 0.14165466 0.25489712 0.24556611 0.059699774 0.17407827
0.29010123 0.045462843 0.27033344 0.08755863 0.019234616 0.1290687 0.39653656 0.16350898
0.24962153 0.052888017 0.2570674 0.21889207 0.029129198 0.13097021 0.10409297 0.09430537
0.17647749 0.23107605 0.30274722 0.24185254 0.16083787 0.2153156 0.19992942 0.3116893
0.1435069 0.08941399 0.17786603 0.35841262 0.13416025 0.049066793 0.07052293 0.3735551
0.09671647 0.37363863 0.2009911 0.20497572 0.081538774 0.10228046 0.14000991 0.1148716
0.25742057 -0.0011678312 0.25441182 0.122626856 0.20769058 0.3534417 0.17947827 -0.058802158
0.21871892 0.3406812 0.15766399 0.11016921 0.27092296 0.10114462 0.2053822 0.18773575

conv3.conv2.weight f4 [64, 1, 3, 3]
00000000: 4b00 763e 9f4e 25bd d5e7 81be 0deb 963e
00000010: d019 48bd 0cbc 42be 772e 52bd 1775 a73e
00000020: 4019 66be bb48 143e 835e f63d e760 a1be
00000030: e8bc 893e 5b1f 6a3e 2743 16be 89ec 7c3e
00000040: c99b d5bd a6d7 073e d3e1 9abd a8ea 973d
00000050: ac6a 5a3e 06cb d6bc b194 33bc 990c b43d
00000060: 4120 4c3e 9252 ba3e c9e3 d63d ac42 583e
00000070: fc24 713e 55a9 ac3e 2311 b8bc 70f0 513e
00000080: 8e80 2f3e 64b4 873e c794 a33e e6ad 993e
00000090: 681e 14bd f72c 3a3c a6b8 c43e 40a9 3abc
000000a0: 1153 4ebe 5cbf 98bd 595e 053d 917d bd3e
000000b0: 39b3 8cbe 0b02 0cbe e67f 1cbe 7d6c 13bc
000000c0: 5d4a fcbd 636b d5bd 6070 25be 28ca 823e
000000d0: a1c0 b63e b720 773e df18 a9be 93d4 31bd
000000e0: 5fb9 22be 6863 61be b5c3 abbe 73e6 1ebe
000000f0: 5fd2 8b3e a645 eabc bd91 2e3c 19d8 b3bd
00000100: 6bc1 3fbd a601 18be 3385 01be 0fcf 5d3e
00000110: e954 8e3e d91b a73e e921 083e d0f4 4e3e
00000120: 1cf6 0cbe f74f 01be 99bf cebd 4110 eb3d
00000130: 3869 ba3e 9437 843e cc26 6abc bae9 03be
00000140: a463 87bd bf1d 603e 67ed 85be 8541 1cbe
00000150: 7590 babe 61de 7dbd da81 8dbe 4ba2 c33d
00000160: 00b1 2b3e c782 aebe 1104 52be 107b 903e
00000170: 7105 1bbe 3418 6abe 01c4 ba3e d924 28be
00000180: 63d7 963e b69b 49bc c7dc 7cbe 4dcc 803e
00000190: 84e0 7f3e 813e 193d a302 22be ca1f af3e
000001a0: 8726 73be d0b8 0a3e 3cfe 7e3e 0606 59be
000001b0: 3200 853e bb08 eabd 133b 64bd 145c 10bd
000001c0: 082f b2bd 4af3 a53d b704 8dbe 33e9 e8be
000001d0: 63cd 5dbe cb4b be3d 5c52 6ebe f01d 79bd
000001e0: ceb0 8ebd a9b0 853e 3d9c babc 2b1a b03d
000001f0: 2b83 913e 6668 8a3e ec8f 0f3d 922d 843e
00000200: 62cc 0dbe 896b 62be ac50 a9bd 44a5 323e
00000210: 193e b23e b3f8 2cbe 4557 94bd 5acc ac3d
00000220: 49dc b7be 30a8 ebbc f4ee a73e 49c8 6fbe
00000230: 1539 a6bd 094f 60bd 6190 95bc 6aff ee3d
00000240: 3552 703e c98c 9bbb 4f55 abbd aa60 33be
00000250: 8b98 34be ee80 8bbe 6c01 aabc 16bb bd3e
00000260: cb7f 793e 34c0 a53d 56ad 543e cbec fabd
00000270: 0b78 933e 64c6 11be ff5b 363e 88a6 d43d
00000280: 5864 0ebd 2ec8 443d ef49 dcbc 01a9 a73e
00000290: cdf0 873e aad2 8e3e 0c44 29be 3eed 873d
000002a0: bcf6 87be 8443 0a3d 5f1c 98be d5f5 84be
000002b0: 7908 88be 68c2 093e 2e65 333e b4b4 d63e
000002c0: 693c 2f3d d352 ba3d f90d 9fbd a55d 2dbe
000002d0: 3131 323e d16c 163d e7fd f8bd 5f04 93be
000002e0: 281f b5be eae4 c0be 0314 1ebe 9100 44be
000002f0: d9e0 23be 2801 dc3c 00bf 433e 0fe2 3d3e
00000300: e16d 19be d6ac 813e fd44 dd3e 369b 5ebc
00000310: dff3 20be 8879 193d e09e 323e 9db8 81be
00000320: e693 afbe a64d 1ebb 4a36 1f3e 7668 233e
00000330: 573c 3f3e 5bfd c1be 4789 a4be 88d5 5dbe
00000340: 8bc4 1bbe 6065 19bb 3637 b73d 349a 9dbd
00000350: 00c5 ae3e 7e53 413e 193f 883e 95e8 9dbc
00000360: 1b70 923e 7b20 6e3e bd99 ca3e 5c79 b4bd
00000370: d225 ad3d 79a4 513e d8e6 2abe ba5a 90be
00000380: e714 9abd 4f84 0a3e ab02 8a3e 934c fa3d
00000390: 8abb c63d 1cd1 3ebe 1c4b 19be 9b80 28be
000003a0: ad06 52be 2a86 99bd d4b1 91bc 7eca d03d
000003b0: b781 a3bd f5fa 463d 8bd7 36be a07e bb3e
000003c0: a788 03bc 9104 5e3c e0cf 843e 7149 b53d
000003d0: 9129 7dbe 1766 c03d 4155 a13e c7fc c9be
000003e0: 8e43 413e dc52 d23d 9e8a 14be 944c 3cbe
000003f0: b7f8 a8bb 41c1 9bbd d6ee 4a3e 69f6 603d
0.2402355 -0.040358182 -0.25372186 0.29476205 -0.04885274 -0.19017047 -0.051313844 0.3270652
-0.2247057 0.1448087 0.120297454 -0.31519243 0.26901937 0.22863524 -0.14674054 0.24699606
-0.10430104 0.13265857 -0.07562604 0.07417804 0.21329755 -0.026219856 -0.010960744 0.08791465
0.19934179 0.3639112 0.10492665 0.21119183 0.23549265 0.3372294 -0.022469109 0.20501876
0.17138883 0.26504815 0.31949446 0.30015486 -0.03616181 0.0113632595 0.38422126 -0.011392891
-0.20148875 -0.07458374 0.03256068 0.37009862 -0.27480486 -0.13672654 -0.15283164 -0.008998034
-0.12318871 -0.10420873 -0.16156149 0.25544858 0.3569384 0.24133573 -0.33026788 -0.043415617
-0.15891026 -0.22010577 -0.3354775 -0.15517597 0.27308938 -0.028597664 0.010654864 -0.08781452
-0.046815317 -0.14844379 -0.12648468 0.21661018 0.27799156 0.32638434 0.13294186 0.20210576
-0.13765758 -0.1262816 -0.10095138 0.114777096 0.364084 0.25823653 -0.014291476 -0.12882128
-0.06610802 0.21886347 -0.26157686 -0.15259369 -0.36438337 -0.061979655 -0.2763813 0.09552439
0.16766739 -0.3408415 -0.20509364 0.2821889 -0.15138794 -0.22860795 0.36477664 -0.16420306
0.29461202 -0.012305191 -0.24693595 0.2515587 0.2498799 0.037413124 -0.15821318 0.3420394
-0.23745166 0.13547063 0.2490167 -0.21193704 0.25976712 -0.114274465 -0.0557204 -0.035244063
-0.08700377 0.08103044 -0.2754266 -0.45490417 -0.2166038 0.092918 -0.23273605 -0.060819566
-0.069673166 0.26111344 -0.022779578 0.08598741 0.28420386 0.27032775 0.035049364 0.25816017
-0.13847497 -0.22111334 -0.0826734 0.17445856 0.34813002 -0.16891746 -0.07243208 0.084374145
-0.35910252 -0.028766721 0.32799494 -0.23416246 -0.08116356 -0.054762874 -0.018257322 0.1166981
0.2346886 -0.0047470075 -0.08365881 -0.17517343 -0.17636316 -0.27246803 -0.020752631 0.37056798
0.24365155 0.080933005 0.20769247 -0.12252196 0.28802523 -0.14235836 0.17808531 0.10383326
-0.034763664 0.04804247 -0.026890723 0.32746127 0.26550904 0.278951 -0.16529864 0.06637047
-0.2655543 0.033755794 -0.29709145 -0.25968805 -0.26568964 0.13453066 0.17519066 0.4193474
0.04278222 0.09097829 -0.07766337 -0.16930254 0.17401578 0.03672487 -0.12157803 -0.28714272
-0.35375333 -0.37674648 -0.15437321 -0.19140841 -0.16003741 0.02685602 0.1911583 0.18543266
-0.14983322 0.25327176 0.43216696 -0.01358681 -0.1571803 0.037469417 0.17443419 -0.2533616
-0.34292525 -0.0024155169 0.15548053 0.15957817 0.18675362 -0.37888607 -0.32135984 -0.21663487
-0.15211694 -0.0023406371 0.089460775 -0.076954275 0.34134674 0.18879506 0.2661064 -0.019275943
0.28601155 0.23254578 0.39570418 -0.0881221 0.08454479 0.20472898 -0.16689622 -0.2819422
-0.07523518 0.13527034 0.2695516 0.122216366 0.09703739 -0.18634456 -0.14970058 -0.16455309
-0.20510359 -0.07496293 -0.01778499 0.10194872 -0.079837255 0.048579175 -0.1785566 0.36620045
-0.008028186 0.013550893 0.25939846 0.088518985 -0.24722888 0.09394472 0.31510356 -0.39450666
0.18873426 0.102697104 -0.14506003 -0.18388587 -0.0051566022 -0.0760522 0.19817671 0.054922495

conv3.in2.weight f4 [64]
00000000: df75 7d3f 9094 773f ed5e 7f3f 8640 753f
00000010: f707 7c3f cb1d 7a3f b040 7f3f b11f 783f
00000020: 1454 843f 6824 793f f050 6e3f ecd5 803f
00000030: 28fe 773f fdfc 823f 6e50 6a3f 2168 6a3f
00000040: e0db 6f3f 380a 793f db6f 7e3f c9ce 6a3f
00000050: 7949 823f 2f3a 7b3f 87ad 703f 7520 703f
00000060: 0647 763f a463 7b3f 86d4 803f f86f 843f
00000070: 61f4 833f 9dd9 803f 3792 7e3f e03c 853f
00000080: b88a 823f 636d 773f a316 7b3f c6ed 803f
00000090: 494f 763f 235e 783f f2b7 753f 2fdb 703f
000000a0: 5f91 673f a4c3 843f 0d1b 753f d197 823f
000000b0: 812a 713f e5c6 6e3f 5882 863f 8490 653f
000000c0: 06ed 6c3f 233a 6f3f 16fd 813f b4f0 713f
000000d0: de87 703f eeaa 863f 14ce 6e3f efb3 7f3f
000000e0: e62e 7e3f 417b 783f 4d01 6c3f 38bd 703f
000000f0: 8ff1 793f e1fe 6f3f d18d 763f 0610 783f
0.9900798 0.96711063 0.9975422 0.9580158 0.98449653 0.9770171 0.9970808 0.9692336
1.0338159 0.97321177 0.9309225 1.0065284 0.96872187 1.0233456 0.91528976 0.9156514
0.9369488 0.9728122 0.9938943 0.9172178 1.0178672 0.98135656 0.9401478 0.93799525
0.96202123 0.98198915 1.0064857 1.034667 1.0308954 1.006641 0.99441856 1.0409203
1.0198584 0.96651286 0.98081416 1.0072563 0.9621473 0.9701864 0.95983803 0.9408445
0.90456194 1.0372205 0.957444 1.0202581 0.9420548 0.9327224 1.0508528 0.8967364
0.9254917 0.93448085 1.0155361 0.9450791 0.93957317 1.0520914 0.932832 0.9988393
0.9929031 0.9706307 0.92189485 0.94038725 0.97634214 0.9374829 0.96310145 0.9689945
