tmp/models/epoch2_batch2286.pth (torch, 987253 bytes, 85 tensors)

conv1.weight f4 [32, 3, 9, 9]
0	0xbc840cec	-0.016119443
1	0x3d30fb0f	0.043208178
2	0xbc94e1e5	-0.018174121
3	0xbd0beaad	-0.03415935
4	0x3c72e2bf	0.014824568
5	0x3d09c108	0.033631355
6	0x3d29215f	0.04129159
7	0xbd00582a	-0.03133408
8	0xbb86e892	-0.00411708
9	0x3d7dde00	0.061979294
10	0x3d5e5545	0.054280538
11	0xbd26575d	-0.04061066
12	0xbd88df0a	-0.06683166
13	0x3cc93773	0.024562573
14	0xbcda8515	-0.026674787
15	0x3ce7c691	0.028292926
16	0x3d94f780	0.072737694
17	0x3c9f23da	0.019426275
18	0x3aa4432a	0.0012532223
19	0x3dc3112e	0.09524761
20	0xbd32d0c9	-0.043656144
21	0xbd8d0199	-0.0688507
22	0xbc40dbea	-0.011771182
23	0xbd0bbe5d	-0.03411709
24	0xbde2820c	-0.11059961
25	0xbc82d88b	-0.015972396
26	0x3d803720	0.06260514
27	0x3dd718dc	0.105027884
28	0xbc44e007	-0.012016303
29	0x3ad94336	0.0016575817
30	0xbd58ecad	-0.052960087
31	0x3a8fb634	0.0010964335
32	0xbd215ef2	-0.039397188
33	0x3bc5ef12	0.0060404623
34	0x3b3e2448	0.0029013325
35	0xbd2a3c55	-0.041561443
36	0x3d95333c	0.07285163
37	0x3d4d2248	0.05008152
38	0xbc3354d5	-0.0109455185
39	0x3da9f570	0.082987666
40	0x3d8bd47b	0.06827637
41	0x3e0490d0	0.12945867
42	0x3ce35d04	0.027754314
43	0x3d37a705	0.044837017
44	0x3cba6695	0.022753993
45	0x3d5ca517	0.05386838
46	0x3bf667d3	0.007519701
47	0x3d7d5245	0.061846036
48	0x3d2ec9de	0.042672984
49	0x3d7557fd	0.059898365
50	0x3d85928c	0.06522092
51	0x3d352e7e	0.04423379
52	0x3da638be	0.081162915
53	0xbd7bdbe7	-0.061489012
54	0xbcedd5dd	-0.029032642
55	0xbd29a7f1	-0.041419927
56	0x3db4ab77	0.08821767
57	0x3d163613	0.036672663
58	0x3dc0d7df	0.09416174
59	0x3c4ea85d	0.012613383
60	0x3d1f436a	0.03888265
61	0x3c810e51	0.015753897
62	0xbce80ed9	-0.028327392
63	0xbcaff065	-0.021476934
64	0x3d6c2d3e	0.057660334
65	0xbc9aab96	-0.018880647
66	0x3d3adc9e	0.045620553
67	0x3dcbca9e	0.099507555
68	0x3d6c7ccf	0.057736214
69	0xba433a20	-0.0007447321
70	0x3d66b29b	0.056322675
71	0x3b6c0dd7	0.0036018991
72	0x3d0b4d4a	0.034009255
73	0x3cb4a2e3	0.022050327
74	0xbd140f8d	-0.036147643
75	0x3c878d18	0.01654677
76	0x3bd3de5b	0.006465716
77	0x3dc9d50e	0.0985509
78	0x3da475b0	0.080302596
79	0x3d139766	0.036033057
80	0x3c9fb706	0.019496452
81	0xbd8bc30a	-0.0682431
82	0x3a2b5629	0.0006535971
83	0xbda3a987	-0.07991319
84	0xbd32e549	-0.043675695
85	0xbcf9efe3	-0.030509895
86	0xbcb255a5	-0.021769354
87	0x3d2626aa	0.040564217
88	0xbd087a31	-0.033319656
89	0x3db129b1	0.0865053
90	0xbd0f9b38	-0.035060138
91	0x3d00924e	0.031389527
92	0x3c85e716	0.016345542
93	0x3be0b1a6	0.006857115
94	0x3cf3529c	0.029702477
95	0x3d59d0e9	0.053177748
96	0xbd82419b	-0.063601695
97	0x3da1d4df	0.0790193
98	0xbce637a0	-0.028102696
99	0xbd382833	-0.044960212
100	0x3cb3f0cb	0.021965405
101	0x3caaf87e	0.020870443
102	0xbda64851	-0.08119262
103	0xbdc138f7	-0.09434693
104	0xbdb511e1	-0.08841301
105	0xbdea8aa2	-0.11452223
106	0xbd7c4528	-0.06158939
107	0xbda19843	-0.0789037
108	0x3b9c1ffa	0.004764554
109	0xbc527ce0	-0.012847155
110	0xbbaf0a3a	-0.0053417953
111	0x3b06dd9e	0.0020578871
112	0x3c5fd82c	0.013662379
113	0xbd8c770f	-0.06858646
114	0xbb39e161	-0.0028363096
115	0xbdb2fb41	-0.08739329
116	0xbdbedf0d	-0.09319887
117	0xbd359357	-0.044329967
118	0xbcbe3c86	-0.02322222
119	0xbc199ae1	-0.009375305
120	0x3d4f6d27	0.050641205
121	0x3d764d74	0.06013246
122	0x3de83d4b	0.11339816
123	0xbc08e026	-0.008354222
124	0xbc3e9486	-0.01163209
125	0xbd2b8635	-0.041876037
126	0x3d87c955	0.06630198
127	0xbaaf6e3f	-0.0013384296
128	0x3c965a93	0.018353736
129	0x398dacb8	0.000270223
130	0x3c8dc13b	0.017304054
131	0x3da2c7fd	0.07948301
132	0x3dbc2226	0.09186201
133	0x3cd5c6db	0.026095798
134	0xbd11b39e	-0.035571687
135	0xbc467d43	-0.012114826
136	0x3b93202c	0.004489919
137	0x3d1ce5f4	0.038305238
138	0x3d86b20a	0.06576927
139	0x3dd4fea9	0.10400135
140	0xbb9b321d	-0.0047361986
141	0x3d07908b	0.03309683
142	0x3d4f1c4b	0.05056409
143	0x3b3f2f20	0.0029172376
144	0xbd072329	-0.032992516
145	0xbc92ebbf	-0.017934678
146	0x3cd1a16c	0.025589667
147	0x3db91743	0.0903764
148	0x3d9faeaf	0.0779699
149	0x3b024a8c	0.001988086
150	0x3d537fdb	0.051635604
151	0x3d8d2fb6	0.06893866
152	0x3c3814b6	0.011235407
153	0xbd518bbe	-0.05115866
154	0xbd5338b6	-0.051567756
155	0xbd126e07	-0.03574946
156	0xbca35d32	-0.0199419
157	0xbccf9115	-0.025337735
158	0xbb0b141f	-0.002122171
159	0x3d8771fe	0.06613539
160	0xbb6305d2	-0.003464092
161	0x3ce37695	0.027766505
162	0xbd56cf48	-0.052443773
163	0xbd8e667c	-0.06953141
164	0xbd595ddd	-0.05306803
165	0x3c7cd31c	0.015431192
166	0x3d82d2f0	0.063878894
167	0x3d7bcbea	0.061473764
168	0xbbd96894	-0.006634781
169	0x3da50831	0.08058203
170	0x3dbe9b04	0.09306911
171	0xbc8d2660	-0.017230213
172	0x3b4c9474	0.0031216415
173	0xbca021b4	-0.01954732
174	0xba5e9f47	-0.0008492362
175	0x3cdf7609	0.027277963
176	0x3d9cbf3a	0.07653661
177	0x3db8b147	0.09018188
178	0x3c10340b	0.0088014705
179	0x3ca497f0	0.02009198
180	0x3d8139a4	0.06309822
181	0x3d31a033	0.04336567
182	0xbd361eb2	-0.044462867
183	0x3c4e90f4	0.012607802
184	0xbc55c242	-0.013046803
185	0xbb927924	-0.0044700075
186	0xbd3bb2e7	-0.04582491
187	0xbdb2f234	-0.08737603
188	0x3d8a114e	0.06741582
189	0x3cbb2721	0.022845807
190	0x3d1243c7	0.03570917
191	0x3c957864	0.018245883
192	0xbc337b8b	-0.010954748
193	0xbd39aa14	-0.045328215
194	0xbc963e41	-0.018340232
195	0xbcad8de5	-0.021185825
196	0xbb797abc	-0.003806754
197	0xbd9b8f59	-0.07595701
198	0x3d8a9820	0.06767297
199	0xbaea7735	-0.001788831
200	0xbd6affc8	-0.05737284
201	0x3cd389eb	0.0258226
202	0xbcdf6132	-0.027268026
203	0xbc07be5d	-0.008285132
204	0x3c6d2a41	0.014475406
205	0x3b7db162	0.0038710465
206	0x3c84b1bb	0.01619803
207	0x3c164877	0.00917255
208	0xbd85de9b	-0.06536599
209	0xbc986d61	-0.018606843
210	0x3d94ecbd	0.07271717
211	0x3d621d55	0.055203754
212	0xbc9b8d4a	-0.01898827
213	0xbc951ad9	-0.018201279
214	0xbd0dba4c	-0.034601495
215	0xbd4cf4fc	-0.050038323
216	0x3cacfcb5	0.021116594
217	0xbc80804c	-0.015686177
218	0x3c950716	0.018191855
219	0xbd096425	-0.03354277
220	0x3c93b638	0.018031225
221	0xbd1f1bde	-0.038844936
222	0xbbb5db59	-0.00554983
223	0xbadd5014	-0.0016884827
224	0xbd50a4dd	-0.050938476
225	0x3c97f799	0.018550681
226	0xbc067a07	-0.0082078045
227	0xbcfc8746	-0.030826222
228	0x3d116ed4	0.035506085
229	0x3da4e023	0.08050563
230	0xbc47bc07	-0.012190825
231	0xbc939120	-0.018013537
232	0x3ac900fb	0.0015335375
233	0x3bf0b4b2	0.0073457593
234	0x3d602362	0.054721244
235	0xbd2d1176	-0.04225298
236	0xbcad8715	-0.021182576
237	0x3bbd208c	0.005771702
238	0xbc0ed88d	-0.008718622
239	0xbc87c136	-0.016571622
240	0x3d1a481b	0.03766642
241	0x3d2f74b7	0.042835917
242	0xbce31a30	-0.027722448
243	0xbc547c38	-0.012969069
244	0xbb87ebc7	-0.00414798
245	0xbdb8e28e	-0.09027587
246	0x3cb8b588	0.022547498
247	0xbd0f8e23	-0.03504766
248	0xbda16850	-0.07881224
249	0xbd77c8f2	-0.06049437
250	0xbcbd172f	-0.023082344
251	0xbd28d38e	-0.04121738
252	0x3c311801	0.010808946
253	0x3ced3981	0.028958084
254	0xbd055a4a	-0.03255681
255	0xbcf84993	-0.03030852

in1.weight f4 [32]
0	0x3f7861b7	0.970241
1	0x3f771f5f	0.96532243
2	0x3f8839c1	1.0642625
3	0x3f8b9205	1.0903937
4	0x3f7f176e	0.99645126
5	0x3f8046e4	1.0021634
6	0x3f7967ab	0.9742381
7	0x3f7193de	0.9436625
8	0x3f837ee6	1.0273101
9	0x3f7dfa47	0.9921002
10	0x3f8ea429	1.1143848
11	0x3f7cd464	0.9876158
12	0x3f82c38b	1.0215925
13	0x3f7a2281	0.977089
14	0x3f82a8c2	1.0207751
15	0x3f81490d	1.0100418
16	0x3f73b69e	0.95200527
17	0x3f7c0091	0.98438364
18	0x3f7e89bd	0.9942892
19	0x3f6925bc	0.91073203
20	0x3f77082e	0.96496856
21	0x3f87f60e	1.0621965
22	0x3f78bee5	0.9716628
23	0x3f800bdb	1.0003618
24	0x3f725e53	0.9467518
25	0x3f765302	0.9622041
26	0x3f6f55ff	0.93490595
27	0x3f810362	1.0079157
28	0x3f79421d	0.97366506
29	0x3f7757ca	0.9661833
30	0x3f7579a6	0.95888746
31	0x3f760fa4	0.96117616

in1.bias f4 [32]
0	0x3d083cd7	0.033261146
1	0x3bda7481	0.0066667204
2	0x3d52d961	0.05147684
3	0x3e5ddab5	0.21665461
4	0x3e0fd55a	0.14046231
5	0x3dabd3fa	0.08390041
6	0x3d112aaa	0.03544108
7	0x3da6532e	0.08121334
8	0x3dec7009	0.115448065
9	0x3da83dad	0.08214889
10	0x3eb01ee9	0.34398583
11	0x3e3d1a76	0.18467125
12	0x3daf8b61	0.08571506
13	0x3d1cacb8	0.038250655
14	0x3dfe5ee8	0.12420446
15	0x3dee0834	0.11622658
16	0x3d4ac528	0.04950443
17	0x3d7ccd23	0.06171907
18	0x3cf9e961	0.030506792
19	0xbc14625d	-0.009056655
20	0xbcae8ec1	-0.021308305
21	0x3e4f49c2	0.2024298
22	0xbc88f5eb	-0.016718825
23	0x3d7ce787	0.06174424
24	0xbc9012fe	-0.017587181
25	0x3ddd96f8	0.10819811
26	0x3dba0cea	0.090844944
27	0x3e7d0242	0.24707893
28	0x3d762789	0.060096297
29	0x3c739104	0.014866117
30	0xbccd882b	-0.025089344
31	0x3c2b3d4f	0.010451629

conv2.conv1.weight f4 [32, 32, 1, 1]
0	0xbe37d79a	-0.17953339
1	0x3cf36294	0.029710092
2	0x3e7210ee	0.2363927
3	0xbe0fdfd1	-0.14050223
4	0x3d356782	0.044288166
5	0xbd9e7301	-0.07736779
6	0x3d698d93	0.05701978
7	0x3d7721ec	0.060335085
8	0x3d6b6f83	0.057479393
9	0xbcfe5547	-0.031046523
10	0xbe56e3a0	-0.2098527
11	0xbd621a24	-0.05520071
12	0xbc3bcea4	-0.011462841
13	0xbcbbe3f1	-0.02293584
14	0x3e012c98	0.12614667
15	0x3cec0795	0.02881221
16	0xbd8fd582	-0.07023145
17	0x3e028dd0	0.1274941
18	0x3cfb5642	0.03068078
19	0xbab44812	-0.0013754389
20	0x3e0205e9	0.12697567
21	0x3e50d696	0.20394358
22	0xbd871277	-0.06595319
23	0xbc130067	-0.008972264
24	0xbe21a908	-0.15787137
25	0x3d0692a4	0.03285469
26	0xbdc6d378	-0.09708303
27	0xbd8bfce1	-0.06835342
28	0x3df9a0e8	0.121888936
29	0xbd9f154e	-0.077677354
30	0x3e08d812	0.13363674
31	0x3cc0c2e0	0.023530424
32	0xbde5bfdf	-0.11218237
33	0xbd2c9ef8	-0.042143792
34	0xbe271a37	-0.16318594
35	0xbe8852ad	-0.26625577
36	0xbd4d54f4	-0.050129846
37	0x3dcf0775	0.10108844
38	0xbe176bdb	-0.14787237
39	0xbdad66e8	-0.084668934
40	0x3d893f45	0.06701521
41	0xbd02cd94	-0.031934336
42	0xbd413e3e	-0.0471785
43	0x3da5f388	0.081030905
44	0x3dc92905	0.09822277
45	0xbbadfa46	-0.005309376
46	0xbc1d378b	-0.009595762
47	0x3d85db2e	0.06535946
48	0x3e6c8fac	0.23101681
49	0x3d97f1f0	0.07419193
50	0xbe1b91a4	-0.15192276
51	0xbe1edeea	-0.15514722
52	0x3df1043b	0.11768385
53	0x3dd97e56	0.106198
54	0x3ddd2088	0.107972205
55	0xbdd89d3f	-0.10576867
56	0x3e1b63f1	0.15174843
57	0x3d46141e	0.04835903
58	0xbdc32179	-0.09527869
59	0x3e1e633f	0.15467547
60	0x3d551054	0.052017525
61	0xbacb0377	-0.0015488704
62	0xbb4d70b6	-0.0031347699
63	0x3d8adfbd	0.06780956
64	0x3de26f51	0.11056388
65	0x3e1c0fa9	0.15240349
66	0x3cd7eccf	0.026358036
67	0x3d57aa2d	0.052652527
68	0xbd17660c	-0.036962554
69	0xbe0df74b	-0.13863866
70	0xbdabc66d	-0.08387456
71	0x3d822bdc	0.06356022
72	0xbdcc597d	-0.09978006
73	0xbd711490	-0.0588575
74	0xbe20aa01	-0.15689851
75	0xbe082a77	-0.13297449
76	0xbd8f326e	-0.069920406
77	0xbe4c83c1	-0.19972135
78	0x3d7c8948	0.06165436
79	0x3bf23f3b	0.0073927916
80	0xbdc21e73	-0.09478464
81	0x3dcf009f	0.1010754
82	0x3e3bf668	0.18355715
83	0xbd49cc89	-0.049267326
84	0x3db79678	0.089642465
85	0x3e5a8871	0.21341111
86	0x3d8a6baa	0.067588165
87	0xbd8f3548	-0.069925845
88	0xbdbab8aa	-0.09117253
89	0x3d68ac94	0.05680521
90	0xbdd634b3	-0.1045927
91	0x3e4d874b	0.20071141
92	0x3e16d001	0.14727785
93	0x3c3f997b	0.011694307
94	0xbdbf444d	-0.09339199
95	0x3d1dff43	0.038573515
96	0xbbd2fd54	-0.0064388905
97	0x3d8c1474	0.068398386
98	0xbe1f2c13	-0.15544157
99	0xbe1151aa	-0.14191309
100	0xbd05edc7	-0.032697465
101	0xbd3bac90	-0.045818865
102	0x3e081971	0.13290955
103	0xbcd69279	-0.02619289
104	0x3e470fc2	0.19439605
105	0xbde25fa0	-0.11053395
106	0x3c0235ce	0.007947398
107	0x3d9a1429	0.075233765
108	0x3e252c12	0.16130093
109	0xbe1564fb	-0.14589302
110	0x3e0477d0	0.1293633
111	0x3b2206ec	0.0024723364
112	0x3dcb337d	0.0992193
113	0xbd173ca0	-0.03692305
114	0x3e03686f	0.12832807
115	0x3da512e7	0.08060246
116	0xbdfa5901	-0.122240074
117	0xbc439361	-0.011936993
118	0x3dbab008	0.091156065
119	0x3de1326e	0.10995947
120	0xbe02c2f3	-0.1276968
121	0xbe18e003	-0.14929204
122	0x390e6ac2	0.00013581946
123	0x3dc3714c	0.09543094
124	0x3d1708c8	0.03687361
125	0x3e2aaf39	0.16668405
126	0x3cddabdd	0.02705949
127	0x3dd53db7	0.10412162
128	0x3e2c17a2	0.1680589
129	0xbe1bdafb	-0.15220253
130	0xbc1cc1c4	-0.009567682
131	0x3d9cc758	0.07655209
132	0xbc634158	-0.01387056
133	0x3d88d22f	0.06680714
134	0xbdb6941b	-0.089149676
135	0xbce4770d	-0.0278888
136	0x3e3eeed2	0.1864579
137	0x3e3d806b	0.18506019
138	0x3b79f2e7	0.0038139166
139	0x3cbb9fce	0.02290335
140	0x3d32a67b	0.0436158
141	0x3e207bcf	0.15672229
142	0x3e3eb4f6	0.18623719
143	0x3dd8ccbf	0.10585927
144	0xbd9abc4f	-0.07555448
145	0xbd050371	-0.032473985
146	0x3dfd77c8	0.12376362
147	0x3c90be0d	0.017668748
148	0x3e0871b3	0.13324623
149	0xbdc01668	-0.09379274
150	0xbd9d333c	-0.07675788
151	0x3def8014	0.11694351
152	0xbdabc350	-0.08386862
153	0x3c9202c0	0.017823577
154	0xbd3594a2	-0.0443312
155	0x3d1cebc7	0.038310792
156	0x3ce235e9	0.027613597
157	0x3d30cd11	0.043164317
158	0xbda71d8e	-0.08159934
159	0xbde9b753	-0.114119194
160	0xbdf5f55a	-0.12009688
161	0x3dfb622b	0.122745834
162	0x3e2ce0b2	0.1688259
163	0x3e17f77d	0.14840503
164	0xbe3b8832	-0.18313673
165	0x3e3b3462	0.18281701
166	0x3cb3c224	0.02194316
167	0xbd8f3abb	-0.06993624
168	0x3d1d17de	0.03835284
169	0xbc8f5f7b	-0.017501583
170	0xbd893edf	-0.06701445
171	0xbe572f1c	-0.21014065
172	0x3e180faa	0.14849725
173	0x3da58213	0.0808145
174	0x3c2b71a6	0.010464108
175	0x3def72c2	0.1169181
176	0x3e191e86	0.1495305
177	0xbe079885	-0.13241775
178	0xbd6f12b2	-0.05836744
179	0xbc84f042	-0.016227845
180	0x3dae9301	0.085241325
181	0xbe004ded	-0.12529726
182	0x3d6bdd25	0.057583947
183	0xbd744fba	-0.059646346
184	0xbe0408f0	-0.12894034
185	0x3d9a77fb	0.07542416
186	0x3dbd905a	0.092560485
187	0xbe1d6462	-0.15370324
188	0xbd74044e	-0.059574418
189	0x3e1a0364	0.15040356
190	0x3d3a30dc	0.045456752
191	0x3e4a0f16	0.19732317
192	0x3d0b9895	0.03408106
193	0x3e0d5584	0.13802153
194	0xbe15dfbd	-0.1463613
195	0xbe6e5534	-0.2327469
196	0xbd3641af	-0.044496235
197	0x3e514876	0.20437798
198	0x3d3561a4	0.04428257
199	0xbe00e71c	-0.12588161
200	0x3e514115	0.20434983
201	0x3dac987e	0.08427523
202	0x3e1d904a	0.15387073
203	0x3db81674	0.089886576
204	0xbd3dd404	-0.046344772
205	0x3d2709e8	0.04078093
206	0x3d9435a3	0.07236793
207	0x3d35839e	0.044314973
208	0xbe2b758a	-0.16744056
209	0x3de72aff	0.11287498
210	0x3d356267	0.044283297
211	0x3dc517e0	0.096236944
212	0xbd883f1a	-0.06652661
213	0xbe0079ed	-0.12546511
214	0xbc50608e	-0.012718333
215	0xbdf4070f	-0.11915409
216	0xbe2350a4	-0.1594873
217	0x3c93879b	0.018008998
218	0x3bfc79ad	0.0077049346
219	0x3dec9630	0.115520835
220	0x3d3ce8e7	0.04612055
221	0xbdd2c0a6	-0.10290651
222	0xbc89798e	-0.016781595
223	0x3c44585f	0.01198396
224	0x3da66772	0.081251994
225	0xbc2ea58f	-0.010659589
226	0x3e26fbd1	0.16306998
227	0xbd347345	-0.044055242
228	0x3e1896c4	0.14901263
229	0xbe086622	-0.1332021
230	0xbb72a953	-0.0037027195
231	0x3c4da436	0.012551358
232	0xbd7c9128	-0.06166187
233	0xbdebce0d	-0.115139104
234	0xbe0c4c93	-0.13701086
235	0xbceaf202	-0.028679851
236	0x3e654516	0.22389635
237	0x3d80c77a	0.06288047
238	0xbd6f530a	-0.0584288
239	0xbd9c0f25	-0.07620076
240	0xbc64005a	-0.013916099
241	0xbcdfba02	-0.027310375
242	0xbc878536	-0.016543012
243	0x3d619800	0.0550766
244	0x3de0dcc4	0.10979608
245	0x3e3a0607	0.18166362
246	0xbd61c7dc	-0.05512224
247	0xbdcfe2a8	-0.10150653
248	0xbe0aa1f4	-0.13538343
249	0x3d1be232	0.038057514
250	0x3c3fc8ce	0.01170559
251	0xbe29ad1b	-0.16569941
252	0xbe0e63a1	-0.13905193
253	0xbdd8c2ec	-0.105840534
254	0xbd0fb0e0	-0.03508079
255	0x3dd01a68	0.101612866

conv2.in1.weight f4 [32]
0	0x3f7f788a	0.99793303
1	0x3f4c5a4d	0.7982529
2	0x3ed8d273	0.4234806
3	0x3f7c6c02	0.98602307
4	0x3f8295a2	1.0201914
5	0x3f8076ee	1.0036294
6	0x3f336c59	0.700872
7	0x3f80212e	1.0010126
8	0x3f83585a	1.0261338
9	0x3f58b980	0.8465805
10	0x3f6170af	0.88062567
11	0x3f5e05e1	0.8672772
12	0x3f612dab	0.8796031
13	0x3f682c15	0.90692264
14	0x3f7fee46	0.9997295
15	0x3ef70530	0.48246145
16	0x3f7a3fe0	0.97753716
17	0x3f638bbc	0.8888509
18	0x3f873b58	1.0564985
19	0x3f07911f	0.5295581
20	0x3f7d02bc	0.988323
21	0x3f4b73d8	0.7947364
22	0x3f6ceb9c	0.9254701
23	0x3f7a122a	0.97683966
24	0x3f522abf	0.82096475
25	0x3f1854ae	0.5950421
26	0x3f569426	0.83819807
27	0x3f3bcee6	0.73362577
28	0x3f7317a8	0.9495797
29	0x3f28f952	0.6600543
30	0x3f3ff2dd	0.74979955
31	0x3f7e16df	0.9925365

conv2.in1.bias f4 [32]
0	0x3db0233c	0.086004704
1	0x3e6c9b53	0.23106126
2	0x3ebff2be	0.37489885
3	0xbd4decc3	-0.05027462
4	0xb9647636	-0.00021787811
5	0xbd2fcb75	-0.04291864
6	0x3e58f946	0.2118884
7	0x3d1a7d25	0.037717003
8	0x3d15b507	0.036549594
9	0x3dee5bf8	0.116386354
10	0x3dd221cc	0.102603525
11	0x3e63e9cf	0.2225716
12	0x3daf417c	0.08557412
13	0x3e10a1a4	0.14124161
14	0x3d1979b3	0.037469577
15	0x3e8d0921	0.27546027
16	0x3d4c24f4	0.04983993
17	0x3dd47ec7	0.10375743
18	0x3ce043f6	0.027376156
19	0x3e9e7d01	0.30954745
20	0x3d68bc62	0.05682028
21	0x3e6c742b	0.2309119
22	0x3d76b78a	0.06023363
23	0x3d54d278	0.05195853
24	0x3e21743a	0.15766993
25	0x3e52dbaf	0.20591615
26	0x3e169d6c	0.14708489
27	0x3e564e09	0.20928206
28	0x3d9bc3df	0.07605719
29	0x3e4b9d7d	0.19884296
30	0x3e39f7c1	0.18160917
31	0x3d467eb8	0.048460692

conv2.conv2.weight f4 [32, 1, 3, 3]
0	0x3df9ca25	0.12196759
1	0x3e94d978	0.29072165
2	0xbe12573f	-0.14291094
3	0x3e0650c0	0.13116741
4	0xbe7b808d	-0.24560757
5	0xbe2d6c4c	-0.16935843
6	0xbdc8a930	-0.09797895
7	0xbe634c94	-0.22197181
8	0xbdb8e106	-0.09027295
9	0xbe88898d	-0.26667443
10	0x3df4c9da	0.11952563
11	0x3e862521	0.26200202
12	0xbe3aefc5	-0.18255527
13	0x3e90d39f	0.28286454
14	0xbcc12a14	-0.023579635
15	0xbe8c1ff2	-0.27368122
16	0x3dd62541	0.10456324
17	0x3eb2f415	0.34951845
18	0xbe97661f	-0.295701
19	0x3d7c1c44	0.061550394
20	0x3e8a8153	0.27051792
21	0x3df3b929	0.11900551
22	0xbc90e668	-0.017687991
23	0x3e8a744f	0.2704186
24	0xbdcd0fc2	-0.10012771
25	0x3e5f1a73	0.21787433
26	0xbe74e40a	-0.23915115
27	0xbe98155c	-0.29703796
28	0x3d1af9ec	0.037836
29	0x3e271f40	0.16320515
30	0x3ce5b305	0.028039465
31	0xbe619921	-0.2203107
32	0xbe2234c6	-0.15840444
33	0xbe9780ac	-0.29590356
34	0xbe4a6a7d	-0.19767185
35	0x3d5d6d4c	0.05405931
36	0x3e8f040e	0.2793278
37	0x3d274262	0.040834792
38	0xbe26c91d	-0.16287656
39	0xbe9a0639	-0.30082873
40	0xbe384c34	-0.17997819
41	0x3d0714c5	0.03297879
42	0x3d72c134	0.059266284
43	0x3e763bd4	0.2404626
44	0xbc8a1163	-0.016853994
45	0xbe7ffc46	-0.24998578
46	0xbdabf813	-0.08396926
47	0xbe264540	-0.16237354
48	0xbe9a65cd	-0.30155793
49	0x3c276fe3	0.010219547
50	0xbe6432b4	-0.22284967
51	0xbd986ae0	-0.0744226
52	0x3deb59bf	0.11491727
53	0xbd4a6bfa	-0.04941938
54	0x3c1199c9	0.008886763
55	0x3e05be67	0.13060914
56	0x3d9e2ea8	0.07723743
57	0xbea035e2	-0.3129111
58	0xbde21550	-0.11039221
59	0x3eb7faee	0.35933632
60	0xbe77f1f0	-0.24213386
61	0x3e94a00d	0.2902836
62	0x3d4419e7	0.047876265
63	0x3e49bf79	0.19701947
64	0xbe69d0f5	-0.22833617
65	0x3e420d4d	0.18950386
66	0x3eb16fad	0.34655514
67	0xbe2575c1	-0.16158201
68	0xbd248375	-0.04016443
69	0x3e688764	0.22707897
70	0x3c094e51	0.0083804885
71	0xbed040b0	-0.40674353
72	0xbe08ac29	-0.13346924
73	0xbe89c0bc	-0.26904857
74	0x3e7f6397	0.24940334
75	0xbe78240a	-0.24232498
76	0x3c8630c1	0.01638067
77	0x3e6a8fcb	0.22906415
78	0xbeab76ac	-0.33488977
79	0x3e0f88d4	0.1401704
80	0xbbe9358a	-0.007116978
81	0x3e72d327	0.2371336
82	0xbe55745f	-0.20845173
83	0x3e820a11	0.25398305
84	0x3e036e44	0.12835032
85	0x3f0cbf6a	0.54979575
86	0xbe391aad	-0.18076582
87	0x3e74b8bd	0.23898597
88	0x3e71a59c	0.23598331
89	0x3e2dc5ae	0.1696994
90	0x3e5ce831	0.21572949
91	0xbec873cf	-0.39150855
92	0xbebd6f26	-0.36998862
93	0x3dd20fcd	0.1025692
94	0xbea5b65f	-0.323657
95	0xbe9e02e4	-0.3086158
96	0x3e92e01d	0.2868661
97	0xbe118049	-0.14209093
98	0x3e3d060e	0.18459341
99	0xbe0439ca	-0.1291267
100	0x3db3863d	0.08765838
101	0x3ca7673a	0.020434964
102	0x3d8074f5	0.06272308
103	0x3eb2396c	0.34809434
104	0xbdba5561	-0.09098316
105	0xbd5db53c	-0.054127917
106	0xbe02c457	-0.1277021
107	0x3e0d1989	0.13779272
108	0xbd3ff36d	-0.04686301
109	0xbe237615	-0.15963013
110	0x3e7e3252	0.24823883
111	0xbe302f76	-0.17205605
112	0x3e4469d1	0.19180991
113	0x3ec74ba5	0.389249
114	0x3dd24090	0.102662206
115	0x3e0f0712	0.13967541
116	0x3ee1abce	0.4407639
117	0xbd505e58	-0.050871223
118	0x3e3ae0da	0.18249837
119	0x3ea9df99	0.33178404
120	0xbe66b5b1	-0.22530247
121	0x3e7fd389	0.24983038
122	0x3e46f06f	0.19427656
123	0xbe56a3d0	-0.20960927
124	0xbe2b9ea1	-0.16759731
125	0x3d597283	0.053087723
126	0x3ca89ab6	0.020581584
127	0xbe89fc83	-0.26950464
128	0x3da979b1	0.08275164
129	0xbe234377	-0.15943705
130	0x3d43cdfe	0.04780387
131	0x3ea2c15d	0.3178815
132	0x3e2c0958	0.1680044
133	0x3e908070	0.2822299
134	0xbd070267	-0.032961275
135	0x3e3f40de	0.18677089
136	0x3ed2ecee	0.41196388
137	0x3cdd5449	0.02701773
138	0x3e0fbf34	0.14037782
139	0xbdaaf48e	-0.08347426
140	0xbd5cc709	-0.053900752
141	0xbd58bbd9	-0.05291352
142	0xbd590345	-0.052981634
143	0xbc3cf2e3	-0.011532518
144	0xbe3f4ceb	-0.18681686
145	0xbe63876a	-0.22219625
146	0x3e8dc80d	0.2769169
147	0xbd590bfa	-0.052989937
148	0x3eb29597	0.34879753
149	0x3e568494	0.20949012
150	0xbe1736ff	-0.14767073
151	0x3d4a2ed3	0.04936106
152	0x3cdad4dd	0.02671283
153	0x3e16691b	0.14688532
154	0xbdd60d36	-0.104517385
155	0xbe7c7c43	-0.24656777
156	0x3e16e362	0.14735177
157	0x3caf07fe	0.021366116
158	0xbe494581	-0.1965542
159	0x3e9b7d3d	0.30368987
160	0x3e964cdd	0.29355517
161	0x3db17a56	0.08665912
162	0xbe83192a	-0.25605136
163	0x3dbf3a91	0.093373425
164	0xbe95b5d6	-0.29240292
165	0x3e673ded	0.22582217
166	0x3e615d22	0.22008184
167	0xbe7d51fd	-0.24738307
168	0x3d848509	0.06470687
169	0x3d46ccb5	0.048535068
170	0xbe6abb08	-0.2292291
171	0xbe6c3c76	-0.23069939
172	0xbe59a4f6	-0.21254334
173	0x3defa3fd	0.117012
174	0x3e26f00b	0.16302507
175	0x3eacb9ec	0.33735597
176	0xbc9a8671	-0.018862935
177	0x3e2629b2	0.16226843
178	0x3e8f489b	0.2798508
179	0x3e2429ac	0.16031522
180	0xb9805636	-0.00024478295
181	0xbec39e32	-0.3820663
182	0x3dc785c3	0.0974231
183	0xbe0cb66c	-0.13741463
184	0xbe8784bf	-0.26468465
185	0xbde9ff03	-0.11425593
186	0x3e2ff097	0.17181621
187	0x3e3c8300	0.18409348
188	0xbd1b0f68	-0.03785649
189	0x3e1a58f4	0.15072995
190	0xbe5ba8ee	-0.2145116
191	0xbe3c13cf	-0.18366931
192	0x3ec163ff	0.37771603
193	0x3e1e877d	0.15481372
194	0x3dbd95b7	0.092570715
195	0x3e28ede6	0.16497001
196	0xbd8aacc8	-0.06771237
197	0xbbeff6be	-0.007323115
198	0xbde19032	-0.11013831
199	0xbe43bc5e	-0.19114825
200	0x3e8065fa	0.25077802
201	0xbe4f7cce	-0.20262453
202	0x3d9cae1c	0.07650396
203	0xbd2c1f5a	-0.042022087
204	0x3d9cd60f	0.07658016
205	0xbea8072a	-0.32817966
206	0x3eabde59	0.33568075
207	0x3e927797	0.28606865
208	0xbe1295ac	-0.14314908
209	0xbdaec101	-0.08532906
210	0xbde5da55	-0.11223284
211	0x3e0eb2de	0.1393542
212	0x3dbb741f	0.09153008
213	0xbdef753a	-0.11692281
214	0xbcb16c99	-0.021658229
215	0x3dc52caf	0.09627663
216	0x3e0187a6	0.12649402
217	0xbe092c06	-0.133957
218	0xbeb941d2	-0.3618303
219	0xbdf70e51	-0.120632775
220	0x3e26a4ef	0.16273855
221	0x3e65bac5	0.22434528
222	0x3e4e0b15	0.20121415
223	0x3e584c23	0.21122794
224	0x3ea9b178	0.3314321
225	0x3d2a2e0c	0.04154782
226	0x3e2ff5e7	0.17183648
227	0x3e971ffa	0.29516584
228	0xbe01b2bc	-0.12665838
229	0xbd2dfe13	-0.042478632
230	0xbc1d261e	-0.009591607
231	0xbdb888b0	-0.09010446
232	0x3d234b27	0.039866593
233	0xbe4d224c	-0.20032614
234	0xbe9e639f	-0.3093538
235	0x3e31e6cc	0.17373198
236	0xbea9d8f4	-0.33173335
237	0x3e2ae4a8	0.16688788
238	0x3e929c25	0.28634754
239	0xbe5c75a4	-0.21529251
240	0x3d8b083b	0.06788679
241	0x3e185f2f	0.1488006
242	0x3e30f1cf	0.17279743
243	0xbe65a0d7	-0.22424637
244	0x3ea1cf57	0.316035
245	0x3d99c1c9	0.07507665
246	0x3e37d91d	0.17953916
247	0x3ec2143f	0.37906072
248	0x3e6b3bd8	0.22972047
249	0x3d8ec00e	0.06970225
250	0xbe28dbd5	-0.1649011
251	0x3c5f348f	0.013623371
252	0x3eaebe29	0.34129456
253	0xbda3d0e5	-0.07998828
254	0xbe8c8360	-0.2744398
255	0x3e6f2aae	0.23356125

conv2.in2.weight f4 [32]
0	0x3f80b10c	1.005403
1	0x3f87813b	1.0586313
2	0x3f818b2f	1.01206
3	0x3f8232e2	1.0171778
4	0x3f57a288	0.8423238
5	0x3f702f15	0.9382184
6	0x3f832bd9	1.0247756
7	0x3f7a8b5e	0.9786891
8	0x3f755c9c	0.95844436
9	0x3f792039	0.9731479
10	0x3f794cf8	0.9738307
11	0x3f6f39c7	0.93447536
12	0x3f81f431	1.0152646
13	0x3f7b7d9d	0.98238546
14	0x3f7b71c0	0.98220444
15	0x3f7ba4b5	0.982982
16	0x3f7cd462	0.9876157
17	0x3f57cc3d	0.8429602
18	0x3f677317	0.9040999
19	0x3f7e1dc7	0.99264187
20	0x3f6c25ce	0.92245185
21	0x3f7398f7	0.9515528
22	0x3f82577e	1.018295
23	0x3f6aa5aa	0.91659033
24	0x3f7a0310	0.97660923
25	0x3f7b947f	0.9827346
26	0x3f7dbe50	0.9911852
27	0x3f7a0f41	0.97679526
28	0x3f836640	1.0265579
29	0x3f829ea6	1.0204666
30	0x3f7f70d4	0.9978154
31	0x3f7aed47	0.98018306

conv2.in2.bias f4 [32]
0	0x3db57125	0.08859471
1	0x3eb90672	0.3613773
2	0x3ed878e7	0.4227974
3	0x3de83c76	0.11339657
4	0xbe0a7023	-0.1351934
5	0x3d5dfa97	0.05419406
6	0x3e88f4cd	0.26749268
7	0x3d94767e	0.07249163
8	0x3e025b72	0.12730196
9	0x3e8906d6	0.26763028
10	0x3ddcd01d	0.10781882
11	0x3e3c3334	0.18378907
12	0x3e0dc871	0.13845994
13	0x3e3da590	0.18520188
14	0x3d092b5d	0.03348862
15	0x3ec1e7f7	0.37872288
16	0x3dbe765f	0.09299921
17	0x3ce2961d	0.02765947
18	0xbd3ee584	-0.046605602
19	0x3e9c988f	0.30585143
20	0x3c8c2d8b	0.01711156
21	0x3ec1a9c7	0.37824842
22	0x3df9867e	0.121838555
23	0x3d796ca6	0.06089463
24	0x3e63c513	0.22243147
25	0x3e897d04	0.26853192
26	0x3e416dba	0.18889514
27	0x3e7e0ae8	0.24808848
28	0x3dc83076	0.09774868
29	0x3e8e49ac	0.27790582
30	0x3e8e9f4a	0.27855903
31	0x3dc07c94	0.093987614

conv2.conv3.weight f4 [64, 32, 1, 1]
0	0xbdd937e9	-0.10606367
1	0xbe34789f	-0.17624138
2	0x3e1cc825	0.15310724
3	0xbe296668	-0.16542971
4	0x3e06dce7	0.13170205
5	0x3ddf08bd	0.108903386
6	0xbd4ab6a8	-0.0494906
7	0xbafd23af	-0.0019313003
8	0x3d586b9c	0.052837
9	0xbdba16b9	-0.09086365
10	0x3d130ebc	0.035902724
11	0x3e238d4d	0.1597187
12	0x3e14e683	0.14541058
13	0x3e4e917a	0.20172682
14	0xbe14386d	-0.1447465
15	0x3d005156	0.031327568
16	0x3c9581b1	0.018250318
17	0xbd45753c	-0.048207507
18	0x3de59b6b	0.11211284
19	0x3d893b61	0.06700779
20	0x3df40752	0.11915459
21	0xbd90bc01	-0.07067109
22	0x3ca7a9c8	0.0204667
23	0x3d330e20	0.043714643
24	0x3dabd094	0.083893925
25	0xbe0ebf1a	-0.13940087
26	0xbe76f6f9	-0.2411765
27	0xbdcc7fbe	-0.099853024
28	0x3e162bf5	0.14665206
29	0xbace7009	-0.0015749942
30	0x3d6e323e	0.058153383
31	0x3d3b8c39	0.045788024
32	0xbc039bbc	-0.008032735
33	0xbe18cb9c	-0.14921421
34	0x3e27b62f	0.16378091
35	0xbe21b871	-0.15793015
36	0xbccd0b4d	-0.025029803
37	0xbe3491ba	-0.17633715
38	0xbe1075b4	-0.141074
39	0xbe26a45b	-0.16273634
40	0x3deb829d	0.11499522
41	0xbdfae489	-0.12250621
42	0xbe22a5e0	-0.15883589
43	0xbdb3ade9	-0.08773405
44	0x3d5c5c35	0.053798873
45	0xbc6c8704	-0.014436487
46	0xbde99dff	-0.114070885
47	0xbd812935	-0.06306688
48	0xbce1cb37	-0.02756272
49	0xbdfc8485	-0.123299636
50	0x3e1bb42d	0.1520545
51	0xbdbe7a68	-0.09300691
52	0x3d27e75c	0.040992126
53	0x3e8358a5	0.25653568
54	0xbaa38b6d	-0.0012477465
55	0xbcfac233	-0.03061018
56	0xbd77a9c8	-0.06046465
57	0x3e11ed95	0.14250787
58	0xbe59cd2a	-0.2126967
59	0xbd87e1e4	-0.06634882
60	0x3c44cec2	0.0120121855
61	0xbe1a7ff3	-0.15087871
62	0x3deaeefe	0.114713654
63	0xbda56191	-0.0807525
64	0x3da9d5a5	0.082927026
65	0x3e0672ae	0.13129684
66	0x3e7c7c4c	0.2465679
67	0x3e14e1f6	0.14539322
68	0x3e41d253	0.18927889
69	0xbd2017ff	-0.039085384
70	0xbd5582ed	-0.052126814
71	0xbdda84d6	-0.10669868
72	0x3d3ce291	0.046114508
73	0x3e0fadfd	0.14031215
74	0x3aaf26f4	0.0013363049
75	0xbdcc771d	-0.099836566
76	0x3dcccb48	0.0999971
77	0xbcb2ddb2	-0.021834228
78	0x3d993901	0.07481576
79	0x3cf28461	0.029604139
80	0xbd102dd8	-0.03519997
81	0xbd4a072a	-0.04932324
82	0x3a29c0fb	0.0006475595
83	0x3d9af24c	0.07565746
84	0xbd0cb356	-0.034350716
85	0x3e3109e0	0.17288923
86	0xbe0e3702	-0.13888171
87	0xbc2df623	-0.010617766
88	0x3d49819c	0.04919587
89	0x3e0a743b	0.13520901
90	0xbb7ba89d	-0.0038400062
91	0xbdccc749	-0.09998948
92	0xbd43790b	-0.047722857
93	0xbcf9b2be	-0.030480739
94	0x3bb26cdd	0.0054451064
95	0x3d241dd9	0.040067527
96	0xbd91065b	-0.0708129
97	0x3e76155f	0.2403159
98	0x3e14e2f5	0.14539702
99	0xbd87a6ee	-0.06623636
100	0x3b2f37a2	0.002673604
101	0xbb4b43e8	-0.0031015817
102	0xbdd20071	-0.102539904
103	0xbe2d10af	-0.16900896
104	0x3e60d9ef	0.21958135
105	0xbd96de10	-0.07366574
106	0x3de8ba5c	0.1136367
107	0xbde3a33f	-0.11115121
108	0x3da89899	0.08232231
109	0xbca71da1	-0.02039987
110	0x3de30a11	0.110859044
111	0x3e38e378	0.18055522
112	0xbdfaf1b7	-0.12253135
113	0xbdad9bdd	-0.08476994
114	0xbd5c58b0	-0.053795516
115	0x3dfbe915	0.12300316
116	0x3d1455db	0.03621469
117	0x3ce5fcfe	0.028074738
118	0x3914f7a7	0.00014206638
119	0x3d28749a	0.041126825
120	0x3e118057	0.14209114
121	0x3dfb7b03	0.12279322
122	0xbc9ac8ea	-0.018894631
123	0xbe6bff21	-0.23046543
124	0xbe330eb0	-0.17486072
125	0xbe491fe2	-0.19641069
126	0xbd10c275	-0.0353417
127	0xbdfb82cd	-0.12280808
128	0x3e803799	0.25042418
129	0x3dce75bf	0.10081052
130	0x3d3bbf5b	0.045836788
131	0xbe11e826	-0.14248714
132	0x3dac1afb	0.084035836
133	0x3e3f4c8d	0.18681546
134	0x3d23fe42	0.0400374
135	0xbc7e383d	-0.015516338
136	0xbd13cebb	-0.036085825
137	0xbd7f971c	-0.06239997
138	0xbddf05cd	-0.10889778
139	0xbd3e901e	-0.04652416
140	0x3e26f9a8	0.16306174
141	0x3d9860df	0.07440352
142	0xbdcb9b95	-0.09941784
143	0xbe3aa4c0	-0.1822691
144	0xbdb3fb23	-0.08788135
145	0x3e20ea38	0.15714347
146	0x3dd545ee	0.10413729
147	0xbe59d180	-0.21271324
148	0xbe5d1e82	-0.21593669
149	0xbe04f5b7	-0.12984358
150	0xbdd30028	-0.10302764
151	0x3d34ce2b	0.04414193
152	0xbca0d152	-0.019631062
153	0xbd4ad3ff	-0.04951858
154	0xbde9a737	-0.11408847
155	0xbe0cc3a8	-0.13746512
156	0xbe334b0a	-0.17509094
157	0x3de208fe	0.110368714
158	0x3d1abd11	0.037777964
159	0x3e52df1a	0.20592919
160	0x3d5ff1f2	0.054674096
161	0xbd2a2b91	-0.041545454
162	0xbcc567b2	-0.024097297
163	0x3df831fa	0.12118907
164	0xbda97a54	-0.08275285
165	0x3e4edd4b	0.20201604
166	0x3d03981a	0.032127477
167	0x3d1d6b11	0.038432185
168	0xbe33ed8e	-0.17571089
169	0xbd15c797	-0.036567297
170	0x3d5a24bb	0.053257685
171	0xbd764d16	-0.06013211
172	0xbe05a38a	-0.13050666
173	0xbdd6f96a	-0.10496791
174	0x3dfcb945	0.12340025
175	0xbe7bd552	-0.24593094
176	0xbd575859	-0.05257449
177	0xbdc2293e	-0.094805226
178	0xbd9d7b99	-0.0768959
179	0x3e0dd958	0.13852441
180	0x3d8437c9	0.06455953
181	0xbd66d49a	-0.056355096
182	0x3d91561a	0.07096501
183	0x3e17fe04	0.14842993
184	0x3cfca55a	0.030840565
185	0xbe322cfb	-0.17399971
186	0x3d4629c9	0.048379693
187	0xbe45d17f	-0.19318198
188	0xbdf82d55	-0.121180214
189	0xbdedaab9	-0.116048284
190	0xbddf9b5c	-0.10918304
191	0x3e22665d	0.15859361
192	0x3d092818	0.033485502
193	0xbd678d43	-0.056531202
194	0x3e1c541f	0.15266465
195	0xbe1be2da	-0.15223256
196	0xbd5d34a2	-0.054005273
197	0xbdacea4c	-0.08443126
198	0xbd57a370	-0.0526461
199	0x3db582c2	0.08862831
200	0xbe08b217	-0.13349186
201	0x3e369fd8	0.17834413
202	0x3c9c8e27	0.019110752
203	0x3df99a25	0.12187604
204	0xbe0d8dbb	-0.13823597
205	0x3c0f7a65	0.0087572085
206	0x3e3aaae2	0.18229249
207	0xbe13227c	-0.14368623
208	0xbdd2d599	-0.10294647
209	0xbdabcf84	-0.0838919
210	0xbe0298bb	-0.12753575
211	0xbdfd166a	-0.12357791
212	0xbde4e1b7	-0.11175864
213	0xbdef02df	-0.116704695
214	0xbdea81c8	-0.11450535
215	0xbd9b085a	-0.07569952
216	0x3e06e5c2	0.13173583
217	0xbd99447d	-0.07483766
218	0x3dfa9a9e	0.12236522
219	0xbd45203d	-0.048126448
220	0xbdf3d179	-0.11905188
221	0x3dffd453	0.124916695
222	0xbe166304	-0.14686209
223	0xbddb0332	-0.10693969
224	0x3e0916a9	0.1338755
225	0x3dc144bc	0.09436938
226	0xbcd62413	-0.026140248
227	0xbd820482	-0.06348516
228	0xbd6dacc9	-0.05802611
229	0x3d6323b9	0.05545399
230	0xbe5eadcc	-0.21745986
231	0xbd3c8f18	-0.046034902
232	0x3d9a62f6	0.075384066
233	0xbd98501f	-0.07437157
234	0xbe7023e3	-0.2345119
235	0xbcbc21b5	-0.022965292
236	0x3e5a8096	0.21338114
237	0xbe01d04d	-0.12677117
238	0xbdc91821	-0.09819055
239	0xbcd618fd	-0.026134962
240	0xbc8254ec	-0.015909635
241	0x3ded33e5	0.11582164
242	0x3d0de4c6	0.034642003
243	0x3dc1c04c	0.09460506
244	0x3d880335	0.06641237
245	0xbd770a8e	-0.0603128
246	0x3e76a184	0.24085051
247	0xbd9e3d67	-0.07726555
248	0x3df71fd7	0.1206662
249	0x3cc83a7a	0.024441946
250	0x3dba261b	0.09089299
251	0xbe217491	-0.15767123
252	0x3c7ecd1f	0.015551834
253	0x3d8e3250	0.0694319
254	0x3d18ad71	0.03727478
255	0xbe150599	-0.14552917

conv2.in3.weight f4 [64]
0	0x3f73ef52	0.9528705
1	0x3f7c0d90	0.98458195
2	0x3f8028e1	1.0012475
3	0x3f8de293	1.108477
4	0x3f7b7442	0.9822427
5	0x3f7d1d43	0.98872775
6	0x3f765a5e	0.9623164
7	0x3f809347	1.0044945
8	0x3f83638f	1.0264758
9	0x3f743592	0.9539424
10	0x3f7863e3	0.97027415
11	0x3f810d91	1.0082265
12	0x3f88e2b1	1.0694181
13	0x3f600d3c	0.87520194
14	0x3f7bc019	0.9833999
15	0x3f8e2b46	1.1106956
16	0x3f7d0e15	0.9884961
17	0x3f8513c0	1.0396652
18	0x3f836ae9	1.0267001
19	0x3f6ebe21	0.93258864
20	0x3f80770e	1.0036333
21	0x3f84d950	1.0378819
22	0x3f8615e7	1.0475434
23	0x3f83e24c	1.0303435
24	0x3f8063de	1.0030477
25	0x3f802724	1.0011945
26	0x3f7e3055	0.992925
27	0x3f73f9c7	0.95303005
28	0x3f841de9	1.0321628
29	0x3f894648	1.0724573
30	0x3f79348f	0.97345823
31	0x3f84a13a	1.0361702
32	0x3f794820	0.9737568
33	0x3f6bd11e	0.9211596
34	0x3f75bcaa	0.95991004
35	0x3f811c74	1.0086808
36	0x3f84f13f	1.0386122
37	0x3f74d080	0.95630646
38	0x3f7c818a	0.9863516
39	0x3f7c04a4	0.9844458
40	0x3f804fd3	1.002436
41	0x3f849cb5	1.0360323
42	0x3f5cbab3	0.8622238
43	0x3f7f3a56	0.9969839
44	0x3f83df8b	1.0302595
45	0x3f73392c	0.9500911
46	0x3f89d35e	1.0767629
47	0x3f7f6a13	0.9977123
48	0x3f7ce4f5	0.9878686
49	0x3f829ce1	1.0204126
50	0x3f86d11e	1.0532568
51	0x3f7233ad	0.946101
52	0x3f6d905c	0.927984
53	0x3f856653	1.0421852
54	0x3f77540c	0.9661262
55	0x3f81f9fa	1.0154412
56	0x3f7fa3c2	0.9985925
57	0x3f885d97	1.0653561
58	0x3f83b804	1.0290532
59	0x3f8bb80b	1.091554
60	0x3f7a9072	0.97876656
61	0x3f786779	0.97032887
62	0x3f80bd8d	1.0057846
63	0x3f7bce31	0.983615

conv2.in3.bias f4 [64]
0	0xbd6559a8	-0.055993706
1	0x3d198327	0.037478592
2	0x3d72f288	0.059313327
3	0x3d66ee96	0.056379877
4	0x3d16b894	0.03679712
5	0xbc88a281	-0.01667905
6	0x3d6cae29	0.05778328
7	0x3d95d75e	0.07316469
8	0xbd05fa46	-0.032709382
9	0xbc910c7f	-0.017706154
10	0x3d2c967b	0.042135697
11	0xbbacb9b8	-0.005271163
12	0x3dc8e64c	0.09809551
13	0xbca3c3c1	-0.019990804
14	0x3d0941bb	0.03350995
15	0xbd501d58	-0.050809234
16	0xbd4befbd	-0.04978918
17	0xbd05d6b4	-0.03267546
18	0x3c83475c	0.016025238
19	0xbdabc824	-0.08387783
20	0xbcbd4cbb	-0.023107877
21	0xbd3dca14	-0.046335295
22	0x3d08ce1c	0.033399686
23	0x3d6cb999	0.057794187
24	0x3d3fb331	0.04680175
25	0xbc6e58e5	-0.014547561
26	0xbc1b33bb	-0.009472783
27	0xbc1e1e99	-0.00965085
28	0x3a007f27	0.00049017597
29	0x3d4a4738	0.049384326
30	0xbd9a6fb6	-0.075408384
31	0x3a1cb0f7	0.00059772976
32	0xbb58eef7	-0.0033101419
33	0x3d3cde36	0.046110354
34	0xbd0c1cc7	-0.03420713
35	0x3badd043	0.0053043677
36	0x3c6a5ce7	0.014304376
37	0xbd7f45ff	-0.062322613
38	0xbce4cccb	-0.027929684
39	0xbd02834a	-0.03186349
40	0xbd235af6	-0.03988167
41	0x3db68b54	0.089132935
42	0xbd5088cf	-0.05091172
43	0xbd48bfdd	-0.0490111
44	0xbb59b2b4	-0.0033218088
45	0xbd3c7512	-0.046010084
46	0xbd311562	-0.043233283
47	0x3d103447	0.035206106
48	0xbba65fb9	-0.005077329
49	0xbd19f409	-0.037586246
50	0x3d8664e0	0.06562209
51	0xbd963575	-0.07334415
52	0xbd9ca4cb	-0.07648619
53	0xbd724ec7	-0.05915716
54	0xbcbb7e9c	-0.02288752
55	0x3cc335d8	0.023829386
56	0xbdf302b2	-0.118657485
57	0x3e356657	0.17714821
58	0xbc331f5c	-0.01093277
59	0xbb9ac49d	-0.004723145
60	0xbd46312d	-0.04838674
61	0x3e28236d	0.16419764
62	0x3c3623d7	0.011116943
63	0xbc041157	-0.008060775

conv3.conv1.weight f4 [64, 64, 1, 1]
0	0xbdabd960	-0.0839107
1	0xbdbc74ee	-0.0920199
2	0xbd931997	-0.07182615
3	0x3d176287	0.036959197
4	0xbd7f05df	-0.06226146
5	0x3ddc854c	0.10767612
6	0x3e494ba0	0.19657755
7	0xbd4c31f0	-0.04985231
8	0x3dde038d	0.10840521
9	0xbdea0c74	-0.114281565
10	0x3db6c2fa	0.089239076
11	0xbda23127	-0.07919531
12	0x3debcdf0	0.11513889
13	0x3ce123a7	0.02748282
14	0x3e1faa67	0.15592347
15	0x3e1785ee	0.14797184
16	0xbd1c95a4	-0.038228646
17	0xbcbad338	-0.022805795
18	0xbd9837e7	-0.074325375
19	0x3cb0078a	0.02148797
20	0xbdaaa258	-0.08331746
21	0xbd46e0a5	-0.04855408
22	0x3db3b721	0.087751634
23	0xbd2e7ca1	-0.042599324
24	0xbdf38c50	-0.11891997
25	0x3e1a8015	0.15087922
26	0x3dae3062	0.08505322
27	0x3cd08363	0.025453275
28	0x3d5f7da4	0.05456318
29	0x3da06282	0.07831289
30	0xbdb5ee17	-0.08883303
31	0xbc0712ac	-0.008244198
32	0x3cf9da1e	0.030499514
33	0x3db604e3	0.08887651
34	0xbd89f7b6	-0.067367
35	0x3d697a24	0.057001248
36	0x3cc923ff	0.024553297
37	0xbd884bc8	-0.06655079
38	0x3cf89211	0.030343087
39	0xbc81bebf	-0.015838025
40	0xbe03a247	-0.12854873
41	0xbe04f55f	-0.12984227
42	0x3b4229bc	0.0029626926
43	0x3d39e48d	0.04538398
44	0xbbe27e22	-0.006912009
45	0xbd69085e	-0.056892745
46	0xbe27292c	-0.163243
47	0x3cf133e2	0.029443685
48	0x3c067cb2	0.008208441
49	0xbd3d1394	-0.04616125
50	0xbd3cde33	-0.046110343
51	0x3d21c1c3	0.039491426
52	0x3dedc621	0.11610056
53	0x3df8bb31	0.12145079
54	0xbcf32ee2	-0.029685441
55	0x3d9bedee	0.07613741
56	0x3dcfb13b	0.10141226
57	0xbdacf400	-0.08444977
58	0xbd0c685c	-0.034279212
59	0x3d9e8204	0.07739642
60	0x3da77c6f	0.08178031
61	0xbbd6d34b	-0.00655595
62	0xbe0f6023	-0.14001517
63	0xbdd6ba2a	-0.10484727
64	0xbd441cfb	-0.0478792
65	0xbcde5a1f	-0.027142582
66	0xbd6f4856	-0.058418594
67	0xbdc0bfc1	-0.09411574
68	0x3cecbf7c	0.0288999
69	0xbe0bc11b	-0.13647883
70	0x3dd3401d	0.10314963
71	0xbc061d1d	-0.008185652
72	0xbe029897	-0.12753521
73	0x3dda1655	0.10648791
74	0xbd8c7b6f	-0.068594806
75	0xbda6d7fa	-0.08146663
76	0xbdba345e	-0.090920195
77	0xbd47b065	-0.048752207
78	0x3d8576b3	0.06516781
79	0x3c025507	0.007954842
80	0x3de38b67	0.11110573
81	0xbdc77ed5	-0.09740988
82	0xbc8ee94a	-0.017445225
83	0xbd1075b7	-0.03526851
84	0x3de4499b	0.11146852
85	0xbda5ce1b	-0.08095952
86	0xbe0df4d4	-0.13862926
87	0x3e01c67e	0.12673375
88	0xbc95d173	-0.01828835
89	0xbd5c62ce	-0.053805165
90	0x3de3c4e0	0.11121535
91	0xbb691a59	-0.0035568683
92	0x3d4986c6	0.049200796
93	0x3ce95933	0.028484916
94	0xbd6bf8ed	-0.05761044
95	0xbd21df1b	-0.03951941
96	0x3de93155	0.113863625
97	0xbc574692	-0.013139384
98	0x3bd9979e	0.0066403886
99	0xbdb3e228	-0.0878337
100	0xbde27fb4	-0.11059514
101	0xbd894419	-0.06702442
102	0xbd31eecb	-0.04344062
103	0x3e25926f	0.16169141
104	0xbd745456	-0.05965074
105	0x3e245c79	0.160509
106	0x3ca2624e	0.019822266
107	0xbddbe09b	-0.107361995
108	0xbda58453	-0.080818795
109	0xbc31c755	-0.010850747
110	0xbc801c8e	-0.015638616
111	0xbd060b7c	-0.032725796
112	0x3df722f5	0.120672144
113	0x3bbe5b2b	0.005809208
114	0xbd539f56	-0.051665626
115	0xbabebaf3	-0.0014551565
116	0xbdeebb0e	-0.116567716
117	0xbe1a1ebd	-0.15050788
118	0xbc8f6de0	-0.017508447
119	0xbdf331ba	-0.11874719
120	0x3d9ffca2	0.07811858
121	0xbc5702ae	-0.0131231975
122	0xbdae781b	-0.08519002
123	0x3dc5529e	0.096348986
124	0x3ce68d74	0.028143622
125	0x3d0dd498	0.034626573
126	0x3e0e306b	0.13885657
127	0xbd1cbd21	-0.038266305
128	0xbcfce63d	-0.030871505
129	0xbd55b113	-0.052170824
130	0xbe09bb4e	-0.13450357
131	0xbc9794d2	-0.01850358
132	0x3d41124e	0.047136597
133	0xbe0dd985	-0.13852508
134	0xbc8289c2	-0.015934829
135	0x3cccd36a	0.025003154
136	0x3e0e7b99	0.13914336
137	0x3dfd915e	0.12381242
138	0xbc92fdb0	-0.017943233
139	0x3cf30823	0.029666966
140	0xbdbd2a3d	-0.09236572
141	0x3c5e46f7	0.013566724
142	0xbdd02acd	-0.101644136
143	0x3db4fdf6	0.08837502
144	0xbdcdec62	-0.10054852
145	0xbce3f150	-0.027825028
146	0xbcadc701	-0.021213057
147	0x3dbbc11b	0.09167691
148	0x3cb4f3c0	0.022088885
149	0x3d1075d0	0.035268605
150	0xbdfc7f16	-0.12328927
151	0x3c27ffb0	0.010253832
152	0xbd0a5b1d	-0.0337783
153	0xbdb28a1a	-0.08717747
154	0x3d425425	0.047443528
155	0xbd69d859	-0.05709109
156	0x3d9815ae	0.0742601
157	0xbd4fecea	-0.05076305
158	0xbdb046cd	-0.08607254
159	0x3e07f020	0.13275194
160	0x3cb464e6	0.022020768
161	0xbda2ea29	-0.07954819
162	0x3d2825c2	0.041051634
163	0xbded494f	-0.11586248
164	0xbdbef74e	-0.093245134
165	0xb690a592	-4.3108093e-06
166	0xbcab6e33	-0.02092657
167	0xbcb94a79	-0.02261852
168	0xbdc01d33	-0.09380569
169	0xbe082f3a	-0.13299266
170	0x3c965213	0.018349683
171	0x3d9a42b1	0.075322516
172	0x3db06852	0.086136475
173	0x3d603732	0.05474014
174	0x3d14a238	0.036287516
175	0x3e3053e3	0.172195
176	0x3d43feae	0.047850303
177	0x3de4ed2f	0.11178052
178	0xbe187b86	-0.1489087
179	0xbc63ff93	-0.013915914
180	0xbd0f6c41	-0.03501535
181	0xbd93437a	-0.071906045
182	0x3de61a87	0.112355284
183	0x3cbe812d	0.023254955
184	0x3dcd5b9e	0.1002724
185	0x3e241f06	0.1602746
186	0x3b3fcb81	0.0029265585
187	0xbd5886f4	-0.052863076
188	0x3bd076fd	0.0063618408
189	0xbe02c479	-0.12770261
190	0x3d2ab01a	0.04167185
191	0x3d7b4c82	0.06135226
192	0x3b0d4ea1	0.002156176
193	0x3d3d4f3f	0.046218153
194	0x3d0f114c	0.034928605
195	0xbddc3c24	-0.107536584
196	0xbe45faf0	-0.19334006
197	0x3c7c062f	0.015382334
198	0x3d640792	0.055671282
199	0xbd5cbaa8	-0.053888947
200	0x3dc46dab	0.0959123
201	0x3d57b71e	0.05266487
202	0x3dd8b8a2	0.10582091
203	0xbddb0cb4	-0.10695782
204	0xbe10cbf6	-0.14140305
205	0x3d3d5550	0.04622394
206	0xbd1594c6	-0.036518835
207	0x3ddc2bd4	0.10750547
208	0xbcc31e1e	-0.023818072
209	0x3db534a9	0.08847935
210	0x3dbc18ba	0.09184404
211	0xbb19bb5c	-0.0023457622
212	0x3c1cc919	0.00956943
213	0xbd597fcc	-0.053100392
214	0xbd94afed	-0.07260118
215	0x3d59ae0a	0.053144492
216	0xbda0b710	-0.078474164
217	0x3cfad5be	0.030619498
218	0x3c339209	0.01096011
219	0x3d03dd4e	0.032193474
220	0x3c8a815d	0.016907388
221	0xbd7b54a5	-0.06136002
222	0xbd49bdae	-0.04925316
223	0x3d5dd637	0.05415937
224	0x3e085b11	0.13315989
225	0x3ba78dc8	0.005113337
226	0xbd3421ca	-0.043977536
227	0xba01b200	-0.00049474835
228	0x3bd2770f	0.0064228843
229	0xbc9d37c2	-0.019191626
230	0xbd7625b4	-0.06009455
231	0x3dba77fe	0.09104918
232	0xbe295616	-0.16536745
233	0x3da080c1	0.07837058
234	0xbd0b80bb	-0.034058314
235	0xbe1c13d0	-0.15241933
236	0xbd162245	-0.036653776
237	0xbdf15555	-0.11783854
238	0xbd12d6ae	-0.035849266
239	0x3d711990	0.05886227
240	0xbc87171c	-0.016490512
241	0xbe0f9492	-0.14021519
242	0x3dc77897	0.097397976
243	0xbd3e0742	-0.04639364
244	0xbc230e52	-0.009952145
245	0xbd84eda9	-0.064906426
246	0x3cdd114b	0.026985785
247	0x3d9c00e4	0.076173574
248	0xbde14281	-0.10999013
249	0xbd10c1c1	-0.035341028
250	0x3c64e603	0.013970855
251	0xbda9c18b	-0.082888685
252	0x3ce7cc32	0.02829561
253	0x3ddc9e33	0.107723616
254	0xbcaacc19	-0.020849274
255	0x3d97fbc3	0.074210666

conv3.in1.weight f4 [64]
0	0x3f86e055	1.0537211
1	0x3f5d0c6c	0.8634708
2	0x3f6ba5ef	0.9205007
3	0x3f684b5a	0.9073998
4	0x3f80bac8	1.0057001
5	0x3f6f8eaf	0.9357709
6	0x3f5cf3d4	0.8630955
7	0x3f7e7d3f	0.9940986
8	0x3f752539	0.9575992
9	0x3f614360	0.8799343
10	0x3f629c18	0.8851943
11	0x3f562d82	0.8366319
12	0x3f6e640b	0.93121403
13	0x3f8926cf	1.0714968
14	0x3f6c25fe	0.9224547
15	0x3f3ad2a8	0.72977686
16	0x3f4311bc	0.76198936
17	0x3f6e1f6d	0.930167
18	0x3f72619e	0.946802
19	0x3f50ed83	0.81612414
20	0x3f6ed9d1	0.9330111
21	0x3f6e5ef4	0.93113637
22	0x3f4325e5	0.762297
23	0x3f4343ce	0.76275337
24	0x3f22b664	0.63559556
25	0x3f73c70d	0.952256
26	0x3f856720	1.0422096
27	0x3f7fa42e	0.99859893
28	0x3f28f22f	0.6599454
29	0x3f48eb96	0.78484476
30	0x3f87c103	1.0605778
31	0x3f879fe4	1.059567
32	0x3f6d3188	0.92653704
33	0x3f6639c8	0.8993192
34	0x3f4e1102	0.804947
35	0x3f6fe6ce	0.93711555
36	0x3f272ead	0.65305597
37	0x3f7cd62d	0.98764306
38	0x3f5e9d05	0.8695834
39	0x3f3e636a	0.74370444
40	0x3f770dca	0.96505415
41	0x3f28d403	0.65948504
42	0x3f8a901d	1.082523
43	0x3f64591a	0.8919846
44	0x3f585727	0.84507984
45	0x3f827ec1	1.0194932
46	0x3f49e8cb	0.7887084
47	0x3f400678	0.7500987
48	0x3f7a5353	0.9778339
49	0x3f43e9be	0.7652854
50	0x3f2e5480	0.68097687
51	0x3f13e8e0	0.57777214
52	0x3f822f6c	1.0170722
53	0x3f879e5b	1.0595201
54	0x3f5bea2d	0.859042
55	0x3f7a1d6e	0.97701156
56	0x3f711521	0.94172865
57	0x3f763b7d	0.9618452
58	0x3f69072f	0.91026586
59	0x3f95e7d7	1.1711377
60	0x3f5be765	0.85899955
61	0x3f48f0e5	0.78492576
62	0x3f825ce3	1.0184597
63	0x3f76a893	0.96350974

conv3.in1.bias f4 [64]
0	0x3d3d681d	0.04624187
1	0x3dd26605	0.10273365
2	0x3d86966d	0.0657166
3	0x3d62c53a	0.05536387
4	0xbb70f71c	-0.0036768382
5	0x3e158a79	0.14603604
6	0x3e32f8e5	0.17477758
7	0x3d6cdd42	0.057828195
8	0x3d89aa96	0.0672199
9	0x3dda3984	0.106555015
10	0x3e1a19cf	0.15048908
11	0x3e160ef8	0.14654148
12	0x3de4e786	0.11176972
13	0x3ca46eef	0.020072429
14	0x3da6bf4b	0.08141955
15	0x3ebbc914	0.36676848
16	0x3e9463c5	0.28982368
17	0x3de0da69	0.109791584
18	0x3e11688d	0.14200039
19	0x3e2611df	0.16217755
20	0x3c51cb90	0.012804881
21	0x3e328aaa	0.17435709
22	0x3e1b4f21	0.15166904
23	0x3ea0380d	0.31292763
24	0x3e8f38bc	0.27972972
25	0x3e089477	0.13337885
26	0x3e680138	0.22656715
27	0x3e0132f8	0.126171
28	0x3e7305d8	0.23732698
29	0x3e2a5155	0.16632588
30	0x3db04a38	0.08607906
31	0x3d5cb644	0.05388476
32	0x3e3193d7	0.17341553
33	0x3e34dac6	0.1766158
34	0x3e1f20c8	0.15539849
35	0x3d82dfc6	0.06390338
36	0x3e8decf8	0.27719855
37	0x3d9271b2	0.07150592
38	0x3deae938	0.11470264
39	0x3e4b6510	0.19862771
40	0x3e45f364	0.19331127
41	0x3e5674f4	0.20943052
42	0x3d5568f9	0.052102063
43	0x3e165cd3	0.14683847
44	0x3e2fd73f	0.17171954
45	0x3be3a37a	0.006946978
46	0x3e566fca	0.20941082
47	0x3e970b51	0.2950082
48	0x3d32c586	0.043645404
49	0x3e32e93d	0.17471786
50	0x3e56486a	0.20926061
51	0x3e890d54	0.2676798
52	0x3c4f8f45	0.012668435
53	0x3cd8f501	0.026484014
54	0x3e380e5b	0.17974226
55	0x3d13fb03	0.036128055
56	0x3dcc6d8c	0.09981832
57	0x3df3b92c	0.11900553
58	0x3dbc4ce8	0.09194356
59	0x3e43a63e	0.19106385
60	0x3df75352	0.12076439
61	0x3e265f04	0.16247183
62	0x3c9e4d33	0.01932392
63	0x3d62a2ca	0.05533103
